examples/nntool/visual_wake/model/visual_wake.tflite (tflite, 986372 bytes, 108 tensors)

blocks/0/mobile_inverted_conv/depth_conv/conv/depthwise_bias f4 [12]
0	0x3fd68bc1	1.67614
1	0x3e764b4e	0.24052164
2	0x400b4959	2.1763518
3	0x3e33bec8	0.17553246
4	0xbe7c7f7e	-0.2465801
5	0x3faa9ae8	1.3328524
6	0x3eb624a0	0.35574818
7	0xbf88225c	-1.0635486
8	0x3ecf28bc	0.40460765
9	0x3f5c7774	0.8611977
10	0xbcaf3318	-0.021386668
11	0x402c5879	2.6929

blocks/0/mobile_inverted_conv/depth_conv/conv/weight/read f4 [1, 3, 3, 12]
0	0x3d23ca54	0.039987877
1	0xbde9500d	-0.113922216
2	0x3ba02bdf	0.0048880423
3	0x3d2a3ac2	0.041559942
4	0x3eb4e474	0.35330546
5	0xbdcfbc19	-0.10143299
6	0x3c8094b1	0.015695902
7	0xbf161076	-0.5861887
8	0xbc8943d7	-0.016755981
9	0x3df41a50	0.11919081
10	0x3d94b795	0.07261578
11	0xbd29ed49	-0.04148606
12	0xbda9e0cf	-0.08294832
13	0xbee54397	-0.4477813
14	0x3e26ebdf	0.16300915
15	0xbee8ad95	-0.45444933
16	0x3f6680f6	0.9004053
17	0xbea0ad10	-0.31382036
18	0xbec0f2ac	-0.37685144
19	0x4026618d	2.599704
20	0xbe487752	-0.19576767
21	0xbe6f5500	-0.23372269
22	0xbdc87484	-0.097878486
23	0x3e8a1cc2	0.26975065
24	0x3d1ad13d	0.0377972
25	0xbec0a45d	-0.376254
26	0xbe2484fb	-0.16066353
27	0xbf36b04f	-0.71362776
28	0x3fba9c69	1.4578983
29	0xbec568b2	-0.3855644
30	0xbf066c1c	-0.5250871
31	0xc004d2ec	-2.0753736
32	0xbe86ff9f	-0.26366898
33	0xbebfc218	-0.3745277
34	0xbee581a9	-0.44825485
35	0x3ecac359	0.39602163
36	0x3e834b55	0.2564341
37	0xbe70e86f	-0.23526166
38	0x3ee4dc46	0.44699305
39	0xbe7b3b37	-0.24534307
40	0x3d6e5ffa	0.058197
41	0x3c3460de	0.011009423
42	0xbe76be3d	-0.24096008
43	0xbff776ba	-1.9333107
44	0xbdbc1146	-0.09182982
45	0xbe38bd34	-0.18040925
46	0xbe808335	-0.25100103
47	0x3e2dd17d	0.16974445
48	0xbf12a880	-0.5728836
49	0x3ee06600	0.4382782
50	0x3fa8f264	1.3198972
51	0x3e42ba97	0.19016491
52	0xbf316420	-0.69293404
53	0x4005406a	2.0820565
54	0x3e7bc7da	0.24587956
55	0x4025faa7	2.5934236
56	0x3d9c71b6	0.07638876
57	0x3e2630bb	0.16229527
58	0xbaa7bcc6	-0.0012797348
59	0xbe01a215	-0.12659486
60	0x3ea3125f	0.31849954
61	0x3f04acf9	0.51826435
62	0xbfcc732c	-1.5972648
63	0x3ef660fa	0.48120862
64	0xbf38ec1f	-0.7223529
65	0x3fff81d7	1.9961499
66	0x3ea88895	0.32916704
67	0x407dcd9c	3.9656744
68	0x3d3308b1	0.04370946
69	0x3e92c234	0.2866379
70	0xbda45d76	-0.08025639
71	0xbe861092	-0.26184517
72	0x3e7c8a0f	0.2466204
73	0xbe3aa46f	-0.18226789
74	0x3e833332	0.25624996
75	0xbf170caa	-0.590037
76	0x3ea63a75	0.32466474
77	0x3bfee398	0.007778596
78	0xbec2be44	-0.38035786
79	0x408c115f	4.3771205
80	0xbde3e0bd	-0.1112685
81	0xbe7f7b80	-0.24949455
82	0xbd66f580	-0.05638647
83	0x3ea733ef	0.3265681
84	0xbf157262	-0.5837766
85	0x3f332247	0.6997418
86	0x3f9a3c05	1.2049567
87	0x3f370717	0.71495193
88	0xbf4eba99	-0.80753475
89	0xbfae9dad	-1.3641869
90	0x3f31a146	0.6938671
91	0xc11973a8	-9.590736
92	0x3f5cfa65	0.8631957
93	0x3eaf246b	0.34207472
94	0xbe86860a	-0.2627414
95	0xbf02a9d7	-0.51040405
96	0x3ea4fe9c	0.32225502
97	0x3f52a6be	0.8228568
98	0xbfdc309d	-1.7202336
99	0x3f97bab0	1.1853848
100	0xbf4ef9f5	-0.80850154
101	0xbfa58d43	-1.2933735
102	0x3f67aeed	0.9050129
103	0x4005c433	2.0901
104	0x3f5c2980	0.86000824
105	0x3f25d315	0.6477521
106	0xbe1d0fa1	-0.15337993
107	0xbf55bb7a	-0.8348919

blocks/0/mobile_inverted_conv/inverted_bottleneck/conv/Conv2D_bias f4 [12]
0	0xbf677b0a	-0.9042212
1	0xbee859bd	-0.45380965
2	0xbd772c80	-0.060345173
3	0xbf042121	-0.5161305
4	0x3edbe056	0.42944592
5	0x400a29d0	2.158802
6	0x404d35c4	3.2064066
7	0x3f9b3b8e	1.212755
8	0x401f39b8	2.4878979
9	0xbfe3e944	-1.7805562
10	0x3d881f9e	0.066466555
11	0x3fbc217e	1.4697721

blocks/0/mobile_inverted_conv/inverted_bottleneck/conv/weight/read f4 [12, 1, 1, 8]
0	0x3fc313cc	1.5240417
1	0xbfdacf16	-1.7094448
2	0x3ff5c670	1.9201183
3	0xbe9c094a	-0.30475837
4	0xbf558a15	-0.8341382
5	0xbdde558c	-0.108561605
6	0x3e441f39	0.19152535
7	0x3ee7c69f	0.45268723
8	0x3dfabe92	0.1224338
9	0xbee4ec33	-0.44711456
10	0xbf089018	-0.5334487
11	0xbf0dc390	-0.5537653
12	0x3d71981c	0.058982953
13	0x3d037609	0.03209499
14	0x3f176ae0	0.59147453
15	0x3d62657f	0.055272575
16	0x3d142725	0.036170144
17	0xbda64bc5	-0.08119921
18	0x3f13efd6	0.57787836
19	0x3d375f4b	0.044768613
20	0xbe527637	-0.20552908
21	0x3d3b740b	0.045764964
22	0x3d85ded2	0.0653664
23	0x3e228c8b	0.15873925
24	0xbe3238c0	-0.17404461
25	0x3db90fa8	0.09036189
26	0xbdab8f94	-0.08376995
27	0x3c5424a0	0.012948185
28	0xbe7dd0be	-0.2478666
29	0x3f84f037	1.0385808
30	0xbde17cce	-0.11010133
31	0x3d1434c3	0.03618313
32	0xbdbf1d65	-0.093317784
33	0x3e74453c	0.23854536
34	0xbbed2a17	-0.0072376835
35	0xbd942c64	-0.07235029
36	0xbf23a245	-0.6391948
37	0xbe0fd4e1	-0.1404605
38	0x3d5b3557	0.053517666
39	0x3ead29b4	0.3382088
40	0x3e66c43b	0.22535793
41	0xbe640c53	-0.22270326
42	0xbeb4eb9d	-0.3533601
43	0xbb0cb0d6	-0.0021467707
44	0x3e86ad45	0.2630407
45	0x3d2e3e08	0.042539626
46	0xbd66777f	-0.056266304
47	0xbe0695c5	-0.1314307
48	0x3ea62ccd	0.32456055
49	0xbdb781c7	-0.089603
50	0xbe6336cc	-0.22188872
51	0xbe764776	-0.24050698
52	0x3cd39f12	0.025832687
53	0x3e4bb2bd	0.19892402
54	0xbfd4f1bb	-1.663627
55	0x3f6cfc22	0.92572224
56	0xbcb76d69	-0.022391038
57	0xbbfaff73	-0.0076598465
58	0x3c8913f7	0.016733153
59	0xbca43846	-0.020046365
60	0xbb672303	-0.0035268671
61	0x3de0e572	0.10981263
62	0xbea30754	-0.31841528
63	0xbcae0bfb	-0.021245947
64	0x3ead4c9e	0.33847517
65	0xbe865a7f	-0.26240918
66	0xbee0c88a	-0.43903
67	0x3c8645db	0.016390732
68	0x3e8e416b	0.27784285
69	0xbb82230b	-0.0039714626
70	0xbcdcd3bb	-0.02695643
71	0xbe2bb0de	-0.16766688
72	0x3d846c0f	0.06465923
73	0x3d1306df	0.035895225
74	0x3c669253	0.014072972
75	0xbaf63f21	-0.0018787124
76	0xbd004e79	-0.031324837
77	0xbec147d1	-0.37750104
78	0x3fb5af94	1.4194207
79	0x3ea6cf72	0.32580143
80	0x39dc57de	0.00042027136
81	0xbd0e77ae	-0.034782104
82	0x3dec1621	0.11527658
83	0x3ddd762c	0.10813555
84	0x3e21cd70	0.15801024
85	0xbd7cf933	-0.061761092
86	0xbdfe483a	-0.1241612
87	0x3e33f8b2	0.17575338
88	0x3d595a0f	0.053064402
89	0x3d5f90bd	0.054581393
90	0x3e0c0adc	0.13676018
91	0x3f4f2251	0.8091174
92	0xbe7c842b	-0.24659793
93	0xbeff446a	-0.49856883
94	0xbe7c8c8e	-0.24662992
95	0x3e3d72b1	0.18500783

blocks/0/mobile_inverted_conv/point_linear/conv/Conv2D_bias f4 [8]
0	0x411338ad	9.201337
1	0xc0fa91ab	-7.8302817
2	0x3fc85469	1.565076
3	0x3f804a8f	1.0022753
4	0xbfcc94a5	-1.5982863
5	0x3ffe91ed	1.9888283
6	0xc0688efd	-3.6337273
7	0x3fb1776d	1.3864571

blocks/0/mobile_inverted_conv/point_linear/conv/weight/read f4 [8, 1, 1, 12]
0	0xbf91036e	-1.1329172
1	0xbeb89618	-0.36052012
2	0xbf8a26f2	-1.0793135
3	0xbf4fe3d7	-0.8120703
4	0x3e9a0a5a	0.30086023
5	0x3ea201e1	0.31642058
6	0xbe77e3ec	-0.24208039
7	0xbeb998bb	-0.36249337
8	0xbf9a6b82	-1.2064059
9	0x3ed0dafd	0.40792075
10	0x3d70c75d	0.058783878
11	0xbf9ecc05	-1.2406012
12	0x3daea0c7	0.085267596
13	0x3dc5a32d	0.09650264
14	0x3f31330c	0.69218516
15	0xbdef5d8d	-0.11687765
16	0x3d8fb7e6	0.07017498
17	0x401cfb0e	2.4528232
18	0xbdd27654	-0.102764755
19	0xbd76a201	-0.060213093
20	0x3f11741a	0.5681778
21	0x3e32f1ed	0.174751
22	0xbbe3bc6d	-0.0069499523
23	0xbe7762eb	-0.24158828
24	0xbfb0be1c	-1.3808017
25	0x3e4140ce	0.18872377
26	0xbfad94e2	-1.356106
27	0x3f6d8581	0.92781836
28	0xbc30828d	-0.010773313
29	0x3d454f30	0.048171222
30	0x3e200981	0.15628625
31	0x3e65fceb	0.22459762
32	0x3f9f0bdb	1.2425493
33	0xbd29054f	-0.04126483
34	0x3dadf36e	0.08493696
35	0x3b088a8b	0.0020834531
36	0x3fceb3ab	1.614858
37	0x3c817fbf	0.015807984
38	0xbf5e7193	-0.8689205
39	0x3f28373e	0.6570929
40	0x3e69d3be	0.2283468
41	0x3e67cfed	0.22637911
42	0xbd82e350	-0.06391013
43	0xbce8a73b	-0.028400054
44	0xbf507d75	-0.8144143
45	0x3e4289e6	0.18997917
46	0x3d69a760	0.057044387
47	0xbf0bff36	-0.54686296
48	0x3f206480	0.6265335
49	0xbeaf7ab9	-0.34273317
50	0x3eda16e9	0.42595604
51	0xbef50f72	-0.47863346
52	0xbe748fff	-0.23883055
53	0xbf27089e	-0.65247524
54	0x3e3771cf	0.17914508
55	0x3e68f74f	0.2275059
56	0x3fe52c39	1.7904121
57	0x3dac4fea	0.0841368
58	0xbd370010	-0.044677794
59	0xbf94507a	-1.158706
60	0x3cbb81bf	0.022889016
61	0xbb75aabe	-0.0037485803
62	0x3ccc3c62	0.024931137
63	0x3de2819f	0.110598795
64	0xbcf52c4e	-0.029928353
65	0xbd8f6151	-0.070009835
66	0x3eceac96	0.40366048
67	0xbf8845ff	-1.0646361
68	0x3ed4c40d	0.41555825
69	0xc004e291	-2.0763285
70	0xbd27b5b2	-0.040944763
71	0xbe4191ea	-0.18903318
72	0x3e55b035	0.20867999
73	0x3f126267	0.571814
74	0x3e1fe04c	0.15612906
75	0xbd6420a4	-0.05569519
76	0xbe6844d2	-0.22682503
77	0xbf0add80	-0.5424423
78	0xbf68e89a	-0.9097992
79	0xbf12edd6	-0.5739416
80	0x3f8b0406	1.0860603
81	0x3f790e50	0.97287464
82	0x3df28b1d	0.1184294
83	0x3ef3f385	0.47646728
84	0xbeebdb1d	-0.46065608
85	0xbda7eb21	-0.08199144
86	0x3fb8fa9f	1.4451483
87	0x3f428d57	0.7599692
88	0x3db799b6	0.08964865
89	0xbf0e1962	-0.5550748
90	0xbe1121ba	-0.14173022
91	0x3d407289	0.04698423
92	0xbf32ea17	-0.6988844
93	0x3e360050	0.17773557
94	0x3c9f5adf	0.01945251
95	0xbf3b8c35	-0.73260814

blocks/1/mobile_inverted_conv/depth_conv/conv/depthwise_bias f4 [20]
0	0x3fa45ff5	1.2841784
1	0x3f805713	1.0026573
2	0x3f4ae379	0.79253346
3	0x3f9c42b6	1.2207859
4	0x3ed3aa29	0.4134076
5	0x3efc7094	0.4930464
6	0x3ec499b7	0.38398525
7	0x408a3af5	4.319697
8	0x3ca58280	0.020203829
9	0x3e309d02	0.17247394
10	0xbe141a0e	-0.14463064
11	0x3f73962c	0.9515102
12	0x3dc8df34	0.098081976
13	0x3e7da870	0.24771285
14	0x3f161769	0.5862947
15	0x3e26eefa	0.163021
16	0x3d5d0788	0.05396226
17	0x3f8c6da4	1.097096
18	0x3fce7434	1.6129212
19	0x3f953b9d	1.1658818

blocks/1/mobile_inverted_conv/depth_conv/conv/weight/read f4 [1, 5, 5, 20]
0	0xbc4eac4d	-0.012614322
1	0xbc6d932f	-0.014500423
2	0x3c2619c0	0.010137975
3	0xbbe9c711	-0.0071343263
4	0xbcf99b7b	-0.030469647
5	0x3d54fee6	0.052000903
6	0x3d0bf42f	0.03416842
7	0xbc58f253	-0.013241368
8	0xbce12df9	-0.027487742
9	0xbd2a3cf8	-0.04156205
10	0x3db18458	0.08667821
11	0xbc5ce48e	-0.013482226
12	0xbc2cd404	-0.010548595
13	0x3d640701	0.055670742
14	0xbb1ca000	-0.0023899078
15	0xbd2bd09a	-0.041946985
16	0x3db1ddd7	0.08684891
17	0x3c8b010c	0.016968273
18	0xbc6ec149	-0.01457245
19	0xbde3939c	-0.11112139
20	0xbe26a491	-0.16273715
21	0x3e0d605b	0.13806288
22	0xbd1a005f	-0.03759801
23	0xbc1c889f	-0.009554057
24	0x3c6a0c56	0.014285168
25	0x3d8bc161	0.068239935
26	0x3dca8154	0.09887949
27	0x3c918eca	0.017768282
28	0xbabcbadc	-0.001439895
29	0xbc6ab67c	-0.014325734
30	0x3e1edaaf	0.15513109
31	0x3bdb465b	0.0066917366
32	0x398192ef	0.0002471427
33	0x3cfde763	0.030994123
34	0xbdf3187d	-0.11869905
35	0xbc8e134b	-0.017343184
36	0x3dc36aa3	0.09541824
37	0x3cce1aa7	0.025159193
38	0xbc802361	-0.01564187
39	0xbdcf9c3d	-0.10137222
40	0xbe0349f1	-0.12821175
41	0xbe086afc	-0.13322061
42	0xbd89d218	-0.06729525
43	0x3a176e70	0.00057766493
44	0xbdcb9582	-0.09940626
45	0xbcbb60ad	-0.022873247
46	0xbcb540d3	-0.022125637
47	0xbce2738a	-0.027642984
48	0xbbc94115	-0.0061417916
49	0xbd8cc7fd	-0.06874082
50	0xbe19c0ec	-0.15015
51	0xbd01838b	-0.03161959
52	0xbdb2a7fa	-0.08723445
53	0xbcff38e8	-0.031155065
54	0xbe7c97a3	-0.2466722
55	0xbe1ba9ff	-0.15201567
56	0xbd795980	-0.06087637
57	0x3d1ad0db	0.037796836
58	0xbd332e87	-0.043745544
59	0xbd5614ce	-0.052265935
60	0x3d458d66	0.04823055
61	0xbd5e6b08	-0.05430129
62	0x3de927bf	0.11384534
63	0xbd6c196c	-0.05764143
64	0x3e35534e	0.1770756
65	0xbe05859a	-0.13039246
66	0xbc7c1ebc	-0.015388187
67	0x3b8afc51	0.0042415042
68	0xbc116569	-0.008874276
69	0xbc9d89e4	-0.01923079
70	0xbe02d741	-0.12777425
71	0x3c9387db	0.018009117
72	0xbcaea77f	-0.021320103
73	0xbd8f0049	-0.06982476
74	0xbd4bfec6	-0.049803518
75	0xbd9e10fb	-0.077180825
76	0x3e411010	0.18853784
77	0x3ca9c96e	0.020725932
78	0xbcb6fc53	-0.022337114
79	0x3e00a32f	0.1256225
80	0x3e31e8dd	0.17373987
81	0xbca29f4b	-0.019851347
82	0xbd101ade	-0.035181873
83	0xbc98f97c	-0.01867365
84	0xbd07a60f	-0.03311735
85	0x3d4fc090	0.05072075
86	0xbd6c00be	-0.057617895
87	0xbd04d23f	-0.03242707
88	0x3c574a5b	0.013140286
89	0xbc99fabe	-0.018796321
90	0x3e10b1e2	0.14130357
91	0xba4eb9d7	-0.00078859687
92	0xbd8ea108	-0.06964308
93	0xbd953a21	-0.07286478
94	0xbc374cc0	-0.011187732
95	0xbda91672	-0.08256234
96	0xbd69f224	-0.05711569
97	0x3c421a1e	0.011847047
98	0xbca2903a	-0.019844163
99	0x3d79b6d3	0.06096537
100	0xbd37eca4	-0.044903412
101	0xbd91c028	-0.07116729
102	0x3d68c3a4	0.056827202
103	0x3cabff7b	0.020995846
104	0xbd94d066	-0.07266311
105	0x3c05339f	0.008129983
106	0x3b82e6d5	0.0039948025
107	0xbb87ce68	-0.0041444786
108	0x3cccb36c	0.024987899
109	0xbc44d513	-0.0120136915
110	0xbb0cfb0c	-0.002151194
111	0x3ce04d34	0.027380563
112	0xbc2476de	-0.010038106
113	0x3ceef481	0.029169323
114	0xbcc5917a	-0.02411722
115	0x3c60a1cb	0.013710449
116	0xbd3e1faa	-0.046416916
117	0xbd3c90f4	-0.046036676
118	0x3d4dd067	0.050247576
119	0xbdb6bd6d	-0.08922849
120	0xbe7ec006	-0.24877939
121	0x3e1071d1	0.14105918
122	0x3d1d5c81	0.038418297
123	0xbc260bc6	-0.010134643
124	0xbe83a545	-0.25712028
125	0x3c7bab92	0.01536073
126	0x3e08f341	0.13374044
127	0xbc5cc8e7	-0.013475633
128	0x3e1f6662	0.155664
129	0xbda86316	-0.08222024
130	0x3e2576a5	0.1615854
131	0xbc49897b	-0.012300844
132	0x3deab49a	0.11460228
133	0x3e4957e5	0.19662435
134	0x3d6bf914	0.057610586
135	0xbe0a9418	-0.13533056
136	0xbd536c2f	-0.051616844
137	0x3db2a0e8	0.08722097
138	0xbd72fbea	-0.059322275
139	0xbe366db6	-0.17815289
140	0xbe994cea	-0.29941493
141	0x3e7d3610	0.24727654
142	0xbed8da75	-0.4235417
143	0x3e343989	0.17600073
144	0xbedc34a1	-0.43008903
145	0xbd85860e	-0.065197095
146	0x3e414037	0.18872152
147	0xbe47ae78	-0.19500148
148	0xbebc3891	-0.36761907
149	0xbd9a4596	-0.07532804
150	0x3ec87083	0.3914834
151	0xbd80d6ba	-0.06290956
152	0x3e5feaf8	0.21866977
153	0x3d8f417d	0.06994913
154	0xbf824cf9	-1.017974
155	0xbec27979	-0.379833
156	0x3ea2673a	0.3171938
157	0xbe0d1160	-0.1377616
158	0xbe9ff7c9	-0.31243733
159	0xbea21082	-0.3165322
160	0xbc04a001	-0.0080947885
161	0xbe0abad6	-0.13547835
162	0x3e076955	0.13223775
163	0xbe1dfb56	-0.15427908
164	0x3f276260	0.65384483
165	0x3c9418f6	0.018078309
166	0xbdd0cd38	-0.10195392
167	0xbce780f9	-0.028259741
168	0x3db2cb70	0.08730209
169	0xbdb2dd28	-0.087335885
170	0xbeee37cf	-0.46526954
171	0x3d01dce8	0.031704813
172	0x3ce6ee69	0.028189855
173	0xbdd7ebf9	-0.10543055
174	0x3dbccb23	0.09218433
175	0xbc256607	-0.010095126
176	0xbe8c849c	-0.27444923
177	0x3d30b4bc	0.04314111
178	0xbd4f6dcf	-0.05064183
179	0x3da148db	0.07875224
180	0x3d6fc6b6	0.058539115
181	0x3ba4a53a	0.0050245794
182	0xbcad55e7	-0.021159125
183	0xbd20ce3b	-0.039259177
184	0xbb1e98d5	-0.0024199982
185	0xbcc74312	-0.024323974
186	0xbae009f2	-0.0017092808
187	0xbc2255f1	-0.009908185
188	0x3c783cb7	0.015151194
189	0xbcfff9eb	-0.0312471
190	0x3e394aee	0.1809499
191	0x3c436683	0.011926296
192	0xbe05b12d	-0.13055868
193	0xbd9ae471	-0.07563103
194	0xbda4573f	-0.08024453
195	0xbc5b0c2d	-0.013369602
196	0xbe6f13a3	-0.23347335
197	0xbc99a66f	-0.01875612
198	0x3d14007b	0.03613327
199	0xbe508bdc	-0.20365852
200	0x3b485df2	0.0030573574
201	0xbd8963fe	-0.06708525
202	0xbd490e4d	-0.049085904
203	0xbd5770ad	-0.05259769
204	0xbdb13820	-0.08653283
205	0xbe87fe39	-0.26561144
206	0xbc2b6fab	-0.010463635
207	0x3ceb8206	0.028748523
208	0x3d2ef4a4	0.042713776
209	0xbcd4dce8	-0.025984243
210	0xbe419762	-0.18905404
211	0x3d51a8c8	0.051186353
212	0xbd777c96	-0.06042155
213	0xbe5502df	-0.20801876
214	0xbc093aff	-0.008375882
215	0x3cfa1d2d	0.03053149
216	0xbe70dfa8	-0.23522818
217	0x3bdb1c09	0.0066866917
218	0x3c703c1e	0.014662771
219	0x3dc0e44c	0.09418544
220	0xbe75c16d	-0.23999567
221	0xbeccb57b	-0.3998221
222	0xbe6e94af	-0.23298906
223	0xbd9ec697	-0.07752722
224	0xbf886384	-1.065537
225	0x3fe9a29d	1.8252751
226	0x3e24f234	0.16108018
227	0x3d76c175	0.06024309
228	0xbd24260a	-0.04007534
229	0xbe03059a	-0.12795106
230	0x3d913cc3	0.070916675
231	0x3d8b9e74	0.06817332
232	0x3e0abc3b	0.13548367
233	0x3e730a9f	0.2373452
234	0x3deef1d4	0.11667219
235	0x3dcf6545	0.101267375
236	0xbc8edc8f	-0.017439155
237	0xbdc9d40c	-0.09854898
238	0xbdb6acde	-0.089196905
239	0xbf0b6269	-0.54447037
240	0xbfac50e1	-1.3462182
241	0x400adae7	2.1696107
242	0x4009bbde	2.1520915
243	0x3fc86783	1.5656589
244	0xc0233277	-2.5499551
245	0xbfa499f3	-1.2859482
246	0x3f4a3af1	0.7899619
247	0xbfd17661	-1.6364251
248	0x4010ed79	2.2644942
249	0x4000a09b	2.0098026
250	0x402fbeb2	2.746014
251	0xbf8fb89e	-1.1228216
252	0x3ef41eec	0.47679842
253	0x3fa02542	1.251137
254	0xbe4867da	-0.19570866
255	0x4018813a	2.3828874

blocks/1/mobile_inverted_conv/inverted_bottleneck/conv/Conv2D_bias f4 [20]
0	0x3f082a04	0.5318911
1	0x3f800a04	1.0003057
2	0x3f6b47f1	0.9190665
3	0x3f40a60d	0.75253373
4	0x3f8d92b6	1.1060398
5	0x3e783394	0.24238425
6	0x3f56dfb6	0.83935106
7	0x3f88abf2	1.0677474
8	0x3f6fe8a9	0.93714386
9	0x3eb61b2b	0.35567603
10	0x3f0e0c67	0.55487674
11	0x3ef23cd3	0.4731203
12	0x3d7a541d	0.061115373
13	0x3e8be5b9	0.27323702
14	0x3f4747fd	0.7784422
15	0x3ebd74d3	0.37003192
16	0xbe91f7c5	-0.28509346
17	0x3d532371	0.05154747
18	0x3faba2ea	1.3409092
19	0x3f075db4	0.52877355

blocks/1/mobile_inverted_conv/inverted_bottleneck/conv/weight/read f4 [20, 1, 1, 8]
0	0xbe2c8380	-0.16847038
1	0xbc378d73	-0.011203158
2	0x3e59cff2	0.21270731
3	0x3e122390	0.14271379
4	0xbe2c331a	-0.16816369
5	0x3cf92e86	0.030417692
6	0xbbb27422	-0.005445973
7	0x3e184d09	0.14873137
8	0xbd7ac4d6	-0.061222874
9	0x3d761689	0.060080085
10	0x3d8feedf	0.07027983
11	0xbd7921d7	-0.060823288
12	0x3d941e48	0.07232338
13	0x3ca49506	0.020090591
14	0x3d6663d5	0.05624755
15	0xbd60d814	-0.05489357
16	0xbdd87958	-0.105700195
17	0x3db53231	0.08847464
18	0xbddc2d3a	-0.10750814
19	0xbcdaea30	-0.026722997
20	0x3d101ec8	0.035185605
21	0x3bed8f75	0.0072497674
22	0x3c90dbfd	0.017683024
23	0x3e103aa4	0.1408487
24	0x3ca041b0	0.019562572
25	0x3c8d25c9	0.017229931
26	0x3d0d3990	0.034478724
27	0x3c2aef3c	0.0104330145
28	0x3d2fd39c	0.042926416
29	0xbef92536	-0.48661202
30	0x3e071af4	0.13193876
31	0x3c68d9ca	0.014212081
32	0xbd25890f	-0.040413912
33	0x3d86fea8	0.065915406
34	0x3d7829e1	0.060586814
35	0xbd0650d5	-0.03279193
36	0x3d8c1e8e	0.06841765
37	0x3c169a32	0.009192036
38	0x3d33f188	0.043931514
39	0xbd8d7cab	-0.06908544
40	0xbbe73078	-0.0070553385
41	0xbd63a241	-0.05557466
42	0x3d1cae98	0.038252443
43	0x3e0a780c	0.13522357
44	0x3d168017	0.03674325
45	0x3b2bc152	0.0026207757
46	0xbc3c9f94	-0.011512656
47	0xbe3dc095	-0.18530495
48	0x3e7116e4	0.23543888
49	0x3d949204	0.07254413
50	0x3e179dcf	0.14806293
51	0x3e6d0ec4	0.23150164
52	0x3f0e2936	0.5553163
53	0x3c08c445	0.008347576
54	0xbee81951	-0.45331815
55	0x3e8dedb9	0.2772043
56	0x3d6a3af4	0.05718513
57	0x3e6f031c	0.2334103
58	0xbd35f8b9	-0.044426654
59	0x3d604245	0.0547507
60	0xbe08324a	-0.13300434
61	0xbc94db80	-0.018171072
62	0xbdad676b	-0.08466991
63	0xbc43a771	-0.011941777
64	0xbd95d84a	-0.073166445
65	0xbc007d82	-0.007842423
66	0xbdbe2e87	-0.09286218
67	0x3e239bb7	0.15977369
68	0x3d42d964	0.0475706
69	0x3b7e2b06	0.0038782968
70	0x3c90d6de	0.017680582
71	0xbd9b3d50	-0.07580054
72	0xbd9c16f0	-0.076215625
73	0xbe976a5f	-0.29573342
74	0x3d39d577	0.04536959
75	0xbd7f1b77	-0.062282052
76	0x3e44dba7	0.19224416
77	0x3ba2c289	0.004967038
78	0x3de33d23	0.11095645
79	0x3cc3da0f	0.02390769
80	0xbe1f4023	-0.1555181
81	0xbd08a8ee	-0.03336423
82	0x3e10ec9c	0.1415276
83	0x3dbb1f07	0.09136777
84	0xbe2115af	-0.15730928
85	0xbdb5efe0	-0.08883643
86	0x3dbdb334	0.09262696
87	0x3db57f04	0.08862117
88	0xbea665b2	-0.32499462
89	0x3e5fec06	0.2186738
90	0xbefadb67	-0.48995516
91	0xbe0c0b8d	-0.13676281
92	0x3dc3b5e0	0.09556174
93	0xbc05eb38	-0.008173756
94	0x3c6e6b32	0.014551925
95	0x3ee4a009	0.44653347
96	0xbebccdb3	-0.36875686
97	0xbd3f24f7	-0.04666611
98	0x3deedc21	0.1166308
99	0xbd63ea8b	-0.0556436
100	0xbdec114b	-0.11526736
101	0x3e20fc9f	0.15721367
102	0xbea78587	-0.3271906
103	0xb9bbba62	-0.00035806285
104	0x3ed28492	0.41116768
105	0x3dde5c17	0.108574085
106	0xbdc73b80	-0.097281456
107	0x3d4b2183	0.049592506
108	0x3e96a56e	0.29423088
109	0xbda40348	-0.08008438
110	0x3e774bee	0.24150059
111	0x3dae7434	0.08518258
112	0xbd800237	-0.062504224
113	0x3d2e99e4	0.04262723
114	0x3c93590e	0.0179868
115	0xbda1896b	-0.078875385
116	0x3dd53d98	0.10412139
117	0x3d1257a5	0.035728116
118	0x3dc796b1	0.09745539
119	0xbdafa52e	-0.085764274
120	0xbe4560ba	-0.1927518
121	0x3a4483f8	0.00074964715
122	0xbe637eb3	-0.222163
123	0x3e9ff331	0.31240228
124	0x3dd2b962	0.10289265
125	0xbb07312b	-0.0020628672
126	0x3c62ac15	0.013834973
127	0xbe0694a9	-0.13142647
128	0xbcfface7	-0.031210376
129	0x3dbe209b	0.09283563
130	0x3cea2950	0.028584152
131	0xbdc3260d	-0.09528742
132	0x3e8f086f	0.27936122
133	0xbd86b46f	-0.06577384
134	0xbda79490	-0.08182633
135	0xbd969314	-0.07352272
136	0xbe8bf032	-0.27331692
137	0x3d8ab325	0.0677245
138	0xbeabc499	-0.3354843
139	0x3eb9720b	0.3621982
140	0x3e116141	0.14197256
141	0xbcade243	-0.021226054
142	0x3d44de1d	0.048063386
143	0xbdf81638	-0.12113613
144	0xbcfa57d7	-0.030559463
145	0x3e54d685	0.20784958
146	0x3d9e6ce9	0.07735617
147	0x3c2ced2f	0.010554596
148	0x3cf9fd60	0.030516326
149	0x3cba950b	0.022776147
150	0x3c2fbb01	0.010725738
151	0xbd83a7bf	-0.064284794
152	0x3e0c3e4f	0.13695644
153	0x3d717df1	0.058957998
154	0x3c7c572a	0.015401641
155	0x3dbfb58b	0.093607984
156	0xbbee2bfb	-0.0072684265
157	0xbe075093	-0.1321433
158	0x3eaac480	0.33353043
159	0x3d94a656	0.072582886

blocks/1/mobile_inverted_conv/point_linear/conv/Conv2D_bias f4 [16]
0	0xbfd48681	-1.6603547
1	0x3cfa4067	0.030548288
2	0x3ff5fdae	1.9218042
3	0x3e9bc0f8	0.3042066
4	0xc017d776	-2.3725257
5	0xbf0bb5dd	-0.54574376
6	0xbf33df9f	-0.70263094
7	0xc06da174	-3.7129793
8	0x3f891451	1.0709325
9	0xbfdf6027	-1.7451218
10	0xbed163fc	-0.40896595
11	0xc0249043	-2.571305
12	0x3e162721	0.14663364
13	0xc012294c	-2.2837706
14	0xc049ad34	-3.1511965
15	0xbfe63c68	-1.7987185

blocks/1/mobile_inverted_conv/point_linear/conv/weight/read f4 [16, 1, 1, 20]
0	0x3e7a4a2c	0.24442357
1	0x3e0e2f60	0.1388526
2	0xbc916143	-0.017746573
3	0xbe5200ca	-0.20508114
4	0xbefa055d	-0.48832217
5	0x3c975f7b	0.018478146
6	0xbe1a4381	-0.15064813
7	0xbee42d10	-0.4456563
8	0x3f2e4754	0.6807759
9	0x3e119362	0.14216378
10	0xbeb2856d	-0.3486742
11	0x3e08a3a6	0.13343677
12	0xbe613747	-0.21993743
13	0xbe6e4965	-0.23270185
14	0xbab6472a	-0.0013906707
15	0x3e473807	0.19454966
16	0x3e2e2d60	0.17009497
17	0xbec66dc5	-0.38755623
18	0x3f7cd8f7	0.9876856
19	0xbd38aaf6	-0.045084916
20	0xbdfc3edd	-0.12316678
21	0xbcb596bb	-0.0221666
22	0xbe8b0c8b	-0.27158007
23	0x3e7c4758	0.2463659
24	0xbf3556c7	-0.70835537
25	0x3ca6c85c	0.02035921
26	0x3e7c9361	0.24665596
27	0x3ebeb762	0.37249285
28	0x3f12a9c7	0.5729031
29	0xbec2f17d	-0.38074866
30	0x3e1e2bc2	0.1544638
31	0x3dd57fe7	0.10424786
32	0xbc9122d5	-0.017716805
33	0x3ed17dc6	0.4091627
34	0xbf3c4d1b	-0.73555154
35	0xbd423584	-0.047414318
36	0x3e2e13f3	0.16999798
37	0x3e3f6496	0.18690714
38	0xbf42ae09	-0.76046807
39	0xbe4bfab0	-0.19919848
40	0x3e4af56b	0.19820182
41	0x3f10edc4	0.566128
42	0xbe843caf	-0.25827548
43	0xbeb9f798	-0.36321712
44	0x3ed78493	0.42093334
45	0xbd40ecc4	-0.047100797
46	0xbf1d2370	-0.613822
47	0xbde1df23	-0.11028888
48	0x3e7aa7c2	0.24478057
49	0xbf02a8b8	-0.51038694
50	0xbe32fcbf	-0.17479227
51	0xbea1a9a2	-0.31574732
52	0xbd0ea84c	-0.03482847
53	0xbf636188	-0.88820696
54	0xbe606d80	-0.21916771
55	0x3e29ec8b	0.1659414
56	0xbf146292	-0.57962906
57	0xbe4a435d	-0.1975226
58	0xbf05dba2	-0.5228826
59	0x3dff82ce	0.12476121
60	0x3c15b7e7	0.009138084
61	0xbf3b500b	-0.7316901
62	0xbe7074dc	-0.23482078
63	0x3ea60fc5	0.32433906
64	0x3ede6b83	0.434414
65	0x3e2e888d	0.17044277
66	0x3c3af8d6	0.011411866
67	0x3ed6661e	0.41874784
68	0x3f601b42	0.8754159
69	0x3ec1d479	0.37857416
70	0x3c346885	0.0110112475
71	0x3e28f181	0.16498376
72	0xbdfa5b79	-0.12224478
73	0x3e0ec81a	0.1394352
74	0xbd8ccb5a	-0.06874724
75	0x3e5c122b	0.21491306
76	0x3d6a2837	0.057167258
77	0xbf3192ef	-0.6936483
78	0xbf7411f7	-0.9533991
79	0xbda041f0	-0.078250766
80	0xbd23562d	-0.039877106
81	0x3dd820e6	0.1055315
82	0xbe15b3e1	-0.146194
83	0x3f3b04e6	0.7305435
84	0x3d832271	0.064030536
85	0xbdec2c3a	-0.11531873
86	0x3dd51261	0.10403896
87	0xbf08eb76	-0.53484285
88	0x3f25dc0c	0.6478889
89	0x3e93ccca	0.2886718
90	0x3e6760a7	0.22595464
91	0xbe802b6c	-0.25033128
92	0x3d94e9f2	0.07271184
93	0x3e1ec86e	0.15506145
94	0x3e413f7e	0.18871877
95	0xbe01e588	-0.12685215
96	0xbdad563c	-0.084637135
97	0x3d818f14	0.06326118
98	0x3eddf1be	0.43348497
99	0x3e4ea238	0.20179069
100	0x3e86a364	0.26296532
101	0x3f24abb6	0.6432451
102	0xbe959397	-0.29214165
103	0xbf728057	-0.9472708
104	0xbdf63d83	-0.12023451
105	0x3eb4991b	0.3527306
106	0x3d89c9c2	0.067279354
107	0x3f66d3db	0.90167016
108	0xbe05adca	-0.13054577
109	0x3f0b5c74	0.5443795
110	0xbdea8a74	-0.11452189
111	0x3e4dc8fb	0.20096199
112	0xbde93bc3	-0.11388352
113	0x3f0bfc30	0.5468168
114	0x3e799e42	0.24376777
115	0x3df5d6fe	0.12003897
116	0x3e0a8469	0.13527073
117	0xbf0d4e47	-0.55197567
118	0xbf116b9a	-0.5680481
119	0xbe527373	-0.20551853
120	0x3d8f3f1c	0.06994459
121	0x3e32c39f	0.17457436
122	0xbf1a6302	-0.60307324
123	0xbf0a3e76	-0.5400156
124	0xbf3d5b2f	-0.7396726
125	0xbe35f003	-0.17767338
126	0x3f3a7f6d	0.72850686
127	0x3ebaf1c6	0.36512583
128	0x3ef77f2e	0.48339218
129	0x3dd65635	0.104656614
130	0xbddbf789	-0.10740573
131	0x3f051121	0.5197926
132	0x3e84bcab	0.25925192
133	0xbe9f4e86	-0.31114596
134	0x3e9c555d	0.30533877
135	0x3ca11e38	0.01966773
136	0xbe213af4	-0.15745145
137	0xbcc8f682	-0.024531607
138	0xbec4ebfe	-0.38461298
139	0x3f3e322b	0.742953
140	0xbea478e4	-0.32123482
141	0x3ee9c683	0.45659265
142	0x3f2219a3	0.6332037
143	0x3e972fc9	0.29528645
144	0x3cfabbc4	0.030607112
145	0x3d531af6	0.051539384
146	0x3d57df01	0.052702907
147	0x3ebe707a	0.37195188
148	0x3eac5f03	0.33666238
149	0xbe8b8dc8	-0.27256608
150	0x3ea612ec	0.3243631
151	0xbeeb7f2d	-0.45995465
152	0x3eb1cef9	0.3472822
153	0xbe5ead2f	-0.21745752
154	0xbcce1c9a	-0.025160123
155	0x3f002670	0.5005865
156	0x3eee8966	0.46589202
157	0xbeb5ec2a	-0.3553174
158	0x3da3df4a	0.080015734
159	0x3eb541bf	0.35401723
160	0x3f117c4d	0.5683029
161	0x3ea64a6d	0.32478657
162	0xbf583fed	-0.84472543
163	0x3f2ec252	0.6826526
164	0xbe15d74d	-0.14632912
165	0x3e112390	0.14173722
166	0x3cd2c329	0.025727825
167	0xbf287e81	-0.6581803
168	0xbe65ec45	-0.22453411
169	0xbf334282	-0.7002336
170	0xbee3256c	-0.44364488
171	0x3ed08d00	0.40732574
172	0xbe9dffa3	-0.30859098
173	0x3ebcf468	0.36905217
174	0x3d4bf05c	0.04978977
175	0x3ed0502d	0.4068617
176	0xbe028a4d	-0.1274807
177	0xbec3c758	-0.38238025
178	0x3f0eb643	0.5574686
179	0xbea15213	-0.3150793
180	0xbddd5dd3	-0.10808911
181	0x3de93683	0.113873504
182	0xbe8e9199	-0.27845457
183	0xbe22f0fa	-0.15912238
184	0x3eedf93c	0.46479213
185	0xbf14f3b6	-0.58184373
186	0x3d9a82f2	0.07544507
187	0x3e8a23c2	0.26980406
188	0x3ed4c223	0.41554365
189	0xbd724708	-0.059149772
190	0xbd198676	-0.037481748
191	0x3dc17967	0.09446984
192	0x3cc2c836	0.023777109
193	0x3dd8c51d	0.105844714
194	0xbcc80633	-0.024417019
195	0x3f1625d3	0.58651465
196	0xbe57cc3c	-0.21074003
197	0xbdd079ec	-0.10179505
198	0x3e9daa9b	0.30794224
199	0xb74a9248	-1.2074197e-05
200	0x3edf9ea7	0.4367573
201	0xbf5e9041	-0.86938864
202	0x3eeaf6df	0.45891473
203	0x3e08050e	0.13283178
204	0x3ec43e2d	0.38328686
205	0x3e2baed2	0.16765907
206	0x3f11ef80	0.57006073
207	0x3ca51219	0.020150231
208	0xbe0a7a3c	-0.13523191
209	0xbed4b164	-0.41541588
210	0xbf1e73c4	-0.61895394
211	0xbee8a9b4	-0.45441973
212	0xbd09368d	-0.03349929
213	0x3e3beb5f	0.18351506
214	0x3e01d910	0.12680459
215	0x3d13f21a	0.036119558
216	0xbe4c63a2	-0.19959882
217	0xbceea97a	-0.029133547
218	0x3ebfdbd3	0.374724
219	0x3e8a49cc	0.27009428
220	0x3ee8e18b	0.45484576
221	0x3e7d5633	0.24739914
222	0x3f1508aa	0.58216345
223	0x3eda55f5	0.42643705
224	0xbeb01a38	-0.34395003
225	0xbe7de7c9	-0.2479545
226	0xbf17b2dd	-0.592573
227	0x3f2a31d3	0.66482276
228	0x3e88a91a	0.26691514
229	0x3e2fb566	0.17159042
230	0xbee637b4	-0.44964373
231	0xbe2f4564	-0.17116314
232	0xbefa2508	-0.48856378
233	0x3e718303	0.23585133
234	0x3e80113b	0.25013146
235	0x3da27b75	0.07933704
236	0xbe52a7ae	-0.20571777
237	0x3e4fd0e3	0.20294528
238	0xbeedb4e8	-0.46427083
239	0xbf0c86ac	-0.5489299
240	0xbdb213fa	-0.086952165
241	0x3ee136a0	0.43986988
242	0x3ec5050c	0.38480413
243	0x3e4afb8e	0.19822523
244	0xbee6e52c	-0.4509672
245	0xbde039d3	-0.10948529
246	0x3e1fb212	0.15595272
247	0xbf01d90f	-0.5072183
248	0xbeb1a388	-0.34695077
249	0xbee0d865	-0.43915096
250	0x3d80cdcd	0.062892534
251	0x3e7bced9	0.24590625
252	0x3dedbe6f	0.11608588
253	0x3d63ef3f	0.055648085
254	0xbe25701b	-0.16156046
255	0x3f017beb	0.5057971

blocks/10/mobile_inverted_conv/depth_conv/conv/depthwise_bias f4 [80]
0	0x3f128b07	0.5724339
1	0xbdb31c78	-0.08745664
2	0xbf924204	-1.1426396
3	0x3ea64494	0.32474196
4	0x3f371043	0.7150919
5	0x3efe5146	0.49671382
6	0x3f065024	0.52466035
7	0x3f1b8c87	0.607613
8	0xbed0acd7	-0.40756866
9	0x3d17f940	0.037102938
10	0x3e58e512	0.21181133
11	0xbf07b47c	-0.5300977
12	0xbdc7b782	-0.09751798
13	0x3f50c044	0.81543374
14	0xbde6cde4	-0.11269739
15	0xbf126e0e	-0.5719918
16	0xbbafcb00	-0.0053647757
17	0x3fb3e375	1.4053789
18	0xbe75a92c	-0.23990315
19	0xbe832bbd	-0.25619307
20	0xbda5864e	-0.08082257
21	0x3e2761a0	0.16345835
22	0xbef71722	-0.48259836
23	0xbd859394	-0.06522289
24	0xbf029364	-0.5100615
25	0x3e85953b	0.26090416
26	0x3f1ece77	0.6203379
27	0x3f84c76d	1.037336
28	0xbe33b02b	-0.17547671
29	0xbf07f44f	-0.5310716
30	0x3e3d3928	0.18478835
31	0xbe817bc1	-0.2528973
32	0x3f1270ce	0.57203376
33	0xbe00ced8	-0.12578905
34	0x3f5f5b11	0.8724833
35	0x4001a44e	2.0256534
36	0x3f392a0a	0.7232977
37	0x3f840977	1.0315388
38	0x3f736c4a	0.9508711
39	0xbd363542	-0.044484384
40	0x3cc6b198	0.024254605
41	0x3f96820c	1.1758437
42	0xbdc7bfcc	-0.09753379
43	0x3df1deb4	0.118100554
44	0xbf2caed8	-0.6745429
45	0xbeaed3d2	-0.3414598
46	0x3dbcc992	0.09218134
47	0xbf6fb74d	-0.9363907
48	0x3f1fa5f3	0.62362593
49	0x3f109568	0.56477976
50	0xbf22d3d6	-0.63604486
51	0xbfb6a17c	-1.4268031
52	0xbda7ce82	-0.08193685
53	0x3f2cbe84	0.67478204
54	0x3f71419b	0.9424073
55	0x3f43a660	0.76425743
56	0xbf4f6655	-0.8101552
57	0xbda4da9c	-0.08049509
58	0xbfb95e22	-1.4481852
59	0xbe36715b	-0.17816679
60	0x3f223f43	0.6337778
61	0xbe52f13b	-0.20599835
62	0x3de6f80e	0.112777814
63	0xbeb74528	-0.3579495
64	0xbe888856	-0.26666516
65	0x3f110c9e	0.5665988
66	0x3f877e4c	1.0585418
67	0xbeb92c46	-0.3616659
68	0x3f45da5b	0.7728631
69	0xbe840990	-0.25788546
70	0xbf4ab2fc	-0.7917936
71	0xbfc5013a	-1.5390999
72	0xbebc0bfb	-0.3672789
73	0xbe6d9d20	-0.2320447
74	0xbe758d76	-0.23979744
75	0x3f0132a7	0.50467914
76	0xbf481044	-0.7814982
77	0xbe8c5cf8	-0.2741468
78	0xbf42c15a	-0.7607628
79	0x3c8187c0	0.015811801

blocks/10/mobile_inverted_conv/depth_conv/conv/weight/read f4 [1, 5, 5, 80]
0	0xbed12737	-0.4085023
1	0x3e25c3e6	0.1618801
2	0x3dc57e3f	0.0964322
3	0xbea4f0d4	-0.32214987
4	0xbead1b38	-0.3380983
5	0x3f1171c0	0.56814194
6	0x3aaae587	0.0013038375
7	0xbd309fd9	-0.043121193
8	0xbd32d228	-0.043657452
9	0xbcd5e420	-0.026109755
10	0xbebcec9b	-0.36899266
11	0x3db9f3f1	0.09079731
12	0x3e972095	0.29517046
13	0xbe218dfb	-0.15776818
14	0x3e484c3e	0.19560334
15	0xbc0f8d50	-0.008761719
16	0x3d3ff19b	0.046861272
17	0xbdefb0f1	-0.11703671
18	0x3d840fa2	0.06448294
19	0x3e80f730	0.2518859
20	0x3f138493	0.5762417
21	0xbc84f2cc	-0.016229056
22	0x3e611580	0.21980858
23	0xbe0e482d	-0.1389472
24	0xbe2a87c3	-0.16653351
25	0x3e09a87e	0.13443181
26	0xbecf830a	-0.40529662
27	0xbdee8744	-0.116468936
28	0xbd82c910	-0.06386006
29	0x3d9df35a	0.07712431
30	0xbba0e8bf	-0.004910558
31	0x3f95bbc8	1.1697931
32	0xbe75d25f	-0.24006031
33	0x3c2f9028	0.010715522
34	0xbd36e834	-0.04465504
35	0xbf0ca9ab	-0.5494639
36	0xbe8638c6	-0.2621519
37	0xbeda20d3	-0.42603168
38	0xbdb7ac23	-0.08968379
39	0x3caa4cd6	0.020788591
40	0xbdfe7052	-0.12423767
41	0xbd64d021	-0.05586255
42	0xbdefbd03	-0.11705973
43	0x3b8a62a8	0.0042231865
44	0x3dd6dfda	0.10491915
45	0x3d3b82a5	0.04577889
46	0x3ea1af10	0.31578875
47	0xbd444a4f	-0.04792243
48	0x3d662e28	0.05619636
49	0x3ef344c8	0.47513413
50	0xbea89c6f	-0.3293185
51	0x3e692c57	0.2277082
52	0x3e99ab09	0.30013302
53	0xbe44f4f7	-0.19234072
54	0xbe1583e5	-0.14601095
55	0xbf06a64e	-0.5259751
56	0x3e44e6cf	0.19228671
57	0xbebca5d4	-0.36845267
58	0xbe2c71c0	-0.16840267
59	0xbe275e13	-0.1634448
60	0xbdb30c72	-0.08742608
61	0x3cf68e4a	0.030097146
62	0xbd422b12	-0.047404356
63	0x3c846018	0.016159102
64	0x3e1f90f0	0.15582633
65	0xbed82ee9	-0.4222329
66	0x3dc911da	0.09817858
67	0x3e2c0f50	0.16802716
68	0xbe8ea928	-0.2786343
69	0x3c672434	0.014107753
70	0x3e617cbd	0.2202024
71	0x3dbf494b	0.093401514
72	0x3d890561	0.06690479
73	0xbd08e711	-0.033423487
74	0xbe8cdf6c	-0.27514207
75	0x3e02c8a6	0.12771854
76	0x3e87574e	0.26433796
77	0xbe557888	-0.2084676
78	0x3d0ef989	0.034905944
79	0xbe310c73	-0.17289905
80	0xbe8988d4	-0.26862204
81	0x3ebfaea8	0.3743794
82	0x3d0da32c	0.03457944
83	0xbd29c399	-0.041446302
84	0xbdd563e7	-0.104194455
85	0x3ea46ac3	0.32112703
86	0xbe43b0de	-0.19110438
87	0x3d0fe153	0.035126995
88	0x3ce3b012	0.027793918
89	0x3e1d1dfb	0.15343468
90	0xbedd4656	-0.43217725
91	0xbd990de7	-0.07473355
92	0x3eb23260	0.34804058
93	0xbe136452	-0.14393738
94	0x3da92d72	0.08260621
95	0x3e7f4e3e	0.24932191
96	0xbab558ec	-0.0013835705
97	0x3db60840	0.08888292
98	0xbe2c76e2	-0.16842225
99	0xbc5d268d	-0.013497961
100	0x3e16089a	0.14651719
101	0x3d02a355	0.031894047
102	0x3d3a01ae	0.045411758
103	0xbdfc9ef1	-0.12335003
104	0xbb495be8	-0.0030724946
105	0x3dc46f1d	0.09591506
106	0xbcb33c83	-0.02187944
107	0xbe1c7b0c	-0.15281314
108	0x3e9d1a79	0.3068426
109	0x3d862c60	0.065514326
110	0xbb944cc6	-0.0045257537
111	0xbd2def99	-0.042464826
112	0xbe4f811f	-0.202641
113	0xbd95227a	-0.072819665
114	0xbe047378	-0.12934673
115	0xbe66462c	-0.22487706
116	0xbc9cc76f	-0.019138066
117	0xbea129e5	-0.31477275
118	0x3cbe0feb	0.02320095
119	0x3daf6392	0.085639134
120	0xbe6c3627	-0.23067532
121	0xbe620648	-0.22072709
122	0x3d76c5eb	0.060247343
123	0xbde3d87c	-0.111252755
124	0xbe2eb853	-0.17062502
125	0x3cc11973	0.023571705
126	0x3e1198eb	0.1421849
127	0x3b0ef93d	0.0021816038
128	0x3d14d664	0.03633727
129	0x3e77f4a5	0.24214418
130	0xbf1c46c4	-0.6104548
131	0xbd8104eb	-0.06299766
132	0x3ea04f34	0.31310427
133	0xbdc13709	-0.09434325
134	0xbdebba1c	-0.11510107
135	0xbda07626	-0.07835035
136	0x3c489c4d	0.012244296
137	0xbdfed515	-0.12442986
138	0x3c9fc07c	0.019500963
139	0xbe08bdf3	-0.1335371
140	0xbe97cd91	-0.29649022
141	0xbc94a1fa	-0.018143643
142	0x3cc6fc46	0.024290215
143	0x3dcd6ff7	0.10031121
144	0x3ec86f66	0.3914749
145	0xbd3cf33f	-0.046130415
146	0x3d5c5a8e	0.053797297
147	0xbe80cc38	-0.25155807
148	0xbdbe4944	-0.09291318
149	0xbdbf8b83	-0.093527816
150	0xbe8d3e6d	-0.2758669
151	0x3c1d37b8	0.009595804
152	0xbd4b82c5	-0.04968526
153	0x3ec7798e	0.38959926
154	0x3cd85228	0.026406363
155	0x3eabe449	0.33572605
156	0x3e413ac5	0.18870075
157	0x3d1d621b	0.03842364
158	0x3dedd671	0.11613167
159	0x3b861deb	0.004092922
160	0xbe46788a	-0.1938192
161	0xbeadd1c7	-0.3394911
162	0x3e8ad6b6	0.27116936
163	0xbdfb7ef9	-0.122800775
164	0xbe820869	-0.2539704
165	0x3f196d81	0.59932715
166	0xbe79d73f	-0.24398516
167	0xbe605086	-0.21905717
168	0x3e1bc9df	0.15213726
169	0x3f876e9b	1.0580629
170	0xbf8cd54e	-1.1002595
171	0x3cbe4d82	0.023230318
172	0x3f23302c	0.6374538
173	0xbdcd0384	-0.10010436
174	0x3e314f8e	0.17315504
175	0xbeff55ab	-0.49870047
176	0xbc82e371	-0.015977593
177	0xbd34eb97	-0.04416999
178	0x3f10855e	0.564535
179	0xbfa66903	-1.3000797
180	0x3f2a2d4b	0.6647536
181	0xbe067521	-0.13130619
182	0x3f59e8c7	0.85120815
183	0xbd427248	-0.04747227
184	0xbec58716	-0.38579625
185	0x3ece30f0	0.4027171
186	0xbefc8216	-0.49317998
187	0xbd0e11ef	-0.03468507
188	0xbe9b5da4	-0.3034488
189	0x3debd70f	0.115156285
190	0x3e015918	0.12631643
191	0x3fdcd959	1.7253829
192	0xbe8583bc	-0.26077068
193	0x3dd4b23c	0.10385558
194	0xbebcb287	-0.36854956
195	0xbef89662	-0.48552233
196	0xbf18ae3f	-0.5964088
197	0xbc375a89	-0.011191019
198	0xbe426ef9	-0.18987645
199	0x3e43cd32	0.19121245
200	0xbf2b2816	-0.6685804
201	0xbec4be1e	-0.38426298
202	0x3f2ab244	0.6667826
203	0xbe2e492b	-0.17020099
204	0x3d8bfe3e	0.06835602
205	0x3dc3c5c1	0.09559203
206	0x3ed0e986	0.40803164
207	0x3db928b7	0.09040969
208	0xbb911778	-0.0044278465
209	0xbe81e5f3	-0.2537075
210	0x3ede2e84	0.43394864
211	0x3da62b59	0.08113737
212	0x3f097e5f	0.5370845
213	0xbf15e55f	-0.5855312
214	0xbed4c67c	-0.41557682
215	0xbebb94a6	-0.36636847
216	0x3d3752dc	0.044756755
217	0xbf09ea55	-0.5387319
218	0x3e0719e2	0.13193467
219	0x3e7fe643	0.24990182
220	0xbec5642d	-0.3855299
221	0x3b86f16a	0.0041181343
222	0x3eaf5045	0.34240928
223	0x3e50eed7	0.2040361
224	0xbf26897d	-0.6505354
225	0xbe6abaf3	-0.22922878
226	0xbcf26af3	-0.029592013
227	0xbda7ce07	-0.081935935
228	0xbec023a1	-0.37527183
229	0x3b3f2484	0.0029166052
230	0x3f5b7546	0.8572582
231	0x3dd06fc4	0.101775676
232	0x3e71c497	0.2361015
233	0xbe061190	-0.13092637
234	0xbd7e2779	-0.062049363
235	0x3e537e8f	0.20653747
236	0x3e7c9891	0.24667574
237	0x3e19b493	0.1501029
238	0xbcfd0995	-0.030888358
239	0xbd9e71ee	-0.07736574
240	0xbe802f47	-0.2503607
241	0xbde16856	-0.110062286
242	0x3d6a8b46	0.057261728
243	0xbcb36995	-0.021900931
244	0x3e4c0975	0.19925483
245	0x3e70ac52	0.23503235
246	0xbe03f030	-0.12884593
247	0xbc94f05a	-0.018181015
248	0x3d49eb9d	0.049296964
249	0xbc572a92	-0.013132708
250	0xbefe66fc	-0.49687946
251	0x3daf788d	0.08567915
252	0x3edb98c9	0.42890003
253	0xbe0c51d6	-0.13703093
254	0xbd5c2b24	-0.05375208
255	0x3e4cf6bf	0.20016001

blocks/10/mobile_inverted_conv/inverted_bottleneck/conv/Conv2D_bias f4 [80]
0	0xbe92e480	-0.28689957
1	0xbecc37f5	-0.39886442
2	0x3da908d5	0.08253638
3	0xbd6200e6	-0.055176638
4	0x3efe87b2	0.49712902
5	0x3ef06987	0.4695551
6	0x3d9f8c4e	0.07790433
7	0x3e3cee4f	0.18450283
8	0x3e601c2e	0.2188575
9	0xbed6b3c6	-0.4193403
10	0xbd011434	-0.031513408
11	0xbe27a2cb	-0.16370694
12	0x3e6db3c7	0.23213111
13	0x3dbb6a41	0.09151126
14	0x3e6847b7	0.22683607
15	0x3ede7447	0.43448088
16	0xbe2d7aa3	-0.16941313
17	0xbe0a27ad	-0.13491698
18	0xbe32ece0	-0.17473173
19	0xbc2f8c4b	-0.010714601
20	0xbe4e787a	-0.20163146
21	0xbd929846	-0.0715795
22	0xbdabe788	-0.083937705
23	0xbe0d69c1	-0.13809873
24	0x3d5632b2	0.05229444
25	0x3e4c01f5	0.19922622
26	0xbe1217f0	-0.14266944
27	0x3ea74c25	0.3267528
28	0x3e29b388	0.16572392
29	0x3da739d5	0.081653275
30	0x3d56b1a3	0.0524155
31	0xbe5d131b	-0.2158932
32	0xbd954147	-0.07287841
33	0x3d594829	0.053047333
34	0x3df8b896	0.12144582
35	0x3ee0fe75	0.43944135
36	0x3d164e67	0.036695864
37	0x3e0aed0e	0.13566992
38	0x3eb78699	0.35844877
39	0xbd9d30ac	-0.07675299
40	0x3eaabe34	0.33348238
41	0x3e568b4d	0.20951577
42	0xbe9acb9c	-0.30233467
43	0xbe56c69f	-0.20974205
44	0xbdf12efe	-0.11776541
45	0xbdc1cf35	-0.0946335
46	0xbe32c2f7	-0.17457186
47	0x3e87175c	0.2638501
48	0xbe5efb9f	-0.21775673
49	0x3f2ffc89	0.68744713
50	0xbe39e8d5	-0.18155225
51	0xbd77a068	-0.06045571
52	0x3e719474	0.23591787
53	0x3d1f7dbc	0.03893827
54	0x3e799a30	0.24375224
55	0xbd409946	-0.047021173
56	0x3c8a752d	0.016901577
57	0x3d8adb83	0.0678015
58	0x3e7fc37a	0.24976912
59	0xbe0ee72b	-0.13955371
60	0x3e7e2b17	0.24821125
61	0x3c530f21	0.012882025
62	0xbd17f374	-0.03709741
63	0xbdb34a19	-0.087543674
64	0xbeb23187	-0.3480341
65	0xbe214113	-0.1574748
66	0x3f0e21ac	0.5552013
67	0xbde3fa21	-0.11131693
68	0x3d5f7767	0.05455723
69	0xbe028baa	-0.1274859
70	0xbec5d48f	-0.38638732
71	0x3e92481f	0.2857065
72	0xbe1f2a9a	-0.15543595
73	0x3dd80bc4	0.10549119
74	0xbd9ead65	-0.07747916
75	0x3d9d1f1e	0.07671951
76	0xbd232837	-0.039833274
77	0x3da3f018	0.080047786
78	0x3c0a3d95	0.008437534
79	0x3e6c4576	0.23073372

blocks/10/mobile_inverted_conv/inverted_bottleneck/conv/weight/read f4 [80, 1, 1, 40]
0	0x3d9efbc8	0.07762867
1	0x3d14fc7a	0.036373593
2	0xbc98daee	-0.018659081
3	0x3d7d8a9c	0.061899766
4	0x3d3b4a04	0.045724884
5	0xbbfb81f6	-0.0076754047
6	0xbc15dd31	-0.009146974
7	0x3c633be6	0.013869261
8	0xbdacd438	-0.08438915
9	0xbbb5f1d3	-0.0055525093
10	0x3bbd0d32	0.0057693953
11	0x3d907c81	0.07054997
12	0xbd81d1bc	-0.06338832
13	0xbd1a3971	-0.037652437
14	0x3d5b9bbf	0.053615328
15	0x3dbae667	0.09125977
16	0xbcfab1af	-0.030602304
17	0x3d9b87ab	0.07594236
18	0x383ac3e8	4.4528308e-05
19	0xbd5244f0	-0.051335275
20	0xbce43fc0	-0.02786243
21	0xbc7a2159	-0.01526674
22	0x3ba438c2	0.005011649
23	0xbb901899	-0.0043974635
24	0xbc8f8881	-0.017521145
25	0x39c8d044	0.00038302143
26	0xbcf92d59	-0.030417131
27	0x3d48cfa9	0.049026165
28	0x3d9259a2	0.07146002
29	0xbd20b324	-0.03923334
30	0x3bf242f1	0.007393234
31	0xbd694be1	-0.05695713
32	0x3d9d6d53	0.076868676
33	0xbd5e007c	-0.05419968
34	0xbd989573	-0.0745038
35	0xbc303845	-0.010755603
36	0xbcc9ea3b	-0.024647823
37	0xbd0f5dd3	-0.035001587
38	0xbc963bd2	-0.018339071
39	0x3cb7d0ef	0.022438494
40	0xba65660a	-0.0008750862
41	0xbd1f68ca	-0.038918294
42	0xbd5ee660	-0.05441892
43	0xbd0daa88	-0.03458646
44	0x3d12ae86	0.03581097
45	0x3d263fc4	0.040588155
46	0xbcd72a19	-0.02626519
47	0x3d6c4f98	0.057693094
48	0x3bd5cf31	0.0065249433
49	0x3c395268	0.011311151
50	0xbbed5351	-0.007242598
51	0xbcad4fda	-0.02115624
52	0x3d87dfce	0.06634484
53	0x3d05234f	0.032504376
54	0x3cb6f19a	0.022332001
55	0x3d11a716	0.035559736
56	0xbd8b1765	-0.067915715
57	0xbc3fcc23	-0.011706385
58	0xbc88043f	-0.016603587
59	0x3a28c98a	0.0006438723
60	0x3d7d2569	0.061803255
61	0x3ce0442b	0.027376255
62	0xbc03caa4	-0.008043919
63	0xbd9578a9	-0.07298405
64	0x3cc3dc49	0.023908751
65	0xbc6fe9ac	-0.014643114
66	0xbd5a5e66	-0.05331268
67	0x3a4c830a	0.0007801509
68	0xbdb56017	-0.08856218
69	0xbd465f7a	-0.048430897
70	0xbd533b5d	-0.051570285
71	0xbc9828ae	-0.018574085
72	0xbc2ae215	-0.010429879
73	0x3dac81f7	0.08423226
74	0xbddbc5c9	-0.10731084
75	0x3cc4a6d3	0.02400533
76	0xbcf4928d	-0.029855037
77	0xbb9ed0ef	-0.004846684
78	0xbd5467f0	-0.051856935
79	0xbbf4a4a3	-0.0074659153
80	0x3cacab38	0.021077737
81	0xbc58ecc8	-0.013240047
82	0xbcbfe472	-0.02342436
83	0x3d730074	0.059326604
84	0xbcc7da23	-0.024396008
85	0x3d3cb6a3	0.046072613
86	0xbd145edc	-0.036223277
87	0xbdbd608c	-0.092469305
88	0xbc44e2dc	-0.012016978
89	0x3d640f4b	0.055678647
90	0xbd2835ff	-0.04106712
91	0xbd0f7c97	-0.035030928
92	0x3cec9d3f	0.028883575
93	0x3b00ce60	0.001965426
94	0x3cf29578	0.029612288
95	0x3bdd802b	0.0067596636
96	0x3b94c19c	0.0045396816
97	0xbb4c35d6	-0.0031160018
98	0xbd0fcd44	-0.035107866
99	0xbc5dcd1b	-0.0135376705
100	0xbd14ea7a	-0.036356427
101	0xbcae0839	-0.021244155
102	0x3d817807	0.063217215
103	0xba5f51d6	-0.00085189694
104	0xbb74c619	-0.003734952
105	0xbcefaf8e	-0.029258516
106	0x3d93f9c0	0.072253704
107	0x3d60e533	0.05490608
108	0xbc3b382c	-0.011426967
109	0xbbe395cf	-0.006945349
110	0x3be9f8a2	0.007140235
111	0x3c0b8272	0.008514987
112	0xbd246b99	-0.040141676
113	0x3d18978c	0.0372539
114	0x3d72b9bb	0.059259158
115	0xbce51735	-0.027965168
116	0x3d89f019	0.06735248
117	0x3cd806c6	0.026370417
118	0x3aa20568	0.001236123
119	0xbb93902c	-0.0045032706
120	0xbdb8b44f	-0.09018766
121	0xbc9e3dee	-0.01931664
122	0x3d07100a	0.03297428
123	0xbc1d767e	-0.00961077
124	0xbcb88b7e	-0.022527453
125	0xbc9a38fe	-0.018826004
126	0x3d39c02e	0.045349292
127	0x3df411cc	0.11917457
128	0x3cfcd31d	0.030862385
129	0xbca4603b	-0.020065418
130	0x3db90f6b	0.09036144
131	0x3ca27a15	0.019833604
132	0xbc716d6b	-0.01473556
133	0xbd27ec5e	-0.0409969
134	0xbccc36e7	-0.024928523
135	0x3c8463fb	0.016160956
136	0x3d0560bf	0.032562967
137	0xbcdb1c9c	-0.02674704
138	0x3d29abdf	0.041423675
139	0xbd700e95	-0.058607657
140	0xbc9984cf	-0.018740086
141	0xbbe104f1	-0.006867044
142	0x38258dea	3.9471233e-05
143	0xbd99f06a	-0.075165585
144	0xbc3ca27c	-0.011513349
145	0xbd6fce4b	-0.058546346
146	0x3ab6b601	0.001393974
147	0x3cf7206a	0.030166823
148	0x3af49021	0.0018658676
149	0x3d2b7def	0.041868147
150	0x3c94cedf	0.01816505
151	0xbd55bd2a	-0.052182354
152	0xbdc30ffd	-0.09524534
153	0xbd29f2fa	-0.041491486
154	0xbd532607	-0.051549938
155	0xbd4b7f6f	-0.049682077
156	0x3c2e79cc	0.010649156
157	0x3c150713	0.009095925
158	0xbd4feaed	-0.050761152
159	0x3c78edd4	0.015193421
160	0xbcf6baaf	-0.030118315
161	0x3cd0474e	0.025424626
162	0xbc238c9c	-0.009982254
163	0xbd1d05a2	-0.03833545
164	0xbd0e105f	-0.03468358
165	0xbc7eebf2	-0.015559183
166	0x3d0fd24d	0.035112668
167	0xba3f0d36	-0.00072880404
168	0x3ba25fb6	0.0049552573
169	0x3b56cedc	0.0032777106
170	0xbd225398	-0.039630502
171	0xbd85aca2	-0.06527068
172	0xbda19cbd	-0.078912236
173	0x3c987787	0.018611683
174	0xbb0c58d7	-0.0021415257
175	0x3c5e875e	0.013582079
176	0xbb1966c9	-0.0023407212
177	0xbbdca806	-0.006733897
178	0xbd0aa837	-0.03385183
179	0xbd4a0024	-0.04931654
180	0x3d0e95f9	0.034810994
181	0x3d432389	0.04764131
182	0xbd8df6d1	-0.06931842
183	0xbc95504a	-0.018226761
184	0xbdab04cd	-0.08350525
185	0x3d318ee8	0.043349177
186	0xbd0cd034	-0.034378245
187	0x3ce87d75	0.028380135
188	0xbd5c2405	-0.05374529
189	0x3cfbacaf	0.03072199
190	0xbdb70a8c	-0.089375585
191	0x3c8cb97e	0.017178293
192	0x3c2cdf68	0.010551311
193	0xbcc529d8	-0.024067804
194	0x3bc67eca	0.006057595
195	0xbb47ed9e	-0.003050662
196	0xbc5a3dce	-0.013320399
197	0x3d072390	0.0329929
198	0x3da4879d	0.08033679
199	0xbaeed83a	-0.00182224
200	0xbd92af55	-0.07162348
201	0x3c38de59	0.011283481
202	0x3d6eb52f	0.05827826
203	0xbd50bd05	-0.050961513
204	0xbd0ef58f	-0.03490215
205	0x3c8f9e16	0.017531436
206	0x3cdd515c	0.027016334
207	0xbd20ad39	-0.039227698
208	0xbad1ad6c	-0.0015997118
209	0xbc898142	-0.016785268
210	0xbb0fd575	-0.0021947299
211	0xbd6a91e3	-0.057268035
212	0xbd74020b	-0.05957226
213	0x3d88d801	0.066818245
214	0xbc0b0a1a	-0.008486295
215	0xbb3f8544	-0.002922372
216	0x3c011389	0.007878193
217	0x3c2b48c7	0.010454363
218	0xbd2f216d	-0.042756487
219	0xbdc7c2a6	-0.09753923
220	0x3cb35641	0.021891715
221	0x3d803244	0.062595874
222	0xbd628470	-0.055302083
223	0x3b360e05	0.0027779352
224	0xbdf534a5	-0.11972932
225	0x3d38a92e	0.045083217
226	0xbc7c5707	-0.015401608
227	0x3d5bfe90	0.053709567
228	0xbd548991	-0.051889006
229	0x3d423673	0.047415208
230	0xbdc04879	-0.09388823
231	0xbd51ebed	-0.051250387
232	0x3ce5f6b1	0.028071733
233	0xbd484133	-0.048890304
234	0xbadfeb9c	-0.0017083767
235	0xbd18632e	-0.03720396
236	0x3ce5944b	0.028024813
237	0x3c5d7c77	0.013518444
238	0x3da7b0d4	0.08188024
239	0xbce24caf	-0.027624456
240	0xbd606e8a	-0.05479292
241	0xbc9e5b04	-0.019330509
242	0x3cc79d1b	0.024366906
243	0xbc847943	-0.016171103
244	0xbd3163a0	-0.0433079
245	0x3c2da313	0.010597962
246	0x3c66779a	0.014066601
247	0x3d998e3f	0.074978344
248	0xbcacbce4	-0.021086164
249	0x3ce576a5	0.028010676
250	0x3c9c83ec	0.019105874
251	0xbd2f862f	-0.042852577
252	0x3dae23b3	0.08502903
253	0x3d1753ad	0.036945034
254	0xb818a6ae	-3.6394857e-05
255	0xbd9fbe3f	-0.077999584

blocks/10/mobile_inverted_conv/point_linear/conv/Conv2D_bias f4 [40]
0	0x3f4498c6	0.76795614
1	0x3f2f4224	0.684603
2	0x3f253399	0.64531857
3	0xbff57210	-1.9175434
4	0xbe46c9c2	-0.19412902
5	0xbe87840e	-0.26467937
6	0xbe4fa14d	-0.20276375
7	0xbe7ef828	-0.24899352
8	0xbe6aa449	-0.22914232
9	0xbf61c7c5	-0.8819545
10	0x3d4e07c2	0.050300367
11	0x3e8d9eaa	0.27660114
12	0xbf206bd8	-0.62664557
13	0x3f35dc8b	0.71039647
14	0xbf0b7086	-0.5446857
15	0xbefc6731	-0.4929748
16	0xbed7c70d	-0.4214405
17	0xbc0dd5a5	-0.008656894
18	0xbf1be6b1	-0.6089888
19	0xbfbf9be4	-1.4969449
20	0xbf16e7e4	-0.58947587
21	0x3e0addeb	0.13561217
22	0xbe812ca7	-0.2522938
23	0xbebc79fa	-0.3681181
24	0x3e9812c6	0.29701823
25	0xc042ab7a	-3.041716
26	0x3e970eb2	0.295034
27	0x3e7e9539	0.24861611
28	0x3ee9f02b	0.45691046
29	0x3f9617bc	1.1725993
30	0xbe63c602	-0.22243503
31	0xbf72f231	-0.94900805
32	0xbf688715	-0.9083112
33	0xbe4e4b71	-0.20145966
34	0x3e9a85ec	0.301803
35	0x3f456c37	0.7711825
36	0x3f46fa9c	0.7772615
37	0x3dc0bdd4	0.09411207
38	0xbeb6ae4e	-0.3567986
39	0xbeed34a5	-0.46329227
