nn_menu/starters/keyword_spotting/model/KWS_ds_cnn_s_quant.tflite (tflite, 30840 bytes, 10 tensors)

DS-CNN/conv_1/weights_quant/FakeQuantWithMinMaxVars u1 [1, 10, 4, 64] scale=0.0008121338 zero_point=128
000000 83 6d 8b 7e 6c 7b 72 97 a9 68 88 81 5e 96 a6 89
       0.0024364013 -0.015430542 0.0089334715 -0.0016242675 -0.016242675 -0.004060669 -0.011369873 0.018679077 0.033297487 -0.01949121 0.00649707 0.0008121338 -0.027612548 0.017866943 0.030861083 0.007309204
000010 76 77 73 85 87 8c a2 b9 7d 96 9f 7a 88 71 66 70
       -0.008121338 -0.007309204 -0.010557739 0.004060669 0.0056849364 0.009745605 0.027612548 0.046291627 -0.0024364013 0.017866943 0.025176147 -0.0048728026 0.00649707 -0.012182007 -0.021115478 -0.01299414
000020 9c 77 b8 59 a9 3d 7b 50 69 8f 90 70 7e 74 86 98
       0.022739746 -0.007309204 0.04547949 -0.031673215 0.033297487 -0.05441296 -0.004060669 -0.03898242 -0.018679077 0.012182007 0.01299414 -0.01299414 -0.0016242675 -0.009745605 0.0048728026 0.01949121
000030 77 78 83 68 8a 7a 7e 72 80 ae 73 98 77 70 7e 8e
       -0.007309204 -0.00649707 0.0024364013 -0.01949121 0.008121338 -0.0048728026 -0.0016242675 -0.011369873 0.0 0.037358154 -0.010557739 0.01949121 -0.007309204 -0.01299414 -0.0016242675 0.011369873
000040 7c b0 83 7a aa 6c 7a 94 b0 92 8c 8c 8c 59 a9 7b
       -0.003248535 0.03898242 0.0024364013 -0.0048728026 0.03410962 -0.016242675 -0.0048728026 0.016242675 0.03898242 0.014618408 0.009745605 0.009745605 0.009745605 -0.031673215 0.033297487 -0.004060669
000050 61 91 76 6d 69 4d 7b 89 86 98 62 67 66 94 89 7c
       -0.025176147 0.013806274 -0.008121338 -0.015430542 -0.018679077 -0.04141882 -0.004060669 0.007309204 0.0048728026 0.01949121 -0.024364013 -0.020303344 -0.021115478 0.016242675 0.007309204 -0.003248535
000060 8c 81 b1 74 7a 82 7d 72 7f 6f 6e 6a a7 9f 7e 6d
       0.009745605 0.0008121338 0.039794557 -0.009745605 -0.0048728026 0.0016242675 -0.0024364013 -0.011369873 -0.0008121338 -0.013806274 -0.014618408 -0.017866943 0.031673215 0.025176147 -0.0016242675 -0.015430542
000070 6a 81 76 a5 8d 81 72 63 8d a2 a7 84 af 90 86 58
       -0.017866943 0.0008121338 -0.008121338 0.03004895 0.010557739 0.0008121338 -0.011369873 -0.02355188 0.010557739 0.027612548 0.031673215 0.003248535 0.038170286 0.01299414 0.0048728026 -0.03248535
000080 78 94 8e 6c 89 80 87 87 68 5f 7c 7d 95 8d b0 73
       -0.00649707 0.016242675 0.011369873 -0.016242675 0.007309204 0.0 0.0056849364 0.0056849364 -0.01949121 -0.026800415 -0.003248535 -0.0024364013 0.01705481 0.010557739 0.03898242 -0.010557739
000090 2e 76 86 ba 67 60 8e 7a 53 4b 5d 86 73 8a 67 3c
       -0.06659497 -0.008121338 0.0048728026 0.04710376 -0.020303344 -0.02598828 0.011369873 -0.0048728026 -0.03654602 -0.043043092 -0.028424682 0.0048728026 -0.010557739 0.008121338 -0.020303344 -0.055225097
0000a0 82 52 23 86 89 ac 83 58 7d b2 90 79 6a 7a 8a 68
       0.0016242675 -0.037358154 -0.07552844 0.0048728026 0.007309204 0.035733886 0.0024364013 -0.03248535 -0.0024364013 0.04060669 0.01299414 -0.0056849364 -0.017866943 -0.0048728026 0.008121338 -0.01949121
0000b0 a4 8f 98 7c 89 76 87 77 83 84 97 72 a6 94 68 65
       0.029236816 0.012182007 0.01949121 -0.003248535 0.007309204 -0.008121338 0.0056849364 -0.007309204 0.0024364013 0.003248535 0.018679077 -0.011369873 0.030861083 0.016242675 -0.01949121 -0.021927612
0000c0 a6 92 7e 70 45 6e 80 98 bb 71 87 80 40 9a 8c 87
       0.030861083 0.014618408 -0.0016242675 -0.01299414 -0.04791589 -0.014618408 0.0 0.01949121 0.04791589 -0.012182007 0.0056849364 0.0 -0.05197656 0.021115478 0.009745605 0.0056849364
0000d0 3f 5f 90 ab 81 af 76 a5 8a ad a0 63 39 ad ae 4e
       -0.052788697 -0.026800415 0.01299414 0.03492175 0.0008121338 0.038170286 -0.008121338 0.03004895 0.008121338 0.03654602 0.02598828 -0.02355188 -0.057661496 0.03654602 0.037358154 -0.04060669
0000e0 7b 76 57 be 6e b8 ab 3b 33 93 74 73 b3 7b 90 90
       -0.004060669 -0.008121338 -0.033297487 0.050352294 -0.014618408 0.04547949 0.03492175 -0.056037232 -0.0625343 0.015430542 -0.009745605 -0.010557739 0.04141882 -0.004060669 0.01299414 0.01299414
0000f0 aa 82 8d 6c 7b 79 87 a6 89 5b 9b 62 a3 8a 66 98
       0.03410962 0.0016242675 0.010557739 -0.016242675 -0.004060669 -0.0056849364 0.0056849364 0.030861083 0.007309204 -0.03004895 0.021927612 -0.024364013 0.028424682 0.008121338 -0.021115478 0.01949121

DS-CNN/conv_ds_1/dw_conv/weights_quant/FakeQuantWithMinMaxVars u1 [1, 3, 3, 64] scale=0.020811008 zero_point=128
000000 7e 76 6f 8b 6c 7e 47 70 5c 4d 72 43 69 9a 54 83
       -0.041622017 -0.20811008 -0.35378715 0.22892109 -0.41622016 -0.041622017 -1.1862274 -0.33297613 -0.7491963 -1.0613614 -0.29135412 -1.2694715 -0.4786532 0.5410862 -0.91568434 0.062433027
000010 6d a0 90 8b 6b 8d 8b ac 54 70 58 62 9c 6d 80 a4
       -0.39540917 0.66595227 0.33297613 0.22892109 -0.43703118 0.2705431 0.22892109 0.91568434 -0.91568434 -0.33297613 -0.8324403 -0.6243302 0.58270824 -0.39540917 0.0 0.7491963
000020 67 92 69 69 76 95 bb 53 66 44 73 3e 71 c3 76 e6
       -0.52027524 0.37459815 -0.4786532 -0.4786532 -0.20811008 0.43703118 1.2278495 -0.93649536 -0.5410862 -1.2486604 -0.2705431 -1.3735266 -0.3121651 1.3943375 -0.20811008 2.1227229
000030 61 60 2f 6a 58 1a b5 6c 99 b9 7c 88 7f 76 61 2d
       -0.64514124 -0.66595227 -1.6856917 -0.45784217 -0.8324403 -2.1227229 1.1029835 -0.41622016 0.52027524 1.1862274 -0.08324403 0.16648807 -0.020811008 -0.20811008 -0.64514124 -1.7273136
000040 64 60 74 37 67 b2 a7 6a b7 4e 5f 97 6b 7d 57 5c
       -0.58270824 -0.66595227 -0.2497321 -1.5192037 -0.52027524 1.0405505 0.8116293 -0.45784217 1.1446054 -1.0405505 -0.6867633 0.4786532 -0.43703118 -0.062433027 -0.85325134 -0.7491963
000050 b8 3f 51 40 a7 35 b2 84 5f 90 a1 9b 70 91 5f 5a
       1.1654165 -1.3527155 -0.9781174 -1.3319045 0.8116293 -1.5608256 1.0405505 0.08324403 -0.6867633 0.33297613 0.6867633 0.5618972 -0.33297613 0.35378715 -0.6867633 -0.79081833
000060 89 65 79 b8 5c 90 a1 75 82 a5 69 a8 43 5a 6d 7c
       0.18729907 -0.5618972 -0.14567706 1.1654165 -0.7491963 0.33297613 0.6867633 -0.22892109 0.041622017 0.7700073 -0.4786532 0.8324403 -1.2694715 -0.79081833 -0.39540917 -0.08324403
000070 8d 88 93 bc 4b 77 73 7c 55 9b ab 48 74 a3 5d 81
       0.2705431 0.16648807 0.39540917 1.2486604 -1.1029835 -0.18729907 -0.2705431 -0.08324403 -0.8948734 0.5618972 0.8948734 -1.1654165 -0.2497321 0.72838527 -0.72838527 0.020811008
000080 84 88 7d 17 a3 3f ef 8c 78 4c 6d 76 9e 99 96 71
       0.08324403 0.16648807 -0.062433027 -2.1851559 0.72838527 -1.3527155 2.3100219 0.2497321 -0.16648807 -1.0821724 -0.39540917 -0.20811008 0.6243302 0.52027524 0.45784217 -0.3121651
000090 c0 4e 93 9c e3 7d dc 5c b4 80 80 46 69 45 4d 66
       1.3319045 -1.0405505 0.39540917 0.58270824 2.0602899 -0.062433027 1.9146128 -0.7491963 1.0821724 0.0 0.0 -1.2070385 -0.4786532 -1.2278495 -1.0613614 -0.5410862
0000a0 93 8c 94 61 7c 4c 90 9f 82 83 48 b6 65 91 4f d3
       0.39540917 0.2497321 0.41622016 -0.64514124 -0.08324403 -1.0821724 0.33297613 0.64514124 0.041622017 0.062433027 -1.1654165 1.1237944 -0.5618972 0.35378715 -1.0197394 1.7273136
0000b0 84 96 a3 70 b6 6c 4d 5f 52 46 9b be a6 a9 60 be
       0.08324403 0.45784217 0.72838527 -0.33297613 1.1237944 -0.41622016 -1.0613614 -0.6867633 -0.9573064 -1.2070385 0.5618972 1.2902825 0.79081833 0.85325134 -0.66595227 1.2902825
0000c0 54 66 7e be 9d 4b 9a 8f 7d a5 e1 73 66 89 88 83
       -0.91568434 -0.5410862 -0.041622017 1.2902825 0.60351926 -1.1029835 0.5410862 0.3121651 -0.062433027 0.7700073 2.0186677 -0.2705431 -0.5410862 0.18729907 0.16648807 0.062433027
0000d0 6f 9b 74 85 5f a4 9b 88 be 62 78 82 ad 54 ce 90
       -0.35378715 0.5618972 -0.2497321 0.10405504 -0.6867633 0.7491963 0.5618972 0.16648807 1.2902825 -0.6243302 -0.16648807 0.041622017 0.93649536 -0.91568434 1.6232586 0.33297613
0000e0 68 4f 65 bf 8a b2 80 a0 73 45 3e 63 75 80 86 45
       -0.4994642 -1.0197394 -0.5618972 1.3110936 0.20811008 1.0405505 0.0 0.66595227 -0.2705431 -1.2278495 -1.3735266 -0.60351926 -0.22892109 0.0 0.12486605 -1.2278495
0000f0 4a 92 a0 6e 95 f8 74 cd 8e 83 74 ca 5d 53 aa 65
       -1.1237944 0.37459815 0.66595227 -0.37459815 0.43703118 2.497321 -0.2497321 1.6024476 0.29135412 0.062433027 -0.2497321 1.5400146 -0.72838527 -0.93649536 0.87406236 -0.5618972

DS-CNN/conv_ds_1/pw_conv/weights_quant/FakeQuantWithMinMaxVars u1 [64, 1, 1, 64] scale=0.005033458 zero_point=128
000000 35 a3 9a 5d bc 42 d9 6c c3 8e 6f 65 85 6a 60 a0
       -0.37750936 0.17617103 0.13086991 -0.17617103 0.3020075 -0.3120744 0.44797778 -0.10066916 0.33724168 0.07046841 -0.085568786 -0.13590337 0.02516729 -0.11073608 -0.16107066 0.16107066
000010 7b bb 3d 72 38 4b 71 66 97 46 4f 4d 94 8e 70 5b
       -0.02516729 0.29697403 -0.33724168 -0.07046841 -0.362409 -0.26677328 -0.075501874 -0.13086991 0.115769535 -0.29194057 -0.24663945 -0.25670636 0.10066916 0.07046841 -0.08053533 -0.18623795
000020 6f 80 aa 1a b9 ce 71 6d 7c 5c 82 81 66 b3 a1 a2
       -0.085568786 0.0 0.21140525 -0.5134127 0.2869071 0.39260975 -0.075501874 -0.095635705 -0.020133832 -0.1812045 0.010066916 0.005033458 -0.13086991 0.25670636 0.16610412 0.17113757
000030 51 6e aa 69 a5 84 90 9e 54 73 55 98 73 b2 a2 55
       -0.23657253 -0.09060225 0.21140525 -0.115769535 0.18623795 0.020133832 0.08053533 0.15100375 -0.22147216 -0.065434955 -0.2164387 0.120803 -0.065434955 0.2516729 0.17113757 -0.2164387
000040 c3 6c bf 9d 98 93 65 ce d8 76 3c 40 cc 91 6d 86
       0.33724168 -0.10066916 0.31710786 0.14597028 0.120803 0.095635705 -0.13590337 0.39260975 0.44294432 -0.05033458 -0.34227514 -0.32214132 0.38254282 0.085568786 -0.095635705 0.03020075
000050 6f a8 3a 75 b2 6f b4 6a 75 a5 b9 35 7d a9 a5 77
       -0.085568786 0.20133832 -0.35234207 -0.05536804 0.2516729 -0.085568786 0.26173982 -0.11073608 -0.05536804 0.18623795 0.2869071 -0.37750936 -0.015100375 0.20637178 0.18623795 -0.045301124
000060 80 7a 44 1c cb 7d 85 ce 68 73 97 71 7a 5b 5e 4b
       0.0 -0.03020075 -0.3020075 -0.5033458 0.37750936 -0.015100375 0.02516729 0.39260975 -0.120803 -0.065434955 0.115769535 -0.075501874 -0.03020075 -0.18623795 -0.17113757 -0.26677328
000070 dd 64 8e df 88 c0 42 7d 6f 8c 31 a1 5e 86 76 ac
       0.4681116 -0.14093682 0.07046841 0.47817853 0.040267665 0.32214132 -0.3120744 -0.015100375 -0.085568786 0.0604015 -0.39764318 0.16610412 -0.17113757 0.03020075 -0.05033458 0.22147216
000080 97 8f 89 b3 5d b6 58 84 84 5d 80 60 6f 64 5e b2
       0.115769535 0.075501874 0.045301124 0.25670636 -0.17617103 0.27180675 -0.20133832 0.020133832 0.020133832 -0.17617103 0.0 -0.16107066 -0.085568786 -0.14093682 -0.17113757 0.2516729
000090 95 b9 40 af b0 86 47 59 8f 55 53 5b 4b b8 a3 c4
       0.10570262 0.2869071 -0.32214132 0.23657253 0.241606 0.03020075 -0.2869071 -0.19630487 0.075501874 -0.2164387 -0.22650562 -0.18623795 -0.26677328 0.28187364 0.17617103 0.34227514
0000a0 af 91 a2 93 77 b6 46 86 99 4d 63 9e 73 82 64 7a
       0.23657253 0.085568786 0.17113757 0.095635705 -0.045301124 0.27180675 -0.29194057 0.03020075 0.12583645 -0.25670636 -0.14597028 0.15100375 -0.065434955 0.010066916 -0.14093682 -0.03020075
0000b0 7c 72 75 2a 76 58 90 b1 39 54 9f 9a 9e 99 5c 9d
       -0.020133832 -0.07046841 -0.05536804 -0.4328774 -0.05033458 -0.20133832 0.08053533 0.24663945 -0.35737553 -0.22147216 0.1560372 0.13086991 0.15100375 0.12583645 -0.1812045 0.14597028
0000c0 84 7b b5 76 63 77 91 6f 7a 5b 6a 90 71 8c 5f 78
       0.020133832 -0.02516729 0.26677328 -0.05033458 -0.14597028 -0.045301124 0.085568786 -0.085568786 -0.03020075 -0.18623795 -0.11073608 0.08053533 -0.075501874 0.0604015 -0.16610412 -0.040267665
0000d0 70 7b 89 a6 7a 72 55 b6 87 8a 87 54 60 5c 88 b2
       -0.08053533 -0.02516729 0.045301124 0.19127141 -0.03020075 -0.07046841 -0.2164387 0.27180675 0.035234205 0.05033458 0.035234205 -0.22147216 -0.16107066 -0.1812045 0.040267665 0.2516729
0000e0 91 5a 5b 91 5a 70 5f 73 6f 8d 7a 9f 4f 74 54 6d
       0.085568786 -0.19127141 -0.18623795 0.085568786 -0.19127141 -0.08053533 -0.16610412 -0.065434955 -0.085568786 0.065434955 -0.03020075 0.1560372 -0.24663945 -0.0604015 -0.22147216 -0.095635705
0000f0 a2 9f 8a 43 7e 8a ad 77 62 82 5f 66 a0 62 79 73
       0.17113757 0.1560372 0.05033458 -0.30704096 -0.010066916 0.05033458 0.22650562 -0.045301124 -0.15100375 0.010066916 -0.16610412 -0.13086991 0.16107066 -0.15100375 -0.035234205 -0.065434955

DS-CNN/conv_ds_2/dw_conv/weights_quant/FakeQuantWithMinMaxVars u1 [1, 3, 3, 64] scale=0.015244574 zero_point=128
000000 b4 98 a5 ea 94 91 56 ac 76 b0 c1 83 83 46 5b 8a
       0.7927179 0.3658698 0.56404924 1.6159248 0.3048915 0.25915778 -0.64027214 0.6707613 -0.15244575 0.7317396 0.99089736 0.045733724 0.045733724 -0.8841853 -0.56404924 0.15244575
000010 1d a8 a1 52 6e aa 66 b1 df 92 a3 81 84 a0 bc 68
       -1.5092129 0.609783 0.50307095 -0.70125043 -0.27440235 0.64027214 -0.39635894 0.7469841 1.4482346 0.27440235 0.5335601 0.015244574 0.060978297 0.48782638 0.91467446 -0.3658698
000020 98 3f 95 c8 6d 3e b4 47 68 c4 5e 50 61 87 5f ba
       0.3658698 -0.99089736 0.32013607 1.0976094 -0.28964692 -1.0061419 0.7927179 -0.8689407 -0.3658698 1.0366311 -0.51831555 -0.7317396 -0.4725818 0.10671202 -0.50307095 0.8841853
000030 ce 88 b3 94 6a 61 7f 60 6b 56 51 5e 58 4b 7a 57
       1.1890768 0.121956594 0.7774733 0.3048915 -0.33538064 -0.4725818 -0.015244574 -0.48782638 -0.32013607 -0.64027214 -0.716495 -0.51831555 -0.609783 -0.8079624 -0.09146745 -0.62502754
000040 a3 69 63 78 8e 7b b9 89 8b 33 b3 c1 6f cb aa 5b
       0.5335601 -0.35062522 -0.44209266 -0.121956594 0.21342404 -0.076222874 0.8689407 0.13720118 0.16769032 -1.1738322 0.7774733 0.99089736 -0.25915778 1.1433431 0.64027214 -0.56404924
000050 a6 42 93 56 87 96 54 64 76 af 93 86 60 4d b8 aa
       0.57929385 -0.9451636 0.28964692 -0.64027214 0.10671202 0.33538064 -0.6707613 -0.42684808 -0.15244575 0.716495 0.28964692 0.09146745 -0.48782638 -0.7774733 0.85369617 0.64027214
000060 6f 6e a9 6a c8 67 bc 70 a3 a7 9a 7c 54 77 a7 c7
       -0.25915778 -0.27440235 0.62502754 -0.33538064 1.0976094 -0.38111436 0.91467446 -0.24391319 0.5335601 0.5945384 0.39635894 -0.060978297 -0.6707613 -0.13720118 0.5945384 1.0823648
000070 73 48 ac 5d b0 6e 82 83 a2 8b 4c 51 72 59 b7 76
       -0.19817947 -0.85369617 0.6707613 -0.5335601 0.7317396 -0.27440235 0.030489149 0.045733724 0.51831555 0.16769032 -0.7927179 -0.716495 -0.21342404 -0.5945384 0.83845156 -0.15244575
000080 45 41 ad cf 80 4d 8a 96 b0 93 60 a0 71 e1 80 a4
       -0.89942986 -0.96040815 0.68600583 1.2043214 0.0 -0.7774733 0.15244575 0.33538064 0.7317396 0.28964692 -0.48782638 0.48782638 -0.22866862 1.4787238 0.0 0.5488047
000090 48 a4 83 a8 6f 9b c8 6f 56 d6 80 53 9b 73 66 b0
       -0.85369617 0.5488047 0.045733724 0.609783 -0.25915778 0.4116035 1.0976094 -0.25915778 -0.64027214 1.3110334 0.0 -0.68600583 0.4116035 -0.19817947 -0.39635894 0.7317396
0000a0 44 42 43 69 8c 6f 98 ac 77 58 82 40 71 68 42 8c
       -0.91467446 -0.9451636 -0.929919 -0.35062522 0.1829349 -0.25915778 0.3658698 0.6707613 -0.13720118 -0.609783 0.030489149 -0.97565275 -0.22866862 -0.3658698 -0.9451636 0.1829349
0000b0 6d 6a b4 b2 82 3f 99 7d 88 78 78 4e d7 a4 58 7d
       -0.28964692 -0.33538064 0.7927179 0.7622287 0.030489149 -0.99089736 0.38111436 -0.045733724 0.121956594 -0.121956594 -0.121956594 -0.7622287 1.326278 0.5488047 -0.609783 -0.045733724
0000c0 cb 8e 6c 4c b1 43 5c 80 83 af 8d 72 ac 53 5f a6
       1.1433431 0.21342404 -0.3048915 -0.7927179 0.7469841 -0.929919 -0.5488047 0.0 0.045733724 0.716495 0.19817947 -0.21342404 0.6707613 -0.68600583 -0.50307095 0.57929385
0000d0 8e 77 8b 5f 5a 49 81 98 8b c5 1a 70 6c a1 77 b1
       0.21342404 -0.13720118 0.16769032 -0.50307095 -0.57929385 -0.83845156 0.015244574 0.3658698 0.16769032 1.0518756 -1.5549465 -0.24391319 -0.3048915 0.50307095 -0.13720118 0.7469841
0000e0 a8 8f 3b 71 a4 68 72 92 8c ad 6a 73 82 87 84 9a
       0.609783 0.22866862 -1.0518756 -0.22866862 0.5488047 -0.3658698 -0.21342404 0.27440235 0.1829349 0.68600583 -0.33538064 -0.19817947 0.030489149 0.10671202 0.060978297 0.39635894
0000f0 89 7a af 53 5e 6d 83 58 60 b5 b3 63 58 a8 5b 45
       0.13720118 -0.09146745 0.716495 -0.68600583 -0.51831555 -0.28964692 0.045733724 -0.609783 -0.48782638 0.8079624 0.7774733 -0.44209266 -0.609783 0.609783 -0.56404924 -0.89942986

DS-CNN/conv_ds_2/pw_conv/weights_quant/FakeQuantWithMinMaxVars u1 [64, 1, 1, 64] scale=0.005022839 zero_point=128
000000 96 99 a1 9e 52 a8 7e 96 44 5c 9e 52 a1 bf 87 5f
       0.11050246 0.12557098 0.16575369 0.15068518 -0.2310506 0.20091356 -0.010045678 0.11050246 -0.30137035 -0.18082221 0.15068518 -0.2310506 0.16575369 0.31643885 0.035159875 -0.16575369
000010 ac 71 89 30 af b0 9b c3 a9 c5 55 2e 4a 49 77 53
       0.22100492 -0.07534259 0.045205552 -0.40182713 0.23607343 0.24109629 0.13561666 0.33653024 0.2059364 0.34657592 -0.21598208 -0.4118728 -0.27123332 -0.27625614 -0.045205552 -0.22602776
000020 7f 75 56 b9 6d 49 68 80 60 59 ad 53 7b 5f 99 7a
       -0.005022839 -0.05525123 -0.21095924 0.28630182 -0.09543394 -0.27625614 -0.120548144 0.0 -0.16073085 -0.19589072 0.22602776 -0.22602776 -0.025114195 -0.16575369 0.12557098 -0.030137036
000030 38 b3 8d b6 9a 75 c7 55 5f ad 5f 88 b2 63 5c b7
       -0.36164442 0.2561648 0.06529691 0.27123332 0.13059382 -0.05525123 0.3566216 -0.21598208 -0.16575369 0.22602776 -0.16575369 0.040182713 0.25114197 -0.14566234 -0.18082221 0.27625614
000040 84 a4 a6 80 5e a9 59 5e 75 75 4b 5e 80 b9 9b a8
       0.020091357 0.18082221 0.19086789 0.0 -0.17077653 0.2059364 -0.19589072 -0.17077653 -0.05525123 -0.05525123 -0.26621047 -0.17077653 0.0 0.28630182 0.13561666 0.20091356
000050 77 87 bc a8 86 7c be 8b 7f 7c 84 b0 3c 91 36 72
       -0.045205552 0.035159875 0.30137035 0.20091356 0.030137036 -0.020091357 0.31141603 0.05525123 -0.005022839 -0.020091357 0.020091357 0.24109629 -0.34155306 0.085388266 -0.3716901 -0.07031975
000060 67 6c 7d a6 a6 80 9e 7d 44 9c 73 58 70 58 7b 8f
       -0.12557098 -0.10045678 -0.015068518 0.19086789 0.19086789 0.0 0.15068518 -0.015068518 -0.30137035 0.1406395 -0.06529691 -0.20091356 -0.08036543 -0.20091356 -0.025114195 0.07534259
000070 89 6b 3f 53 86 71 a1 8a 70 93 5f be 2c 90 be 7b
       0.045205552 -0.10547962 -0.32648456 -0.22602776 0.030137036 -0.07534259 0.16575369 0.05022839 -0.08036543 0.09543394 -0.16575369 0.31141603 -0.42191848 0.08036543 0.31141603 -0.025114195
000080 25 a9 6b 4c a0 77 6e 5b 66 a6 69 66 9b bb b5 96
       -0.45707837 0.2059364 -0.10547962 -0.26118764 0.16073085 -0.045205552 -0.090411104 -0.18584505 -0.13059382 0.19086789 -0.1155253 -0.13059382 0.13561666 0.2963475 0.26621047 0.11050246
000090 ae 4b 45 5a a2 66 b3 6a 7b 97 41 3e 97 bd 6b 59
       0.2310506 -0.26621047 -0.2963475 -0.19086789 0.17077653 -0.13059382 0.2561648 -0.11050246 -0.025114195 0.1155253 -0.31643885 -0.33150738 0.1155253 0.30639318 -0.10547962 -0.19589072
0000a0 a9 8a d6 9c a5 3d 73 b1 6b 52 74 51 ac 8c 8e 77
       0.2059364 0.05022839 0.43196416 0.1406395 0.18584505 -0.33653024 -0.06529691 0.24611913 -0.10547962 -0.2310506 -0.060274072 -0.23607343 0.22100492 0.060274072 0.07031975 -0.045205552
0000b0 b0 a6 54 4e a4 9a 7a 7a 55 65 50 d3 a2 2a ad 8d
       0.24109629 0.19086789 -0.22100492 -0.25114197 0.18082221 0.13059382 -0.030137036 -0.030137036 -0.21598208 -0.13561666 -0.24109629 0.41689566 0.17077653 -0.43196416 0.22602776 0.06529691
0000c0 92 69 8a 6b ae 96 4d 71 6a 52 91 42 51 90 36 2c
       0.090411104 -0.1155253 0.05022839 -0.10547962 0.2310506 0.11050246 -0.2561648 -0.07534259 -0.11050246 -0.2310506 0.085388266 -0.31141603 -0.23607343 0.08036543 -0.3716901 -0.42191848
0000d0 4c a4 65 43 a3 c8 78 8c 62 a6 bf bb 6b ab 5e b8
       -0.26118764 0.18082221 -0.13561666 -0.30639318 0.17579937 0.36164442 -0.040182713 0.060274072 -0.15068518 0.19086789 0.31643885 0.2963475 -0.10547962 0.21598208 -0.17077653 0.281279
0000e0 8a 5d 44 b2 7c 95 89 9f 97 2d 26 b8 ae 3b 63 3e
       0.05022839 -0.17579937 -0.30137035 0.25114197 -0.020091357 0.10547962 0.045205552 0.15570801 0.1155253 -0.41689566 -0.4520555 0.281279 0.2310506 -0.34657592 -0.14566234 -0.33150738
0000f0 a8 c6 52 5a a0 3c 7a b6 a8 61 9a 99 ac 9e a0 5b
       0.20091356 0.35159874 -0.2310506 -0.19086789 0.16073085 -0.34155306 -0.030137036 0.27123332 0.20091356 -0.15570801 0.13059382 0.12557098 0.22100492 0.15068518 0.16073085 -0.18584505

DS-CNN/conv_ds_3/dw_conv/weights_quant/FakeQuantWithMinMaxVars u1 [1, 3, 3, 64] scale=0.0138936555 zero_point=128
000000 61 89 a4 b4 33 a0 cc 5b 53 64 52 9b a1 3d a3 ae
       -0.4307033 0.1250429 0.5001716 0.7224701 -1.0698115 0.44459698 1.0559179 -0.51406527 -0.6252145 -0.38902235 -0.6391082 0.3751287 0.45849064 -0.93087494 0.48627794 0.6391082
000010 75 c1 bb 45 d6 e6 5d de 3e 41 79 54 ad 85 b0 aa
       -0.15283021 0.9030876 0.8197257 -0.8197257 1.1948544 1.4171529 -0.48627794 1.3060036 -0.9169813 -0.8753003 -0.09725559 -0.61132085 0.6252145 0.069468275 0.66689545 0.5835335
000020 c9 a5 da ab 46 9e ad a1 7d 69 a0 c6 54 9a b0 bd
       1.0142368 0.51406527 1.250429 0.5974272 -0.805832 0.41680968 0.6252145 0.45849064 -0.041680966 -0.3195541 0.44459698 0.9725559 -0.61132085 0.36123505 0.66689545 0.84751296
000030 b0 c0 40 ab 63 a1 9a be 8a b0 53 5a 92 9f b2 60
       0.66689545 0.88919395 -0.88919395 0.5974272 -0.402916 0.45849064 0.36123505 0.8614066 0.13893655 0.66689545 -0.6252145 -0.5279589 0.2500858 0.4307033 0.6946828 -0.44459698
000040 7a 7c a7 94 68 aa ad 60 6d 79 97 4b a5 53 79 8e
       -0.08336193 -0.055574622 0.5418526 0.2778731 -0.33344772 0.5835335 0.6252145 -0.44459698 -0.26397946 -0.09725559 0.3195541 -0.73636377 0.51406527 -0.6252145 -0.09725559 0.19451118
000050 77 a0 a6 5c 6a 64 71 3b 66 81 83 7b 84 99 d3 8d
       -0.1250429 0.44459698 0.5279589 -0.5001716 -0.30566043 -0.38902235 -0.20840484 -0.9586622 -0.36123505 0.0138936555 0.041680966 -0.069468275 0.055574622 0.3473414 1.1531734 0.18061753
000060 a9 ab 5a 96 95 62 8b c4 65 41 ad a8 7b a1 9e 5f
       0.56963986 0.5974272 -0.5279589 0.30566043 0.29176676 -0.41680968 0.15283021 0.94476855 -0.3751287 -0.8753003 0.6252145 0.5557462 -0.069468275 0.45849064 0.41680968 -0.45849064
000070 97 6f 9a 90 46 7f 8a b2 9a a1 54 69 4d 5b 9e 6e
       0.3195541 -0.23619214 0.36123505 0.22229849 -0.805832 -0.0138936555 0.13893655 0.6946828 0.36123505 0.45849064 -0.61132085 -0.3195541 -0.70857644 -0.51406527 0.41680968 -0.2500858
000080 4f 7c 6e ab 84 80 99 9f 6e 6a 68 98 a1 96 97 98
       -0.6807891 -0.055574622 -0.2500858 0.5974272 0.055574622 0.0 0.3473414 0.4307033 -0.2500858 -0.30566043 -0.33344772 0.33344772 0.45849064 0.30566043 0.3195541 0.33344772
000090 90 95 8d 57 a8 71 59 af 8b 5f 98 3a a3 a8 9b 99
       0.22229849 0.29176676 0.18061753 -0.56963986 0.5557462 -0.20840484 -0.5418526 0.6530018 0.15283021 -0.45849064 0.33344772 -0.9725559 0.48627794 0.5557462 0.3751287 0.3473414
0000a0 9d 73 8a 99 78 5a ad 99 44 66 cf 98 38 72 b7 69
       0.402916 -0.18061753 0.13893655 0.3473414 -0.111149244 -0.5279589 0.6252145 0.3473414 -0.83361936 -0.36123505 1.0975988 0.33344772 -1.0003432 -0.19451118 0.76415104 -0.3195541
0000b0 8c 66 9f b2 79 bb 97 5e 5c 6f 3e 85 78 85 9f 67
       0.16672386 -0.36123505 0.4307033 0.6946828 -0.09725559 0.8197257 0.3195541 -0.47238427 -0.5001716 -0.23619214 -0.9169813 0.069468275 -0.111149244 0.069468275 0.4307033 -0.3473414
0000c0 8f 40 a9 a1 7b 70 bd 56 6b 54 76 7c b4 6c a5 a9
       0.20840484 -0.88919395 0.56963986 0.45849064 -0.069468275 -0.22229849 0.84751296 -0.5835335 -0.29176676 -0.61132085 -0.13893655 -0.055574622 0.7224701 -0.2778731 0.51406527 0.56963986
0000d0 52 8f a5 55 93 97 78 9f 5b 42 44 7d 7b 83 5c 99
       -0.6391082 0.20840484 0.51406527 -0.5974272 0.26397946 0.3195541 -0.111149244 0.4307033 -0.51406527 -0.8614066 -0.83361936 -0.041680966 -0.069468275 0.041680966 -0.5001716 0.3473414
0000e0 9f 9a 9b 94 9a 66 98 ab 4f 6a 0e 9a 7e 95 a1 bc
       0.4307033 0.36123505 0.3751287 0.2778731 0.36123505 -0.36123505 0.33344772 0.5974272 -0.6807891 -0.30566043 -1.5838767 0.36123505 -0.027787311 0.29176676 0.45849064 0.83361936
0000f0 a4 90 7c a0 8a 97 9e b4 71 9c 8d 63 9f 86 93 69
       0.5001716 0.22229849 -0.055574622 0.44459698 0.13893655 0.3195541 0.41680968 0.7224701 -0.20840484 0.38902235 0.18061753 -0.402916 0.4307033 0.08336193 0.26397946 -0.3195541

DS-CNN/conv_ds_3/pw_conv/weights_quant/FakeQuantWithMinMaxVars u1 [64, 1, 1, 64] scale=0.004759694 zero_point=128
000000 92 b7 b8 90 d8 74 7f 53 7d c5 6b 80 54 60 36 bc
       0.085674495 0.26178318 0.26654285 0.076155104 0.41885307 -0.05711633 -0.004759694 -0.21418624 -0.014279082 0.32841888 -0.09995358 0.0 -0.20942654 -0.15231021 -0.35221735 0.28558165
000010 a7 82 a2 70 7b 67 98 6d 30 82 86 6b a8 55 3a 4d
       0.18562807 0.009519388 0.16182959 -0.076155104 -0.02379847 -0.11899235 0.11423266 -0.090434186 -0.3807755 0.009519388 0.028558165 -0.09995358 0.19038776 -0.20466684 -0.33317858 -0.24274439
000020 9e 7a 2c 93 70 63 7f 71 6c 6d ba a3 c9 83 ac 74
       0.14279082 -0.028558165 -0.3998143 0.090434186 -0.076155104 -0.13803113 -0.004759694 -0.07139541 -0.09519388 -0.090434186 0.27606225 0.16658929 0.34745765 0.014279082 0.20942654 -0.05711633
000030 ab 68 73 4e c9 6d 58 bb 82 63 77 c8 4e 8f 88 d2
       0.20466684 -0.11423266 -0.06187602 -0.2379847 0.34745765 -0.090434186 -0.19038776 0.28082195 0.009519388 -0.13803113 -0.042837247 0.34269798 -0.2379847 0.07139541 0.038077552 0.3902949
000040 21 d6 82 8d c5 56 31 64 74 4f 4a 95 70 38 d5 c4
       -0.45217094 0.40933368 0.009519388 0.06187602 0.32841888 -0.19990715 -0.3760158 -0.13327143 -0.05711633 -0.233225 -0.25702348 0.09995358 -0.076155104 -0.34269798 0.40457398 0.32365918
000050 90 9c 81 87 70 59 70 52 29 71 59 84 a5 b3 81 a6
       0.076155104 0.13327143 0.004759694 0.033317856 -0.076155104 -0.18562807 -0.076155104 -0.21894592 -0.41409338 -0.07139541 -0.18562807 0.019038776 0.17610867 0.24274439 0.004759694 0.18086837
000060 6b 53 64 42 60 3a 7f 66 90 70 94 48 38 3f 7c 75
       -0.09995358 -0.21418624 -0.13327143 -0.29510102 -0.15231021 -0.33317858 -0.004759694 -0.12375204 0.076155104 -0.076155104 0.09519388 -0.26654285 -0.34269798 -0.3093801 -0.019038776 -0.052356634
000070 78 4b 3b 2a 88 80 30 bb 5d 52 39 66 4e 73 aa 6c
       -0.038077552 -0.25226378 -0.32841888 -0.40933368 0.038077552 0.0 -0.3807755 0.28082195 -0.16658929 -0.21894592 -0.33793828 -0.12375204 -0.2379847 -0.06187602 0.19990715 -0.09519388
000080 74 6f 7c 94 4c 90 ac 8d 6b 6e 8e a1 7a 5e 70 70
       -0.05711633 -0.080914795 -0.019038776 0.09519388 -0.24750409 0.076155104 0.20942654 0.06187602 -0.09995358 -0.085674495 0.06663571 0.1570699 -0.028558165 -0.16182959 -0.076155104 -0.076155104
000090 af 63 7f 88 87 7a 81 65 63 84 58 5a a3 9e 68 a2
       0.22370562 -0.13803113 -0.004759694 0.038077552 0.033317856 -0.028558165 0.004759694 -0.12851174 -0.13803113 0.019038776 -0.19038776 -0.18086837 0.16658929 0.14279082 -0.11423266 0.16182959
0000a0 a9 a8 98 a4 a3 74 6b 95 91 97 a7 a1 75 8f 93 66
       0.19514745 0.19038776 0.11423266 0.17134899 0.16658929 -0.05711633 -0.09995358 0.09995358 0.080914795 0.10947296 0.18562807 0.1570699 -0.052356634 0.07139541 0.090434186 -0.12375204
0000b0 8d 6c a8 9c 41 92 a1 90 a5 8d 8f 64 6d 62 b1 8c
       0.06187602 -0.09519388 0.19038776 0.13327143 -0.29986072 0.085674495 0.1570699 0.076155104 0.17610867 0.06187602 0.07139541 -0.13327143 -0.090434186 -0.14279082 0.233225 0.05711633
0000c0 6e 40 96 59 80 b7 78 8d 9c a5 4c 48 95 ba 6d 81
       -0.085674495 -0.30462041 0.10471327 -0.18562807 0.0 0.26178318 -0.038077552 0.06187602 0.13327143 0.17610867 -0.24750409 -0.26654285 0.09995358 0.27606225 -0.090434186 0.004759694
0000d0 90 d1 9d c3 a6 8e 9c 86 7e ab 7c 37 91 3f 5f 4a
       0.076155104 0.3855352 0.13803113 0.31889948 0.18086837 0.06663571 0.13327143 0.028558165 -0.009519388 0.20466684 -0.019038776 -0.34745765 0.080914795 -0.3093801 -0.1570699 -0.25702348
0000e0 7b a6 7c 49 ad 64 7a 77 7a b0 94 31 40 5c e0 58
       -0.02379847 0.18086837 -0.019038776 -0.26178318 0.21418624 -0.13327143 -0.028558165 -0.042837247 -0.028558165 0.22846532 0.09519388 -0.3760158 -0.30462041 -0.17134899 0.45693064 -0.19038776
0000f0 51 8c 7f a1 d1 92 6d 62 5b 9c 63 77 58 76 cb 5a
       -0.22370562 0.05711633 -0.004759694 0.1570699 0.3855352 0.085674495 -0.090434186 -0.14279082 -0.17610867 0.13327143 -0.13803113 -0.042837247 -0.19038776 -0.04759694 0.35697705 -0.18086837

DS-CNN/conv_ds_4/dw_conv/weights_quant/FakeQuantWithMinMaxVars u1 [1, 3, 3, 64] scale=0.01155942 zero_point=128
000000 c6 a9 54 55 98 ae 73 8a af a4 8d b5 b1 c0 67 6d
       0.8091594 0.47393623 -0.5086145 -0.49705508 0.2774261 0.53173333 -0.15027246 0.1155942 0.54329276 0.41613913 0.15027246 0.61264926 0.5664116 0.7398029 -0.28898552 -0.21962899
000010 a9 95 58 8f b4 62 41 74 8d 5e 66 63 a2 b5 b9 64
       0.47393623 0.24274783 -0.4623768 0.1733913 0.60108984 -0.3467826 -0.72824347 -0.13871305 0.15027246 -0.3930203 -0.30054492 -0.3352232 0.3930203 0.61264926 0.65888697 -0.32366377
000020 5d 6d 55 53 68 aa 58 b9 a4 ab ad 67 a7 58 6c 7c
       -0.4045797 -0.21962899 -0.49705508 -0.5201739 -0.2774261 0.48549566 -0.4623768 0.65888697 0.41613913 0.49705508 0.5201739 -0.28898552 0.45081738 -0.4623768 -0.2311884 -0.04623768
000030 c3 c8 a2 2d 58 24 bd a8 a7 ab ba 9d 50 66 57 53
       0.7744812 0.83227825 0.3930203 -0.9594319 -0.4623768 -1.0634667 0.7051246 0.4623768 0.45081738 0.49705508 0.6704464 0.3352232 -0.5548522 -0.30054492 -0.47393623 -0.5201739
000040 b6 aa 56 5d 8b ad 72 72 9d a2 6f b4 a3 a2 5b 65
       0.6242087 0.48549566 -0.48549566 -0.4045797 0.12715362 0.5201739 -0.16183189 -0.16183189 0.3352232 0.3930203 -0.19651015 0.60108984 0.4045797 0.3930203 -0.42769855 -0.31210434
000050 ad 9c 66 7e aa 73 89 6e 4e 8c 61 71 a8 a2 af 70
       0.5201739 0.32366377 -0.30054492 -0.02311884 0.48549566 -0.15027246 0.10403478 -0.20806956 -0.57797104 0.13871305 -0.35834202 -0.1733913 0.4623768 0.3930203 0.54329276 -0.18495072
000060 6c 90 75 62 7b 9c 6a b1 9f 9a a7 72 a3 63 74 86
       -0.2311884 0.18495072 -0.12715362 -0.3467826 -0.0577971 0.32366377 -0.25430724 0.5664116 0.35834202 0.30054492 0.45081738 -0.16183189 0.4045797 -0.3352232 -0.13871305 0.06935652
000070 9b a5 a0 97 73 95 a9 9e b3 a4 cb ab 78 72 75 5c
       0.31210434 0.42769855 0.36990145 0.26586667 -0.15027246 0.24274783 0.47393623 0.3467826 0.5895304 0.41613913 0.86695653 0.49705508 -0.09247536 -0.16183189 -0.12715362 -0.41613913
000080 ad a4 5e 65 42 9c 7a 76 9c 9d 5a ae a0 b9 5b 79
       0.5201739 0.41613913 -0.3930203 -0.31210434 -0.71668404 0.32366377 -0.06935652 -0.1155942 0.32366377 0.3352232 -0.43925798 0.53173333 0.36990145 0.65888697 -0.42769855 -0.08091594
000090 ab b0 63 8e ad 57 8c 66 49 93 65 66 9d 9b a2 5e
       0.49705508 0.5548522 -0.3352232 0.16183189 0.5201739 -0.47393623 0.13871305 -0.30054492 -0.6357681 0.21962899 -0.31210434 -0.30054492 0.3352232 0.31210434 0.3930203 -0.3930203
0000a0 74 5b 65 66 5f 9b 5d b1 9a b0 ab 74 9a 79 62 7f
       -0.13871305 -0.42769855 -0.31210434 -0.30054492 -0.38146088 0.31210434 -0.4045797 0.5664116 0.30054492 0.5548522 0.49705508 -0.13871305 0.30054492 -0.08091594 -0.3467826 -0.01155942
0000b0 a0 a2 a0 9c 75 ae 9b 9c a0 99 af 9f 5e 5f 5f 54
       0.36990145 0.3930203 0.36990145 0.32366377 -0.12715362 0.53173333 0.31210434 0.32366377 0.36990145 0.28898552 0.54329276 0.35834202 -0.3930203 -0.38146088 -0.38146088 -0.5086145
0000c0 8f 8d 8a 6f 76 8e 60 86 8f 8d 7b 9a 8b 85 66 56
       0.1733913 0.15027246 0.1155942 -0.19651015 -0.1155942 0.16183189 -0.36990145 0.06935652 0.1733913 0.15027246 -0.0577971 0.30054492 0.12715362 0.0577971 -0.30054492 -0.48549566
0000d0 85 8a 6e 48 90 79 63 60 97 60 52 4e 83 95 98 71
       0.0577971 0.1155942 -0.20806956 -0.64732754 0.18495072 -0.08091594 -0.3352232 -0.36990145 0.26586667 -0.36990145 -0.53173333 -0.57797104 0.03467826 0.24274783 0.2774261 -0.1733913
0000e0 65 7b 73 67 7a 94 8b 90 8f 8e 89 69 8f 7a 5f 7f
       -0.31210434 -0.0577971 -0.15027246 -0.28898552 -0.06935652 0.2311884 0.12715362 0.18495072 0.1733913 0.16183189 0.10403478 -0.26586667 0.1733913 -0.06935652 -0.38146088 -0.01155942
0000f0 8f 83 89 53 5c 27 8a 85 7c 86 80 99 80 76 7e 69
       0.1733913 0.03467826 0.10403478 -0.5201739 -0.41613913 -1.0287884 0.1155942 0.0577971 -0.04623768 0.06935652 0.0 0.28898552 0.0 -0.1155942 -0.02311884 -0.26586667

DS-CNN/conv_ds_4/pw_conv/weights_quant/FakeQuantWithMinMaxVars u1 [64, 1, 1, 64] scale=0.0055282386 zero_point=128
000000 7e 5e 91 3f 74 5e 46 63 8f d3 94 85 8e 64 8e 9f
       -0.011056477 -0.18796012 0.09398006 -0.3593355 -0.06633887 -0.18796012 -0.32063785 -0.16031893 0.082923576 0.4588438 0.11056477 0.027641192 0.07739534 -0.15479068 0.07739534 0.1713754
000010 9d 87 3a 85 7b 6f 75 b1 82 72 59 a8 3c ac 81 69
       0.16031893 0.03869767 -0.3869767 0.027641192 -0.027641192 -0.09398006 -0.060810626 0.27088368 0.011056477 -0.07739534 -0.21560131 0.22112954 -0.37592024 0.2432425 0.0055282386 -0.12714949
000020 61 a7 6c 70 3f 83 51 6d 98 83 9a 66 81 5b 3f 65
       -0.1713754 0.21560131 -0.11056477 -0.08845182 -0.3593355 0.016584717 -0.25982723 -0.105036534 0.13267773 0.016584717 0.1437342 -0.1437342 0.0055282386 -0.20454483 -0.3593355 -0.14926244
000030 4b b6 59 b0 56 8d 9e 7e 64 60 61 4c 8f 4e b0 ab
       -0.29299664 0.2985249 -0.21560131 0.26535547 -0.23218602 0.0718671 0.16584715 -0.011056477 -0.15479068 -0.17690364 -0.1713754 -0.2874684 0.082923576 -0.27641192 0.26535547 0.23771426
000040 83 ae 8a af a4 6b 69 68 6b a3 97 68 7a 40 58 bc
       0.016584717 0.25429899 0.055282384 0.25982723 0.19901659 -0.11609301 -0.12714949 -0.13267773 -0.11609301 0.19348834 0.12714949 -0.13267773 -0.033169433 -0.35380727 -0.22112954 0.3316943
000050 7d 87 5c 85 79 22 90 84 89 83 90 9a 77 80 4b 51
       -0.016584717 0.03869767 -0.19901659 0.027641192 -0.03869767 -0.51965445 0.08845182 0.022112954 0.049754146 0.016584717 0.08845182 0.1437342 -0.049754146 0.0 -0.29299664 -0.25982723
000060 9d c2 4a 91 43 8f b5 a2 91 8f cd 78 52 90 74 8a
       0.16031893 0.36486375 -0.2985249 0.09398006 -0.33722255 0.082923576 0.29299664 0.18796012 0.09398006 0.082923576 0.42567438 -0.04422591 -0.25429899 0.08845182 -0.06633887 0.055282384
000070 92 86 96 7d 90 66 7e 6a 8b 75 85 65 96 76 61 67
       0.09950829 0.033169433 0.12162125 -0.016584717 0.08845182 -0.1437342 -0.011056477 -0.12162125 0.060810626 -0.060810626 0.027641192 -0.14926244 0.12162125 -0.055282384 -0.1713754 -0.13820596
000080 95 6e 68 6d 75 6b 48 c0 5b 8a 88 65 77 34 3c a6
       0.11609301 -0.09950829 -0.13267773 -0.105036534 -0.060810626 -0.11609301 -0.30958137 0.35380727 -0.20454483 0.055282384 0.04422591 -0.14926244 -0.049754146 -0.42014614 -0.37592024 0.21007307
000090 de 51 70 3c 8d 01 8d aa 61 57 37 94 79 b3 96 86
       0.51965445 -0.25982723 -0.08845182 -0.37592024 0.0718671 -0.7020863 0.0718671 0.23218602 -0.1713754 -0.22665778 -0.4035614 0.11056477 -0.03869767 0.28194016 0.12162125 0.033169433
0000a0 98 68 56 a6 8e 9b 7a 97 43 bb 88 4b 65 72 7a 84
       0.13267773 -0.13267773 -0.23218602 0.21007307 0.07739534 0.14926244 -0.033169433 0.12714949 -0.33722255 0.32616606 0.04422591 -0.29299664 -0.14926244 -0.07739534 -0.033169433 0.022112954
0000b0 43 a1 9c b2 97 74 a4 83 9f d3 85 6b 6c 70 43 dd
       -0.33722255 0.18243188 0.15479068 0.27641192 0.12714949 -0.06633887 0.19901659 0.016584717 0.1713754 0.4588438 0.027641192 -0.11609301 -0.11056477 -0.08845182 -0.33722255 0.5141262
0000c0 7c 80 76 96 98 55 70 72 61 8c a6 53 ae e7 7d 9e
       -0.022112954 0.0 -0.055282384 0.12162125 0.13267773 -0.23771426 -0.08845182 -0.07739534 -0.1713754 0.06633887 0.21007307 -0.24877074 0.25429899 0.5694086 -0.016584717 0.16584715
0000d0 79 a4 60 9e ae 4b 9d 5f 8a 92 92 60 73 65 2f 51
       -0.03869767 0.19901659 -0.17690364 0.16584715 0.25429899 -0.29299664 0.16031893 -0.18243188 0.055282384 0.09950829 0.09950829 -0.17690364 -0.0718671 -0.14926244 -0.4477873 -0.25982723
0000e0 ac 8d 91 84 51 b1 7d 80 8b af 72 a2 84 70 70 65
       0.2432425 0.0718671 0.09398006 0.022112954 -0.25982723 0.27088368 -0.016584717 0.0 0.060810626 0.25982723 -0.07739534 0.18796012 0.022112954 -0.08845182 -0.08845182 -0.14926244
0000f0 59 65 67 64 a9 77 8f a2 7c 98 c4 83 7b 88 8e c0
       -0.21560131 -0.14926244 -0.13820596 -0.15479068 0.22665778 -0.049754146 0.082923576 0.18796012 -0.022112954 0.13267773 0.37592024 0.016584717 -0.027641192 0.04422591 0.07739534 0.35380727

DS-CNN/fc1/weights_quant/FakeQuantWithMinMaxVars/transpose u1 [12, 64] scale=0.0053401 zero_point=128
000000 31 06 b9 b7 17 6a c5 19 25 06 1c 79 65 54 05 26
       -0.42186788 -0.6514922 0.3043857 0.2937055 -0.5607105 -0.11748219 0.36846688 -0.5500303 -0.48594907 -0.6514922 -0.53401 -0.0373807 -0.1441827 -0.23496439 -0.6568323 -0.48060897
000010 f8 50 15 0f 1f 3a 4a cc 1b 06 24 31 17 2b 1f 50
       0.640812 -0.2563248 -0.5713907 -0.6034313 -0.5179897 -0.37380698 -0.2883654 0.40584758 -0.5393501 -0.6514922 -0.49128917 -0.42186788 -0.5607105 -0.45390847 -0.5179897 -0.2563248
000020 d8 57 cb 22 29 d5 49 5f 0c ff c4 0c 12 0a 46 56
       0.46992877 -0.21894409 0.40050748 -0.5019694 -0.46458867 0.45390847 -0.2937055 -0.1762233 -0.6194516 0.6781927 0.36312678 -0.6194516 -0.587411 -0.6301318 -0.3097258 -0.22428419
000030 22 c0 44 91 3f 27 1b 89 d0 f1 1d d0 2e 2f 48 c9
       -0.5019694 0.3417664 -0.320406 0.090781696 -0.3471065 -0.47526887 -0.5393501 0.048060898 0.42720798 0.6034313 -0.5286699 0.42720798 -0.43788818 -0.43254808 -0.2990456 0.38982728
000040 47 87 3e 99 7f 75 89 3a b7 4d 4a 38 b8 da b1 df
       -0.3043857 0.0373807 -0.3524466 0.1335025 -0.0053401 -0.058741096 0.048060898 -0.37380698 0.2937055 -0.2723451 -0.2883654 -0.38448718 0.2990456 0.48060897 0.2616649 0.5073095
000050 a0 cb 78 67 58 c7 73 be 5b b7 88 d5 e3 42 82 c0
       0.1708832 0.40050748 -0.0427208 -0.1335025 -0.21360399 0.37914708 -0.0694213 0.3310862 -0.19758369 0.2937055 0.0427208 0.45390847 0.5286699 -0.3310862 0.0106802 0.3417664
000060 63 51 b9 98 44 dc be b9 56 65 2e 5a 74 c1 6b 3e
       -0.1548629 -0.2509847 0.3043857 0.1281624 -0.320406 0.49128917 0.3310862 0.3043857 -0.22428419 -0.1441827 -0.43788818 -0.20292379 -0.0640812 0.3471065 -0.11214209 -0.3524466
000070 6f 57 86 88 6a 75 87 77 46 77 36 67 83 c3 64 43
       -0.090781696 -0.21894409 0.0320406 0.0427208 -0.11748219 -0.058741096 0.0373807 -0.048060898 -0.3097258 -0.048060898 -0.39516738 -0.1335025 0.0160203 0.3577867 -0.1495228 -0.3257461
000080 d0 32 91 20 28 4d eb 5e ea 2c a3 e1 48 dc 33 44
       0.42720798 -0.41652778 0.090781696 -0.5126496 -0.46992877 -0.2723451 0.5713907 -0.18156339 0.5660506 -0.44856837 0.18690349 0.5179897 -0.2990456 0.49128917 -0.41118768 -0.320406
000090 8d 71 22 37 39 ad 19 73 97 e4 45 77 4a a3 76 39
       0.0694213 -0.0801015 -0.5019694 -0.38982728 -0.37914708 0.24030448 -0.5500303 -0.0694213 0.12282229 0.53401 -0.3150659 -0.048060898 -0.2883654 0.18690349 -0.053400997 -0.37914708
0000a0 2f 7a 77 87 c6 94 de 46 ef 46 87 4a 5d d6 4b 22
       -0.43254808 -0.0320406 -0.048060898 0.0373807 0.37380698 0.106801994 0.5019694 -0.3097258 0.5927511 -0.3097258 0.0373807 -0.2883654 -0.18690349 0.45924857 -0.2830253 -0.5019694
0000b0 b5 d2 24 d8 13 f5 3e 63 24 c3 32 50 27 5f 30 a3
       0.2830253 0.43788818 -0.49128917 0.46992877 -0.5820709 0.6247917 -0.3524466 -0.1548629 -0.49128917 0.3577867 -0.41652778 -0.2563248 -0.47526887 -0.1762233 -0.42720798 0.18690349
0000c0 4f 9d 54 5d b7 ee 70 d4 b8 b3 64 56 2c 57 a2 1a
       -0.2616649 0.1548629 -0.23496439 -0.18690349 0.2937055 0.587411 -0.0854416 0.44856837 0.2990456 0.2723451 -0.1495228 -0.22428419 -0.44856837 -0.21894409 0.18156339 -0.5446902
0000d0 ae 41 b1 b0 aa 33 22 33 48 b9 45 9a 8c 50 c1 78
       0.24564458 -0.3364263 0.2616649 0.2563248 0.22428419 -0.41118768 -0.5019694 -0.41118768 -0.2990456 0.3043857 -0.3150659 0.1388426 0.0640812 -0.2563248 0.3471065 -0.0427208
0000e0 3e e8 3c a3 1b cc 93 3e d6 65 d0 3a 72 ce 26 5b
       -0.3524466 0.5553704 -0.36312678 0.18690349 -0.5393501 0.40584758 0.101461895 -0.3524466 0.45924857 -0.1441827 0.42720798 -0.37380698 -0.0747614 0.41652778 -0.48060897 -0.19758369
0000f0 5a 40 4a 2d 4f 9c c6 39 50 c2 70 5e 98 40 7c 1e
       -0.20292379 -0.3417664 -0.2883654 -0.44322827 -0.2616649 0.1495228 0.37380698 -0.37914708 -0.2563248 0.3524466 -0.0854416 -0.18156339 0.1281624 -0.3417664 -0.0213604 -0.5233298
