nn_menu/starters/keyword_spotting/model/KWS_ds_cnn_l_quant_power.tflite (tflite, 427432 bytes, 12 tensors)

DS-CNN/conv_1/weights_quant/FakeQuantWithMinMaxVars u1 [276, 10, 4, 1] scale=0.0009996849 zero_point=128
000000 90 81 8a 78 8b 79 8d 7d 8a 75 8b 78 80 78 87 6f
       0.015994959 0.0009996849 0.009996849 -0.007997479 0.010996534 -0.0069977944 0.012995904 -0.0029990547 0.009996849 -0.010996534 0.010996534 -0.007997479 0.0 -0.007997479 0.0069977944 -0.016994644
000010 7e 93 87 64 78 8c 82 72 70 93 87 74 72 87 7e 8c
       -0.0019993698 0.018994013 0.0069977944 -0.027991178 -0.007997479 0.011996219 0.0019993698 -0.013995589 -0.015994959 0.018994013 0.0069977944 -0.011996219 -0.013995589 0.0069977944 -0.0019993698 0.011996219
000020 79 81 73 83 79 82 74 87 80 8b 99 7e 7b 85 9e 7c
       -0.0069977944 0.0009996849 -0.012995904 0.0029990547 -0.0069977944 0.0019993698 -0.011996219 0.0069977944 0.0 0.010996534 0.024992123 -0.0019993698 -0.0049984246 0.0049984246 0.029990546 -0.0039987396
000030 77 81 93 81 7c 84 83 80 78 79 85 7c 83 84 8a 7b
       -0.008997165 0.0009996849 0.018994013 0.0009996849 -0.0039987396 0.0039987396 0.0029990547 0.0 -0.007997479 -0.0069977944 0.0049984246 -0.0039987396 0.0029990547 0.0039987396 0.009996849 -0.0049984246
000040 82 8a 82 72 87 8c 77 82 8f 85 6b 86 8c 86 67 85
       0.0019993698 0.009996849 0.0019993698 -0.013995589 0.0069977944 0.011996219 -0.008997165 0.0019993698 0.014995273 0.0049984246 -0.020993384 0.0059981095 0.011996219 0.0059981095 -0.024992123 0.0049984246
000050 7d 7c 7c 75 7a 7d 79 75 7e 7d 7b 7b 80 83 7b 7a
       -0.0029990547 -0.0039987396 -0.0039987396 -0.010996534 -0.0059981095 -0.0029990547 -0.0069977944 -0.010996534 -0.0019993698 -0.0029990547 -0.0049984246 -0.0049984246 0.0 0.0029990547 -0.0049984246 -0.0059981095
000060 82 89 7c 77 85 87 7e 7b 87 8c 7c 79 87 8b 79 75
       0.0019993698 0.008997165 -0.0039987396 -0.008997165 0.0049984246 0.0069977944 -0.0019993698 -0.0049984246 0.0069977944 0.011996219 -0.0039987396 -0.0069977944 0.0069977944 0.010996534 -0.0069977944 -0.010996534
000070 87 86 7b 79 84 82 7a 7b 93 77 7b 92 8c 7f 77 9f
       0.0069977944 0.0059981095 -0.0049984246 -0.0069977944 0.0039987396 0.0019993698 -0.0059981095 -0.0049984246 0.018994013 -0.008997165 -0.0049984246 0.01799433 0.011996219 -0.0009996849 -0.008997165 0.030990232
000080 91 8e 82 a4 8d 89 8f 9f 89 80 8f 8d 86 7d 8c 93
       0.016994644 0.013995589 0.0019993698 0.03598866 0.012995904 0.008997165 0.014995273 0.030990232 0.008997165 0.0 0.014995273 0.012995904 0.0059981095 -0.0029990547 0.011996219 0.018994013
000090 75 65 9b 8d 76 74 85 75 5f 87 77 75 67 95 75 74
       -0.010996534 -0.026991492 0.026991492 0.012995904 -0.009996849 -0.011996219 0.0049984246 -0.010996534 -0.032989603 0.0069977944 -0.008997165 -0.010996534 -0.024992123 0.020993384 -0.010996534 -0.011996219
0000a0 86 7f 7d 83 82 7c 73 84 82 85 78 83 8a 91 73 7c
       0.0059981095 -0.0009996849 -0.0029990547 0.0029990547 0.0019993698 -0.0039987396 -0.012995904 0.0039987396 0.0019993698 0.0049984246 -0.007997479 0.0029990547 0.009996849 0.016994644 -0.012995904 -0.0039987396
0000b0 87 95 68 7b 7e 88 72 71 7e 81 7a 75 7f 7c 86 83
       0.0069977944 0.020993384 -0.023992438 -0.0049984246 -0.0019993698 0.007997479 -0.013995589 -0.014995273 -0.0019993698 0.0009996849 -0.0059981095 -0.010996534 -0.0009996849 -0.0039987396 0.0059981095 0.0029990547
0000c0 86 78 89 83 86 80 89 83 7f 7d 82 80 83 7c 82 81
       0.0059981095 -0.007997479 0.008997165 0.0029990547 0.0059981095 0.0 0.008997165 0.0029990547 -0.0009996849 -0.0029990547 0.0019993698 0.0 0.0029990547 -0.0039987396 0.0019993698 0.0009996849
0000d0 84 7e 80 85 86 81 80 86 81 7c 7e 8b 7e 72 81 86
       0.0039987396 -0.0019993698 0.0 0.0049984246 0.0059981095 0.0009996849 0.0 0.0059981095 0.0009996849 -0.0039987396 -0.0019993698 0.010996534 -0.0019993698 -0.013995589 0.0009996849 0.0059981095
0000e0 7c 6a 7c 7e 83 7d 7c 81 84 84 7e 82 82 80 7f 84
       -0.0039987396 -0.021993067 -0.0039987396 -0.0019993698 0.0029990547 -0.0029990547 -0.0039987396 0.0009996849 0.0039987396 0.0039987396 -0.0019993698 0.0019993698 0.0019993698 0.0 -0.0009996849 0.0039987396
0000f0 7f 81 7f 83 7e 82 7e 7c 7e 81 7f 7b 7d 83 7f 78
       -0.0009996849 0.0009996849 -0.0009996849 0.0029990547 -0.0019993698 0.0019993698 -0.0019993698 -0.0039987396 -0.0019993698 0.0009996849 -0.0009996849 -0.0049984246 -0.0029990547 0.0029990547 -0.0009996849 -0.007997479

DS-CNN/conv_ds_1/dw_conv/weights_quant/FakeQuantWithMinMaxVars u1 [1, 3, 3, 276] scale=0.036756005 zero_point=128
000000 94 a0 82 7e 83 6e 7e 7f 68 7d 85 68 a4 8c 76 7e
       0.7351201 1.1761922 0.07351201 -0.07351201 0.11026801 -0.6616081 -0.07351201 -0.036756005 -0.8821441 -0.11026801 0.18378003 -0.8821441 1.3232162 0.44107205 -0.36756006 -0.07351201
000010 7c 8f 7c 67 74 76 94 81 59 86 72 6e 85 7d a1 79
       -0.14702402 0.5513401 -0.14702402 -0.91890013 -0.44107205 -0.36756006 0.7351201 0.036756005 -1.4334842 0.22053602 -0.51458406 -0.6616081 0.18378003 -0.11026801 1.2129482 -0.25729203
000020 8f 97 75 89 92 8c 5a 9f 65 7a 7d 71 81 8f 83 7c
       0.5513401 0.8453881 -0.40431607 0.33080405 0.6616081 0.44107205 -1.3967282 1.1394361 -0.99241215 -0.22053602 -0.11026801 -0.5513401 0.036756005 0.5513401 0.11026801 -0.14702402
000030 78 80 70 96 8d 87 73 71 6b 98 7c 70 7c 87 6a 7a
       -0.29404804 0.0 -0.5880961 0.80863214 0.47782806 0.25729203 -0.47782806 -0.5513401 -0.7718761 0.8821441 -0.14702402 -0.5880961 -0.14702402 0.25729203 -0.80863214 -0.22053602
000040 7b 8f 8b 86 8e 8a 79 8f 8a 80 83 73 92 57 79 6c
       -0.18378003 0.5513401 0.40431607 0.22053602 0.51458406 0.36756006 -0.25729203 0.5513401 0.36756006 0.0 0.11026801 -0.47782806 0.6616081 -1.5069962 -0.25729203 -0.7351201
000050 96 74 7b b6 8f 60 83 78 7d 7d 95 6e 7a 82 89 78
       0.80863214 -0.44107205 -0.18378003 1.9848243 0.5513401 -1.1761922 0.11026801 -0.29404804 -0.11026801 -0.11026801 0.7718761 -0.6616081 -0.22053602 0.07351201 0.33080405 -0.29404804
000060 86 7d 6c 75 75 6b ac 6c 58 a7 67 79 94 a6 6a 6e
       0.22053602 -0.11026801 -0.7351201 -0.40431607 -0.40431607 -0.7718761 1.6172643 -0.7351201 -1.4702402 1.4334842 -0.91890013 -0.25729203 0.7351201 1.3967282 -0.80863214 -0.6616081
000070 a9 77 7d 86 92 9f 7f a6 64 96 75 88 96 7d 73 87
       1.5069962 -0.33080405 -0.11026801 0.22053602 0.6616081 1.1394361 -0.036756005 1.3967282 -1.0291681 0.80863214 -0.40431607 0.29404804 0.80863214 -0.11026801 -0.47782806 0.25729203
000080 81 5b 6e 76 95 80 94 7b 83 66 97 5e 7f 7e 81 62
       0.036756005 -1.3599722 -0.6616081 -0.36756006 0.7718761 0.0 0.7351201 -0.18378003 0.11026801 -0.9556561 0.8453881 -1.2497041 -0.036756005 -0.07351201 0.036756005 -1.1026802
000090 8c 71 6d 70 74 73 b9 75 70 74 67 93 6b 6f 81 8d
       0.44107205 -0.5513401 -0.6983641 -0.5880961 -0.44107205 -0.47782806 2.0950923 -0.40431607 -0.5880961 -0.44107205 -0.91890013 0.6983641 -0.7718761 -0.62485206 0.036756005 0.47782806
0000a0 9e 9b 87 71 86 5b 72 92 77 83 6f 7f 69 67 87 84
       1.1026802 0.99241215 0.25729203 -0.5513401 0.22053602 -1.3599722 -0.51458406 0.6616081 -0.33080405 0.11026801 -0.62485206 -0.036756005 -0.8453881 -0.91890013 0.25729203 0.14702402
0000b0 9f 68 7e 5c 99 88 8d 7b 5f 95 7c 76 88 8c 7e a6
       1.1394361 -0.8821441 -0.07351201 -1.3232162 0.91890013 0.29404804 0.47782806 -0.18378003 -1.2129482 0.7718761 -0.14702402 -0.36756006 0.29404804 0.44107205 -0.07351201 1.3967282
0000c0 8e 86 91 5d 76 6e 6a 9c 85 76 ad b2 80 7b be 78
       0.51458406 0.22053602 0.62485206 -1.2864602 -0.36756006 -0.6616081 -0.80863214 1.0291681 0.18378003 -0.36756006 1.6540202 1.8378003 0.0 -0.18378003 2.2788723 -0.29404804
0000d0 7b 77 92 8f 68 70 7c 85 99 83 81 8f 77 6a 85 98
       -0.18378003 -0.33080405 0.6616081 0.5513401 -0.8821441 -0.5880961 -0.14702402 0.18378003 0.91890013 0.11026801 0.036756005 0.5513401 -0.33080405 -0.80863214 0.18378003 0.8821441
0000e0 8d 8b 9e 99 96 61 94 81 65 88 8d 6f 6b 75 7b 80
       0.47782806 0.40431607 1.1026802 0.91890013 0.80863214 -1.1394361 0.7351201 0.036756005 -0.99241215 0.29404804 0.47782806 -0.62485206 -0.7718761 -0.40431607 -0.18378003 0.0
0000f0 89 5a 75 6d 89 a1 78 6b 96 7b 5f 7c 8c 75 7f 69
       0.33080405 -1.3967282 -0.40431607 -0.6983641 0.33080405 1.2129482 -0.29404804 -0.7718761 0.80863214 -0.18378003 -1.2129482 -0.14702402 0.44107205 -0.40431607 -0.036756005 -0.8453881

DS-CNN/conv_ds_1/pw_conv/weights_quant/FakeQuantWithMinMaxVars u1 [276, 1, 1, 276] scale=0.0028999918 zero_point=128
000000 6a 92 8e 96 6e 86 7f 91 ae 94 8f 99 9d 7f 64 83
       -0.06379982 0.05219985 0.040599886 0.06379982 -0.05219985 0.017399952 -0.0028999918 0.049299862 0.13339962 0.057999834 0.043499876 0.0724998 0.08409976 -0.0028999918 -0.08119977 0.008699976
000010 64 9b 6d 9d 95 95 96 9c 81 80 96 6c 88 58 89 8a
       -0.08119977 0.078299776 -0.055099845 0.08409976 0.060899828 0.060899828 0.06379982 0.08119977 0.0028999918 0.0 0.06379982 -0.057999834 0.023199935 -0.11599967 0.026099926 0.028999917
000020 a2 a3 96 75 a3 83 a6 93 7e 7b 63 86 94 77 65 a2
       0.098599724 0.101499714 0.06379982 -0.03189991 0.101499714 0.008699976 0.11019969 0.055099845 -0.0057999836 -0.014499959 -0.08409976 0.017399952 0.057999834 -0.026099926 -0.078299776 0.098599724
000030 74 69 8c 99 94 84 91 73 5a 80 62 58 95 71 a3 8b
       -0.034799904 -0.06669981 0.034799904 0.0724998 0.057999834 0.011599967 0.049299862 -0.037699893 -0.11019969 0.0 -0.08699975 -0.11599967 0.060899828 -0.043499876 0.101499714 0.03189991
000040 88 6f 93 91 ad 8c 67 82 68 88 88 86 86 86 7e a0
       0.023199935 -0.049299862 0.055099845 0.049299862 0.13049963 0.034799904 -0.0724998 0.0057999836 -0.06959981 0.023199935 0.023199935 0.017399952 0.017399952 0.017399952 -0.0057999836 0.09279974
000050 88 6e 80 86 8a a7 76 70 9c 64 8b 76 9c 98 6a 6c
       0.023199935 -0.05219985 0.0 0.017399952 0.028999917 0.11309968 -0.028999917 -0.04639987 0.08119977 -0.08119977 0.03189991 -0.028999917 0.08119977 0.06959981 -0.06379982 -0.057999834
000060 9b 73 6d ba 6f 86 84 8a 73 a9 8a 7a a0 74 72 66
       0.078299776 -0.037699893 -0.055099845 0.16819952 -0.049299862 0.017399952 0.011599967 0.028999917 -0.037699893 0.118899666 0.028999917 -0.017399952 0.09279974 -0.034799904 -0.040599886 -0.075399786
000070 96 8c 73 7d 8b 91 68 ac 9d 77 75 79 5f 83 89 81
       0.06379982 0.034799904 -0.037699893 -0.008699976 0.03189991 0.049299862 -0.06959981 0.12759964 0.08409976 -0.026099926 -0.03189991 -0.020299943 -0.09569973 0.008699976 0.026099926 0.0028999918
000080 67 68 a6 7e a2 93 7d 80 59 9e 68 63 87 6d 8b 9e
       -0.0724998 -0.06959981 0.11019969 -0.0057999836 0.098599724 0.055099845 -0.008699976 0.0 -0.11309968 0.08699975 -0.06959981 -0.08409976 0.020299943 -0.055099845 0.03189991 0.08699975
000090 6a 99 8b 7b 97 62 76 86 7c 88 63 5e a2 7d 6f 72
       -0.06379982 0.0724998 0.03189991 -0.014499959 0.06669981 -0.08699975 -0.028999917 0.017399952 -0.011599967 0.023199935 -0.08409976 -0.098599724 0.098599724 -0.008699976 -0.049299862 -0.040599886
0000a0 82 89 79 a2 5f 94 99 5b 96 91 71 85 a1 67 9a 5c
       0.0057999836 0.026099926 -0.020299943 0.098599724 -0.09569973 0.057999834 0.0724998 -0.1072997 0.06379982 0.049299862 -0.043499876 0.014499959 0.09569973 -0.0724998 0.075399786 -0.1043997
0000b0 be 93 8c 7e 5c 6e 65 56 98 77 77 92 62 6a 9e 92
       0.1797995 0.055099845 0.034799904 -0.0057999836 -0.1043997 -0.05219985 -0.078299776 -0.121799655 0.06959981 -0.026099926 -0.026099926 0.05219985 -0.08699975 -0.06379982 0.08699975 0.05219985
0000c0 5a 7c 8d 7e 72 85 6b 72 5a 5f a3 7b 60 73 6b 68
       -0.11019969 -0.011599967 0.037699893 -0.0057999836 -0.040599886 0.014499959 -0.060899828 -0.040599886 -0.11019969 -0.09569973 0.101499714 -0.014499959 -0.09279974 -0.037699893 -0.060899828 -0.06959981
0000d0 84 8d 6f 72 85 84 7a 8e 8f 6f 90 7b 8b 89 89 a9
       0.011599967 0.037699893 -0.049299862 -0.040599886 0.014499959 0.011599967 -0.017399952 0.040599886 0.043499876 -0.049299862 0.04639987 -0.014499959 0.03189991 0.026099926 0.026099926 0.118899666
0000e0 98 73 88 6e 9c 71 7f 5f 8d 79 90 7c 65 4f 74 86
       0.06959981 -0.037699893 0.023199935 -0.05219985 0.08119977 -0.043499876 -0.0028999918 -0.09569973 0.037699893 -0.020299943 0.04639987 -0.011599967 -0.078299776 -0.1420996 -0.034799904 0.017399952
0000f0 65 82 66 88 55 8d 75 82 9e 81 75 78 8d 97 74 5c
       -0.078299776 0.0057999836 -0.075399786 0.023199935 -0.124699645 0.037699893 -0.03189991 0.0057999836 0.08699975 0.0028999918 -0.03189991 -0.023199935 0.037699893 0.06669981 -0.034799904 -0.1043997

DS-CNN/conv_ds_2/dw_conv/weights_quant/FakeQuantWithMinMaxVars u1 [1, 3, 3, 276] scale=0.018915739 zero_point=128
000000 a4 7d a8 74 c2 a7 63 4c 7d 6b 59 b8 8f 43 c0 81
       0.6809666 -0.056747217 0.7566296 -0.22698887 1.2484387 0.7377138 -0.54855645 -0.98361844 -0.056747217 -0.3972305 -0.7377138 1.0592813 0.28373608 -1.1538601 1.2106073 0.018915739
000010 77 a7 72 b0 df 49 72 32 8a af 62 73 b8 44 8e ad
       -0.17024165 0.7377138 -0.26482034 0.90795547 1.7969952 -1.0403657 -0.26482034 -1.4754276 0.1891574 0.88903975 -0.56747216 -0.24590461 1.0592813 -1.1349443 0.26482034 0.85120827
000020 a8 5e 88 85 6a 53 4a 6a 6b 91 5e 71 61 8e 59 86
       0.7566296 -0.64313513 0.15132591 0.0945787 -0.41614625 -0.85120827 -1.0214499 -0.41614625 -0.3972305 0.32156757 -0.64313513 -0.28373608 -0.58638793 0.26482034 -0.7377138 0.11349443
000030 83 61 8b ab b9 6a 42 49 97 58 b5 8a a8 60 77 66
       0.056747217 -0.58638793 0.20807312 0.8133768 1.0781971 -0.41614625 -1.1727759 -1.0403657 0.435062 -0.7566296 1.0025342 0.1891574 0.7566296 -0.60530365 -0.17024165 -0.49180922
000040 73 87 69 6e 60 65 73 72 a5 94 6d ab 81 61 70 26
       -0.24590461 0.13241017 -0.435062 -0.3404833 -0.60530365 -0.51072496 -0.24590461 -0.26482034 0.6998823 0.3783148 -0.35939905 0.8133768 0.018915739 -0.58638793 -0.30265182 -1.7024165
000050 7b 8b d1 bc 95 6c 58 c0 99 73 49 8f a3 84 7b 67
       -0.0945787 0.20807312 1.5321748 1.1349443 0.3972305 -0.3783148 -0.7566296 1.2106073 0.47289348 -0.24590461 -1.0403657 0.28373608 0.66205084 0.075662956 -0.0945787 -0.47289348
000060 4f 87 43 73 63 81 84 60 6a 52 b9 66 c9 6a 79 a8
       -0.9268712 0.13241017 -1.1538601 -0.24590461 -0.54855645 0.018915739 0.075662956 -0.60530365 -0.41614625 -0.870124 1.0781971 -0.49180922 1.3808489 -0.41614625 -0.13241017 0.7566296
000070 86 a4 6a a9 b9 9d 69 a0 eb a6 91 6a 7d a2 67 b7
       0.11349443 0.6809666 -0.41614625 0.7755453 1.0781971 0.54855645 -0.435062 0.60530365 2.023984 0.7187981 0.32156757 -0.41614625 -0.056747217 0.64313513 -0.47289348 1.0403657
000080 47 8f 78 5b 70 81 93 48 88 72 7b 77 6d a9 3d a9
       -1.0781971 0.28373608 -0.15132591 -0.6998823 -0.30265182 0.018915739 0.35939905 -1.0592813 0.15132591 -0.26482034 -0.0945787 -0.17024165 -0.35939905 0.7755453 -1.2673545 0.7755453
000090 5c 01 98 6e a3 b4 54 73 71 6d a6 87 98 70 6c 61
       -0.6809666 -2.402299 0.45397773 -0.3404833 0.66205084 0.98361844 -0.8322925 -0.24590461 -0.28373608 -0.35939905 0.7187981 0.13241017 0.45397773 -0.30265182 -0.3783148 -0.58638793
0000a0 5c 3b 65 80 66 5a 70 92 56 54 64 59 65 af d4 72
       -0.6809666 -1.305186 -0.51072496 0.0 -0.49180922 -0.7187981 -0.30265182 0.3404833 -0.794461 -0.8322925 -0.5296407 -0.7377138 -0.51072496 0.88903975 1.588922 -0.26482034
0000b0 2a b1 5b 85 4b 66 9b 79 68 62 56 7c 7e 89 77 92
       -1.6267536 0.9268712 -0.6998823 0.0945787 -1.0025342 -0.49180922 0.51072496 -0.13241017 -0.45397773 -0.56747216 -0.794461 -0.075662956 -0.037831478 0.17024165 -0.17024165 0.3404833
0000c0 86 a7 67 78 9a 78 56 75 9f 87 9a 7b 83 5e 4c b8
       0.11349443 0.7377138 -0.47289348 -0.15132591 0.49180922 -0.15132591 -0.794461 -0.20807312 0.58638793 0.13241017 0.49180922 -0.0945787 0.056747217 -0.64313513 -0.98361844 1.0592813
0000d0 35 83 9e 7c 6e 68 4b 67 7b 66 ac 99 71 84 8d 69
       -1.4186804 0.056747217 0.56747216 -0.075662956 -0.3404833 -0.45397773 -1.0025342 -0.47289348 -0.0945787 -0.49180922 0.8322925 0.47289348 -0.28373608 0.075662956 0.24590461 -0.435062
0000e0 5e a3 47 4f 89 dc 6c 46 ab 74 7c 88 8c 5e 95 56
       -0.64313513 0.66205084 -1.0781971 -0.9268712 0.17024165 1.740248 -0.3783148 -1.0971129 0.8133768 -0.22698887 -0.075662956 0.15132591 0.22698887 -0.64313513 0.3972305 -0.794461
0000f0 8d 7d 6c a5 66 60 76 95 91 80 86 5b cd a4 4a 83
       0.24590461 -0.056747217 -0.3783148 0.6998823 -0.49180922 -0.60530365 -0.1891574 0.3972305 0.32156757 0.0 0.11349443 -0.6998823 1.4565119 0.6809666 -1.0214499 0.056747217

DS-CNN/conv_ds_2/pw_conv/weights_quant/FakeQuantWithMinMaxVars u1 [276, 1, 1, 276] scale=0.0026462397 zero_point=128
000000 6f 8d 79 9d 70 6a 6d 7e 59 a5 41 65 39 64 5e 5a
       -0.044986077 0.034401115 -0.018523678 0.07674095 -0.042339835 -0.058217272 -0.050278556 -0.0052924794 -0.10320335 0.097910866 -0.1667131 -0.071448475 -0.18788302 -0.07409471 -0.08997215 -0.10055711
000010 70 82 6d 62 48 a0 a3 7b 4b a3 b4 6c 7d 7a 41 77
       -0.042339835 0.0052924794 -0.050278556 -0.07938719 -0.14818943 0.08467967 0.09261839 -0.013231198 -0.1402507 0.09261839 0.13760446 -0.052924793 -0.007938719 -0.015877439 -0.1667131 -0.023816157
000020 a5 90 84 58 9f b1 5d b7 af 88 74 79 8b 92 82 72
       0.097910866 0.042339835 0.010584959 -0.10584959 0.08203343 0.12966575 -0.09261839 0.14554319 0.124373265 0.021169918 -0.031754877 -0.018523678 0.029108636 0.047632314 0.0052924794 -0.037047356
000030 48 8b 81 58 6a a3 63 92 89 8d b0 70 a9 9d b1 92
       -0.14818943 0.029108636 0.0026462397 -0.10584959 -0.058217272 0.09261839 -0.07674095 0.047632314 0.023816157 0.034401115 0.12701951 -0.042339835 0.10849583 0.07674095 0.12966575 0.047632314
000040 3a 9c 67 9b 9a 85 6c 78 71 a8 68 7d 60 8e 9f 88
       -0.18523678 0.07409471 -0.06615599 0.071448475 0.06880223 0.013231198 -0.052924793 -0.021169918 -0.039693594 0.10584959 -0.063509755 -0.007938719 -0.08467967 0.037047356 0.08203343 0.021169918
000050 8c 45 91 a8 7c 5d 57 83 65 c4 ae 9d af 62 8c 90
       0.031754877 -0.15612814 0.044986077 0.10584959 -0.010584959 -0.09261839 -0.10849583 0.007938719 -0.071448475 0.1799443 0.12172703 0.07674095 0.124373265 -0.07938719 0.031754877 0.042339835
000060 69 72 bc 6a a3 67 ca 80 ad 3b 90 a8 96 8d 8e 93
       -0.060863513 -0.037047356 0.15877438 -0.058217272 0.09261839 -0.06615599 0.19582173 0.0 0.11908079 -0.18259054 0.042339835 0.10584959 0.058217272 0.034401115 0.037047356 0.050278556
000070 a0 88 b3 56 8c 95 64 5a 8b 84 79 63 62 7c 59 5f
       0.08467967 0.021169918 0.13495822 -0.11114207 0.031754877 0.055571035 -0.07409471 -0.10055711 0.029108636 0.010584959 -0.018523678 -0.07674095 -0.07938719 -0.010584959 -0.10320335 -0.08732591
000080 91 7d 98 9d 92 7b 83 93 5c 70 87 a6 69 45 69 7c
       0.044986077 -0.007938719 0.063509755 0.07674095 0.047632314 -0.013231198 0.007938719 0.050278556 -0.09526463 -0.042339835 0.018523678 0.10055711 -0.060863513 -0.15612814 -0.060863513 -0.010584959
000090 5d 5d 79 9b 61 63 6c 75 5c 92 85 4d 76 ae 8b 78
       -0.09261839 -0.09261839 -0.018523678 0.071448475 -0.08203343 -0.07674095 -0.052924793 -0.029108636 -0.09526463 0.047632314 0.013231198 -0.13495822 -0.026462397 0.12172703 0.029108636 -0.021169918
0000a0 58 93 7d 78 4e 8b 6c 79 6a af a3 7e 89 59 7f 8e
       -0.10584959 0.050278556 -0.007938719 -0.021169918 -0.13231198 0.029108636 -0.052924793 -0.018523678 -0.058217272 0.124373265 0.09261839 -0.0052924794 0.023816157 -0.10320335 -0.0026462397 0.037047356
0000b0 ae 8a a3 61 5f 69 ac 9e 81 66 88 66 81 97 6d 99
       0.12172703 0.026462397 0.09261839 -0.08203343 -0.08732591 -0.060863513 0.116434544 0.07938719 0.0026462397 -0.06880223 0.021169918 -0.06880223 0.0026462397 0.060863513 -0.050278556 0.06615599
0000c0 81 7c 93 a6 66 89 9f b0 b8 88 5c 55 be 80 a7 42
       0.0026462397 -0.010584959 0.050278556 0.10055711 -0.06880223 0.023816157 0.08203343 0.12701951 0.14818943 0.021169918 -0.09526463 -0.11378831 0.16406687 0.0 0.10320335 -0.16406687
0000d0 57 5c 74 70 93 83 87 96 d7 9b 8a ae 70 83 83 69
       -0.10849583 -0.09526463 -0.031754877 -0.042339835 0.050278556 0.007938719 0.018523678 0.058217272 0.23022285 0.071448475 0.026462397 0.12172703 -0.042339835 0.007938719 0.007938719 -0.060863513
0000e0 a7 85 84 94 4f 59 7c a3 7a 77 84 84 6f 62 81 62
       0.10320335 0.013231198 0.010584959 0.052924793 -0.12966575 -0.10320335 -0.010584959 0.09261839 -0.015877439 -0.023816157 0.010584959 0.010584959 -0.044986077 -0.07938719 0.0026462397 -0.07938719
0000f0 72 5f 49 74 a2 a3 90 8e 56 80 8f 83 7c 80 70 83
       -0.037047356 -0.08732591 -0.14554319 -0.031754877 0.08997215 0.09261839 0.042339835 0.037047356 -0.11114207 0.0 0.039693594 0.007938719 -0.010584959 0.0 -0.042339835 0.007938719

DS-CNN/conv_ds_3/dw_conv/weights_quant/FakeQuantWithMinMaxVars u1 [1, 3, 3, 276] scale=0.013961109 zero_point=128
000000 ad 70 4b 99 aa 66 88 b8 97 3a 7f 67 aa 9c 63 97
       0.62824994 -0.22337775 -0.7399388 0.34902772 0.5863666 -0.36298883 0.111688875 0.78182214 0.3211055 -0.97727764 -0.013961109 -0.34902772 0.5863666 0.39091107 -0.40487218 0.3211055
000010 5a 63 52 ad b7 54 7f ae 5e 7c 99 78 55 db af af
       -0.53052217 -0.40487218 -0.642211 0.62824994 0.767861 -0.6142888 -0.013961109 0.642211 -0.4746777 -0.055844437 0.34902772 -0.111688875 -0.60032773 1.270461 0.65617216 0.65617216
000020 a6 b6 89 5a b4 c5 9b b0 23 92 95 b9 56 5b 87 38
       0.53052217 0.75389993 0.12564999 -0.53052217 0.72597766 0.96331656 0.37694997 0.67013323 -1.2983831 0.25129998 0.2931833 0.7957832 -0.5863666 -0.51656103 0.09772777 -1.0051999
000030 68 ab 33 53 79 ec 7d ae 94 66 61 58 64 72 9b 5c
       -0.33506662 0.60032773 -1.0750054 -0.62824994 -0.09772777 1.5077999 -0.041883327 0.642211 0.2792222 -0.36298883 -0.4327944 -0.5584444 -0.39091107 -0.19545554 0.37694997 -0.50259995
000040 68 58 ab b4 a7 8b 4c 92 5c 4a 63 65 74 66 48 37
       -0.33506662 -0.5584444 0.60032773 0.72597766 0.54448324 0.1535722 -0.72597766 0.25129998 -0.50259995 -0.75389993 -0.40487218 -0.37694997 -0.16753331 -0.36298883 -0.78182214 -1.019161
000050 56 4f 6b 96 90 8b 57 a3 94 7f 87 b0 81 69 59 4a
       -0.5863666 -0.68409437 -0.2931833 0.3071444 0.22337775 0.1535722 -0.57240546 0.48863882 0.2792222 -0.013961109 0.09772777 0.67013323 0.013961109 -0.3211055 -0.54448324 -0.75389993
000060 b8 61 96 9c a1 90 68 8d 95 89 99 61 99 79 73 6f
       0.78182214 -0.4327944 0.3071444 0.39091107 0.4607166 0.22337775 -0.33506662 0.18149441 0.2931833 0.12564999 0.34902772 -0.4327944 0.34902772 -0.09772777 -0.18149441 -0.23733886
000070 91 61 47 57 6d a4 66 a4 9f 45 b1 aa 37 bb 93 90
       0.23733886 -0.4327944 -0.7957832 -0.57240546 -0.26526108 0.50259995 -0.36298883 0.50259995 0.4327944 -0.82370543 0.68409437 0.5863666 -1.019161 0.82370543 0.26526108 0.22337775
000080 3d 79 61 50 cd a9 cf a1 69 70 7b a8 3c 8c 81 75
       -0.93539435 -0.09772777 -0.4327944 -0.67013323 1.0750054 0.57240546 1.1029277 0.4607166 -0.3211055 -0.22337775 -0.06980555 0.5584444 -0.9493554 0.16753331 0.013961109 -0.1535722
000090 9a 38 54 6c 5d 4e 49 60 b2 ca 6a 9e 92 8d 88 aa
       0.36298883 -1.0051999 -0.6142888 -0.2792222 -0.48863882 -0.69805545 -0.767861 -0.4467555 0.69805545 1.0331221 -0.3071444 0.4188333 0.25129998 0.18149441 0.111688875 0.5863666
0000a0 5c 46 70 43 ab 87 b0 4e 9f cd 62 4c 88 2e 78 46
       -0.50259995 -0.80974436 -0.22337775 -0.85162765 0.60032773 0.09772777 0.67013323 -0.69805545 0.4327944 1.0750054 -0.4188333 -0.72597766 0.111688875 -1.1448109 -0.111688875 -0.80974436
0000b0 4c 7c 79 9b a7 4f b7 80 7f 7d 49 5b 71 4c b9 a8
       -0.72597766 -0.055844437 -0.09772777 0.37694997 0.54448324 -0.68409437 0.767861 0.0 -0.013961109 -0.041883327 -0.767861 -0.51656103 -0.20941664 -0.72597766 0.7957832 0.5584444
0000c0 a8 49 a0 69 b3 89 d1 59 6a be 8a c9 3a 71 6b e3
       0.5584444 -0.767861 0.4467555 -0.3211055 0.7120166 0.12564999 1.1308498 -0.54448324 -0.3071444 0.8655888 0.1396111 1.019161 -0.97727764 -0.20941664 -0.2931833 1.3821498
0000d0 9d d1 5b b4 81 60 66 6e 5f 7b c4 b5 af 6d 88 c4
       0.40487218 1.1308498 -0.51656103 0.72597766 0.013961109 -0.4467555 -0.36298883 -0.25129998 -0.4607166 -0.06980555 0.9493554 0.7399388 0.65617216 -0.26526108 0.111688875 0.9493554
0000e0 b1 82 aa 44 b2 ad b1 77 73 80 51 4a c5 48 a8 ca
       0.68409437 0.027922219 0.5863666 -0.8376666 0.69805545 0.62824994 0.68409437 -0.12564999 -0.18149441 0.0 -0.65617216 -0.75389993 0.96331656 -0.78182214 0.5584444 1.0331221
0000f0 60 75 4d 34 c4 8e cc 8e 70 5a b8 88 cb 68 8c 76
       -0.4467555 -0.1535722 -0.7120166 -1.0610443 0.9493554 0.19545554 1.0610443 0.19545554 -0.22337775 -0.53052217 0.78182214 0.111688875 1.0470833 -0.33506662 0.16753331 -0.1396111

DS-CNN/conv_ds_3/pw_conv/weights_quant/FakeQuantWithMinMaxVars u1 [276, 1, 1, 276] scale=0.0026445223 zero_point=128
000000 93 a0 9e bb 84 80 59 ae a1 6b 55 66 a6 79 b5 a2
       0.050245926 0.084624715 0.07933567 0.15602683 0.010578089 0.0 -0.10313637 0.12164803 0.08726924 -0.05553497 -0.113714464 -0.06875758 0.10049185 -0.018511657 0.14015968 0.08991376
000010 9b 8d 9b 9e b3 97 24 ad 3f 63 52 78 99 5e bb 89
       0.0714021 0.03437879 0.0714021 0.07933567 0.13487063 0.060824014 -0.24329606 0.119003505 -0.17189395 -0.07669115 -0.12164803 -0.021156179 0.06611306 -0.08991376 0.15602683 0.0238007
000020 a6 50 99 d8 67 6f 6a 73 75 5b b7 79 61 97 7d 70
       0.10049185 -0.12693708 0.06611306 0.23271796 -0.06611306 -0.04495688 -0.05817949 -0.03437879 -0.029089745 -0.09784733 0.14544873 -0.018511657 -0.08198019 0.060824014 -0.007933567 -0.042312358
000030 8f 91 b9 8a 7d 74 b1 a0 a5 49 6f af 62 8d 87 c3
       0.039667834 0.04495688 0.15073778 0.026445223 -0.007933567 -0.03173427 0.1295816 0.084624715 0.09784733 -0.14544873 -0.04495688 0.12429255 -0.07933567 0.03437879 0.018511657 0.177183
000040 79 91 64 2e 87 4d ab aa 9b 68 77 61 b3 98 63 74
       -0.018511657 0.04495688 -0.07404663 -0.21685083 0.018511657 -0.13487063 0.113714464 0.11106994 0.0714021 -0.06346854 -0.0238007 -0.08198019 0.13487063 0.06346854 -0.07669115 -0.03173427
000050 c9 4d 6b 6c 77 ab a7 8b 65 83 87 a7 84 83 93 94
       0.19305013 -0.13487063 -0.05553497 -0.052890446 -0.0238007 0.113714464 0.10313637 0.029089745 -0.0714021 0.007933567 0.018511657 0.10313637 0.010578089 0.007933567 0.050245926 0.052890446
000060 72 40 92 64 85 99 56 90 9c 5f 91 8d ae 87 82 6f
       -0.037023313 -0.16924943 0.0476014 -0.07404663 0.0132226115 0.06611306 -0.11106994 0.042312358 0.07404663 -0.08726924 0.04495688 0.03437879 0.12164803 0.018511657 0.0052890447 -0.04495688
000070 9b 95 9e 5e ac 80 48 64 8a 88 98 7a 78 51 ab 73
       0.0714021 0.05553497 0.07933567 -0.08991376 0.11635898 0.0 -0.14809325 -0.07404663 0.026445223 0.021156179 0.06346854 -0.015867135 -0.021156179 -0.12429255 0.113714464 -0.03437879
000080 63 55 6b 78 3a 5d 7a 7a 99 76 89 62 80 4f 40 6a
       -0.07669115 -0.113714464 -0.05553497 -0.021156179 -0.18511656 -0.09255828 -0.015867135 -0.015867135 0.06611306 -0.026445223 0.0238007 -0.07933567 0.0 -0.1295816 -0.16924943 -0.05817949
000090 93 63 6c 53 bf 90 ae 83 8f 2c cc 56 4d a0 63 5f
       0.050245926 -0.07669115 -0.052890446 -0.119003505 0.1666049 0.042312358 0.12164803 0.007933567 0.039667834 -0.22213988 0.2009837 -0.11106994 -0.13487063 0.084624715 -0.07669115 -0.08726924
0000a0 9a 7f 9c a3 65 71 a0 a0 89 66 8f 90 57 92 6b 86
       0.06875758 -0.0026445223 0.07404663 0.09255828 -0.0714021 -0.039667834 0.084624715 0.084624715 0.0238007 -0.06875758 0.039667834 0.042312358 -0.108425416 0.0476014 -0.05553497 0.015867135
0000b0 61 85 8c 86 78 77 99 a3 96 78 81 73 82 a9 80 4f
       -0.08198019 0.0132226115 0.03173427 0.015867135 -0.021156179 -0.0238007 0.06611306 0.09255828 0.05817949 -0.021156179 0.0026445223 -0.03437879 0.0052890447 0.108425416 0.0 -0.1295816
0000c0 79 6c 85 80 a1 86 91 8d 6c 68 b2 77 5f 9f b0 97
       -0.018511657 -0.052890446 0.0132226115 0.0 0.08726924 0.015867135 0.04495688 0.03437879 -0.052890446 -0.06346854 0.13222612 -0.0238007 -0.08726924 0.08198019 0.12693708 0.060824014
0000d0 52 5c 7e 3d 92 76 72 aa 5a ad 5b 4c 7b 7d 70 47
       -0.12164803 -0.0952028 -0.0052890447 -0.177183 0.0476014 -0.026445223 -0.037023313 0.11106994 -0.10049185 0.119003505 -0.09784733 -0.13751516 -0.0132226115 -0.007933567 -0.042312358 -0.15073778
0000e0 99 a0 68 57 2b 8b 85 ac 58 a9 4c 9e 95 3e 64 43
       0.06611306 0.084624715 -0.06346854 -0.108425416 -0.2247844 0.029089745 0.0132226115 0.11635898 -0.10578089 0.108425416 -0.13751516 0.07933567 0.05553497 -0.17453848 -0.07404663 -0.16131586
0000f0 8b bc 6b 7a 70 50 2d 66 72 56 aa 6c 81 82 91 4c
       0.029089745 0.15867133 -0.05553497 -0.015867135 -0.042312358 -0.12693708 -0.21949536 -0.06875758 -0.037023313 -0.11106994 0.11106994 -0.052890446 0.0026445223 0.0052890447 0.04495688 -0.13751516

DS-CNN/conv_ds_4/dw_conv/weights_quant/FakeQuantWithMinMaxVars u1 [1, 3, 3, 276] scale=0.01384298 zero_point=128
000000 c7 b6 a1 59 85 c2 bd 9e 7a 8d 44 b2 80 ae 60 65
       0.9828516 0.7475209 0.45681834 -0.5398762 0.0692149 0.9136367 0.8444218 0.4152894 -0.08305788 0.17995875 -0.8305788 0.69214904 0.0 0.6367771 -0.44297537 -0.37376046
000010 98 a4 6b 91 7f 51 6e 6e a6 bf 83 95 5f be 5e 39
       0.33223152 0.49834728 -0.29070258 0.23533067 -0.01384298 -0.6506201 -0.24917364 -0.24917364 0.5260333 0.87210774 0.04152894 0.29070258 -0.45681834 0.8582648 -0.47066134 -0.9828516
000020 4e 5b 71 50 73 a3 a3 64 58 cc b2 98 a1 59 50 47
       -0.69214904 -0.5121903 -0.2076447 -0.66446304 -0.17995875 0.4845043 0.4845043 -0.38760346 -0.5537192 1.0520666 0.69214904 0.33223152 0.45681834 -0.5398762 -0.66446304 -0.78904986
000030 8f 6e 89 56 49 6e 62 dc 4e bb 84 59 86 be 5a 61
       0.2076447 -0.24917364 0.12458682 -0.58140516 -0.7613639 -0.24917364 -0.4152894 1.2735542 -0.69214904 0.81673586 0.05537192 -0.5398762 0.08305788 0.8582648 -0.5260333 -0.4291324
000040 4f 7b 75 6a 76 bb 58 6e bd 60 cc d8 40 77 a5 6f
       -0.67830604 -0.0692149 -0.15227279 -0.30454558 -0.1384298 0.81673586 -0.5537192 -0.24917364 0.8444218 -0.44297537 1.0520666 1.2181823 -0.88595074 -0.12458682 0.5121903 -0.23533067
000050 98 ba 73 5e 63 6d 6b 6d 84 98 c4 82 91 95 7f 7e
       0.33223152 0.80289286 -0.17995875 -0.47066134 -0.40144643 -0.26301664 -0.29070258 -0.26301664 0.05537192 0.33223152 0.9413227 0.02768596 0.23533067 0.29070258 -0.01384298 -0.02768596
000060 a1 be 8b 53 ae 3a 64 ba 67 88 26 bc 60 60 8f 9c
       0.45681834 0.8582648 0.15227279 -0.6229341 0.6367771 -0.9690086 -0.38760346 0.80289286 -0.34607452 0.11074384 -1.2458682 0.8305788 -0.44297537 -0.44297537 0.2076447 0.38760346
000070 8e 58 51 83 46 be 8b 77 65 42 ba 87 73 af 3f a9
       0.19380173 -0.5537192 -0.6506201 0.04152894 -0.80289286 0.8582648 0.15227279 -0.12458682 -0.37376046 -0.8582648 0.80289286 0.096900865 -0.17995875 0.6506201 -0.89979374 0.5675622
000080 7a 81 79 4c da 4d a0 a5 60 90 a8 92 69 7f 67 50
       -0.08305788 0.01384298 -0.096900865 -0.719835 1.2458682 -0.705992 0.44297537 0.5121903 -0.44297537 0.22148769 0.5537192 0.24917364 -0.31838855 -0.01384298 -0.34607452 -0.66446304
000090 68 a2 56 c7 5c 44 86 5d 4f 4a 9a b7 56 80 a2 62
       -0.33223152 0.47066134 -0.58140516 0.9828516 -0.49834728 -0.8305788 0.08305788 -0.4845043 -0.67830604 -0.7475209 0.3599175 0.7613639 -0.58140516 0.0 0.47066134 -0.4152894
0000a0 7a bf dd 68 9e 70 87 86 99 bc 3a e0 91 61 6b b1
       -0.08305788 0.87210774 1.2873971 -0.33223152 0.4152894 -0.22148769 0.096900865 0.08305788 0.34607452 0.8305788 -0.9690086 1.3289261 0.23533067 -0.4291324 -0.29070258 0.67830604
0000b0 8e b8 55 61 58 73 d1 8f a7 7c 4d 89 c1 cf 4d 79
       0.19380173 0.7752069 -0.59524816 -0.4291324 -0.5537192 -0.17995875 1.1212814 0.2076447 0.5398762 -0.05537192 -0.705992 0.12458682 0.89979374 1.0935955 -0.705992 -0.096900865
0000c0 67 a4 45 99 5e 89 64 74 5b 63 99 c4 8c 60 71 75
       -0.34607452 0.49834728 -0.81673586 0.34607452 -0.47066134 0.12458682 -0.38760346 -0.16611576 -0.5121903 -0.40144643 0.34607452 0.9413227 0.16611576 -0.44297537 -0.2076447 -0.15227279
0000d0 a7 5b 4a 65 41 bb 46 3c 46 c5 5b 64 93 61 48 7b
       0.5398762 -0.5121903 -0.7475209 -0.37376046 -0.87210774 0.81673586 -0.80289286 -0.9413227 -0.80289286 0.9551656 -0.5121903 -0.38760346 0.26301664 -0.4291324 -0.7752069 -0.0692149
0000e0 9e 67 a4 9b a6 e6 91 43 e1 8d c4 cb 86 91 99 92
       0.4152894 -0.34607452 0.49834728 0.37376046 0.5260333 1.411984 0.23533067 -0.8444218 1.3427691 0.17995875 0.9413227 1.0382235 0.08305788 0.23533067 0.34607452 0.24917364
0000f0 9d a1 aa 30 42 30 8b 66 9f a0 72 90 4f 96 85 6a
       0.40144643 0.45681834 0.58140516 -1.1074384 -0.8582648 -1.1074384 0.15227279 -0.3599175 0.4291324 0.44297537 -0.19380173 0.22148769 -0.67830604 0.30454558 0.0692149 -0.30454558

DS-CNN/conv_ds_4/pw_conv/weights_quant/FakeQuantWithMinMaxVars u1 [276, 1, 1, 276] scale=0.0027493343 zero_point=128
000000 a3 7e 93 b9 78 5c a9 7a 6b 73 8b 60 7e 67 9f 91
       0.0962267 -0.0054986686 0.05223735 0.15671206 -0.021994675 -0.09897604 0.11272271 -0.016496006 -0.05773602 -0.035741348 0.030242678 -0.0879787 -0.0054986686 -0.06873336 0.08522937 0.046738684
000010 93 95 5c ba 89 aa 57 83 ab 82 5c 96 6d ae a9 80
       0.05223735 0.05773602 -0.09897604 0.1594614 0.02474401 0.11547204 -0.11272271 0.008248003 0.11822137 0.0054986686 -0.09897604 0.060485356 -0.05223735 0.12646937 0.11272271 0.0
000020 86 b0 60 a1 a5 86 5c 70 6d 6c 8c 7c 7a a5 8c 84
       0.016496006 0.13196805 -0.0879787 0.09072803 0.10172537 0.016496006 -0.09897604 -0.04398935 -0.05223735 -0.054986686 0.032992013 -0.010997337 -0.016496006 0.10172537 0.032992013 0.010997337
000030 6b 72 8b 77 92 87 9a 97 64 71 64 83 81 53 55 66
       -0.05773602 -0.03849068 0.030242678 -0.02474401 0.04948802 0.01924534 0.071482696 0.06323469 -0.07698136 -0.041240014 -0.07698136 0.008248003 0.0027493343 -0.12372004 -0.11822137 -0.071482696
000040 a1 94 7c 99 96 8d 6e 9b 9a 62 61 89 9e 5f b3 73
       0.09072803 0.054986686 -0.010997337 0.06873336 0.060485356 0.035741348 -0.04948802 0.07423203 0.071482696 -0.08248003 -0.08522937 0.02474401 0.08248003 -0.09072803 0.14021605 -0.035741348
000050 92 8f 83 91 9b 79 57 95 99 90 8c ac a8 a7 7c 69
       0.04948802 0.041240014 0.008248003 0.046738684 0.07423203 -0.01924534 -0.11272271 0.05773602 0.06873336 0.04398935 0.032992013 0.12097071 0.10997337 0.10722404 -0.010997337 -0.06323469
000060 84 95 6e 78 72 96 68 83 99 9e 88 4a 95 86 44 b2
       0.010997337 0.05773602 -0.04948802 -0.021994675 -0.03849068 0.060485356 -0.065984026 0.008248003 0.06873336 0.08248003 0.021994675 -0.14846405 0.05773602 0.016496006 -0.16496006 0.13746671
000070 5a 98 6b 82 65 60 9b 70 5b 84 91 78 54 98 66 b4
       -0.1044747 0.065984026 -0.05773602 0.0054986686 -0.07423203 -0.0879787 0.07423203 -0.04398935 -0.10172537 0.010997337 0.046738684 -0.021994675 -0.12097071 0.065984026 -0.071482696 0.14296539
000080 74 71 89 73 70 80 91 a3 a2 68 7c a2 3e 8f 89 7d
       -0.032992013 -0.041240014 0.02474401 -0.035741348 -0.04398935 0.0 0.046738684 0.0962267 0.09347737 -0.065984026 -0.010997337 0.09347737 -0.18145606 0.041240014 0.02474401 -0.008248003
000090 7d 88 8a 88 58 a0 7e 8f 90 93 94 b6 84 7c 86 93
       -0.008248003 0.021994675 0.027493343 0.021994675 -0.10997337 0.0879787 -0.0054986686 0.041240014 0.04398935 0.05223735 0.054986686 0.14846405 0.010997337 -0.010997337 0.016496006 0.05223735
0000a0 7f 8b 8c 94 8a 74 71 96 98 7a a0 5e b3 9b 7e 97
       -0.0027493343 0.030242678 0.032992013 0.054986686 0.027493343 -0.032992013 -0.041240014 0.060485356 0.065984026 -0.016496006 0.0879787 -0.09347737 0.14021605 0.07423203 -0.0054986686 0.06323469
0000b0 7d b6 8d 72 a2 71 75 88 78 a2 5d 6e 8d 7c 78 83
       -0.008248003 0.14846405 0.035741348 -0.03849068 0.09347737 -0.041240014 -0.030242678 0.021994675 -0.021994675 0.09347737 -0.0962267 -0.04948802 0.035741348 -0.010997337 -0.021994675 0.008248003
0000c0 75 7c 8b 91 94 98 71 6e 77 8c a7 ad 81 98 85 79
       -0.030242678 -0.010997337 0.030242678 0.046738684 0.054986686 0.065984026 -0.041240014 -0.04948802 -0.02474401 0.032992013 0.10722404 0.12372004 0.0027493343 0.065984026 0.013746671 -0.01924534
0000d0 c4 85 60 92 73 91 65 99 8e 92 89 9b 6b 85 63 6c
       0.18695474 0.013746671 -0.0879787 0.04948802 -0.035741348 0.046738684 -0.07423203 0.06873336 0.03849068 0.04948802 0.02474401 0.07423203 -0.05773602 0.013746671 -0.0797307 -0.054986686
0000e0 68 6c a1 6b 9f 7f 91 7b 78 79 74 6f 68 a0 7d a4
       -0.065984026 -0.054986686 0.09072803 -0.05773602 0.08522937 -0.0027493343 0.046738684 -0.013746671 -0.021994675 -0.01924534 -0.032992013 -0.046738684 -0.065984026 0.0879787 -0.008248003 0.09897604
0000f0 7e 93 7f 70 b2 84 8c a4 85 79 76 65 79 88 98 9a
       -0.0054986686 0.05223735 -0.0027493343 -0.04398935 0.13746671 0.010997337 0.032992013 0.09897604 0.013746671 -0.01924534 -0.027493343 -0.07423203 -0.01924534 0.021994675 0.065984026 0.071482696

DS-CNN/conv_ds_5/dw_conv/weights_quant/FakeQuantWithMinMaxVars u1 [1, 3, 3, 276] scale=0.012033902 zero_point=128
000000 65 95 68 62 9b 54 c0 ae ad b0 57 4c 6a 6e a7 b7
       -0.32491535 0.25271195 -0.28881365 -0.36101705 0.32491535 -0.52949166 0.77016973 0.5535595 0.5415256 0.5776273 -0.49339 -0.62576294 -0.26474583 -0.21661024 0.46932217 0.66186464
000010 8e 5e 35 9e a7 a0 d7 a8 65 64 b7 99 54 7e c1 a8
       0.16847463 -0.4091527 -0.90254265 0.36101705 0.46932217 0.38508487 1.0469495 0.48135608 -0.32491535 -0.33694926 0.66186464 0.30084756 -0.52949166 -0.024067804 0.7822036 0.48135608
000020 b5 55 5a 60 60 b3 a6 56 a5 5f 68 8f a1 a4 5b 9d
       0.6377968 -0.5174578 -0.45728827 -0.38508487 -0.38508487 0.613729 0.45728827 -0.5054239 0.4452544 -0.39711878 -0.28881365 0.18050852 0.39711878 0.43322048 -0.4452544 0.34898317
000030 61 6f 60 68 c7 4f 6b 65 67 37 5d 4a a7 ac 80 89
       -0.37305096 -0.20457634 -0.38508487 -0.28881365 0.8544071 -0.5896612 -0.25271195 -0.32491535 -0.30084756 -0.87847483 -0.42118657 -0.6498307 0.46932217 0.52949166 0.0 0.10830512
000040 4a 97 68 b4 a4 ad 5f a8 aa bf 6d 45 b8 90 b5 a0
       -0.6498307 0.27677974 -0.28881365 0.62576294 0.43322048 0.5415256 -0.39711878 0.48135608 0.5054239 0.75813586 -0.22864413 -0.7100002 0.6738985 0.19254243 0.6377968 0.38508487
000050 ab 53 57 7f a8 ac 4f 96 dd 65 ab b2 6f c9 9d 7c
       0.5174578 -0.5415256 -0.49339 -0.012033902 0.48135608 0.52949166 -0.5896612 0.26474583 1.1191529 -0.32491535 0.5174578 0.6016951 -0.20457634 0.87847483 0.34898317 -0.04813561
000060 53 97 52 24 a7 53 9f 64 5c 79 b1 62 55 5e 60 8a
       -0.5415256 0.27677974 -0.5535595 -1.107119 0.46932217 -0.5415256 0.37305096 -0.33694926 -0.43322048 -0.084237315 0.5896612 -0.36101705 -0.5174578 -0.4091527 -0.38508487 0.12033902
000070 5d 65 4e b5 c2 6c 94 a7 65 c4 22 1e a5 5c 75 35
       -0.42118657 -0.32491535 -0.6016951 0.6377968 0.79423755 -0.24067804 0.24067804 0.46932217 -0.32491535 0.8183054 -1.1311868 -1.1793224 0.4452544 -0.43322048 -0.13237292 -0.90254265
000080 ab 97 83 5a 36 ca b5 8d a1 63 48 ad ad ca bc 8a
       0.5174578 0.27677974 0.036101706 -0.45728827 -0.8905088 0.8905088 0.6377968 0.15644073 0.39711878 -0.34898317 -0.6738985 0.5415256 0.5415256 0.8905088 0.7220341 0.12033902
000090 61 b7 62 58 50 a1 7a 9f be 9f 5a 46 a5 77 51 92
       -0.37305096 0.66186464 -0.36101705 -0.48135608 -0.5776273 0.39711878 -0.07220341 0.37305096 0.7461019 0.37305096 -0.45728827 -0.69796634 0.4452544 -0.10830512 -0.5655934 0.21661024
0000a0 55 61 ca b1 93 5d b1 a1 a7 60 9c ab 95 51 9b 6a
       -0.5174578 -0.37305096 0.8905088 0.5896612 0.22864413 -0.42118657 0.5896612 0.39711878 0.46932217 -0.38508487 0.33694926 0.5174578 0.25271195 -0.5655934 0.32491535 -0.26474583
0000b0 55 a6 be 8d 75 b3 d5 b1 c9 4b ad bd 79 6d 69 52
       -0.5174578 0.45728827 0.7461019 0.15644073 -0.13237292 0.613729 1.0228816 0.5896612 0.87847483 -0.6377968 0.5415256 0.73406804 -0.084237315 -0.22864413 -0.27677974 -0.5535595
0000c0 ba 30 ac 92 d4 8b 63 bb 94 a2 44 a5 7d a0 66 94
       0.69796634 -0.96271217 0.52949166 0.21661024 1.0108478 0.13237292 -0.34898317 0.7100002 0.24067804 0.4091527 -0.7220341 0.4452544 -0.036101706 0.38508487 -0.31288147 0.24067804
0000d0 51 3e 60 a5 4e af 7b 7c 56 95 5d 93 52 c5 b1 5d
       -0.5655934 -0.79423755 -0.38508487 0.4452544 -0.6016951 0.5655934 -0.06016951 -0.04813561 -0.5054239 0.25271195 -0.42118657 0.22864413 -0.5535595 0.83033925 0.5896612 -0.42118657
0000e0 b0 55 9d c6 9a bb b1 86 a3 a9 b1 ae 59 6c 4e 9a
       0.5776273 -0.5174578 0.34898317 0.84237313 0.31288147 0.7100002 0.5896612 0.07220341 0.42118657 0.49339 0.5896612 0.5535595 -0.46932217 -0.24067804 -0.6016951 0.31288147
0000f0 57 9c 68 5a a8 8d 59 72 92 98 86 a3 5e 68 58 5f
       -0.49339 0.33694926 -0.28881365 -0.45728827 0.48135608 0.15644073 -0.46932217 -0.16847463 0.21661024 0.28881365 0.07220341 0.42118657 -0.4091527 -0.28881365 -0.48135608 -0.39711878

DS-CNN/conv_ds_5/pw_conv/weights_quant/FakeQuantWithMinMaxVars u1 [276, 1, 1, 276] scale=0.0037962436 zero_point=128
000000 89 8c 91 73 88 81 80 92 74 7d 9e 7e 8b 85 8c 7a
       0.03416619 0.04555492 0.06453614 -0.049351167 0.030369949 0.0037962436 0.0 0.06833238 -0.04555492 -0.01138873 0.11388731 -0.007592487 0.04175868 0.018981218 0.04555492 -0.02277746
000010 79 88 80 92 91 72 79 69 6f 82 7d 7d 82 8b 85 88
       -0.026573705 0.030369949 0.0 0.06833238 0.06453614 -0.05314741 -0.026573705 -0.0873136 -0.06453614 0.007592487 -0.01138873 -0.01138873 0.007592487 0.04175868 0.018981218 0.030369949
000020 76 5c 89 87 67 74 81 5d 6a 96 5a 78 9a 66 77 70
       -0.037962437 -0.13666476 0.03416619 0.026573705 -0.09490609 -0.04555492 0.0037962436 -0.13286853 -0.08351736 0.08351736 -0.14425726 -0.030369949 0.098702334 -0.098702334 -0.03416619 -0.060739897
000030 7d a0 97 62 7a 7f 8e 77 81 6e 83 96 80 8e 79 82
       -0.01138873 0.121479794 0.0873136 -0.11388731 -0.02277746 -0.0037962436 0.05314741 -0.03416619 0.0037962436 -0.06833238 0.01138873 0.08351736 0.0 0.05314741 -0.026573705 0.007592487
000040 7c 71 92 90 79 72 84 a8 7a a5 6d 7e 7f a1 7d 7e
       -0.015184974 -0.056943655 0.06833238 0.060739897 -0.026573705 -0.05314741 0.015184974 0.15184975 -0.02277746 0.14046101 -0.07212863 -0.007592487 -0.0037962436 0.12527604 -0.01138873 -0.007592487
000050 97 70 96 7b 70 6d 7c 88 79 8b 82 62 81 88 81 9a
       0.0873136 -0.060739897 0.08351736 -0.018981218 -0.060739897 -0.07212863 -0.015184974 0.030369949 -0.026573705 0.04175868 0.007592487 -0.11388731 0.0037962436 0.030369949 0.0037962436 0.098702334
000060 81 8e 74 7f 91 8f 5f 92 86 a1 6b 67 91 6c 72 78
       0.0037962436 0.05314741 -0.04555492 -0.0037962436 0.06453614 0.056943655 -0.12527604 0.06833238 0.02277746 0.12527604 -0.079721116 -0.09490609 0.06453614 -0.07592487 -0.05314741 -0.030369949
000070 9a 91 7a 7e 7e 72 7d 88 6d 66 87 6b 85 81 70 88
       0.098702334 0.06453614 -0.02277746 -0.007592487 -0.007592487 -0.05314741 -0.01138873 0.030369949 -0.07212863 -0.098702334 0.026573705 -0.079721116 0.018981218 0.0037962436 -0.060739897 0.030369949
000080 8b 72 7d 68 80 99 8b 9b 9b 72 6c 6f 86 96 83 6d
       0.04175868 -0.05314741 -0.01138873 -0.09110984 0.0 0.09490609 0.04175868 0.102498576 0.102498576 -0.05314741 -0.07592487 -0.06453614 0.02277746 0.08351736 0.01138873 -0.07212863
000090 89 74 7a 78 86 76 97 87 76 65 6b 8a 6a 69 94 6e
       0.03416619 -0.04555492 -0.02277746 -0.030369949 0.02277746 -0.037962437 0.0873136 0.026573705 -0.037962437 -0.102498576 -0.079721116 0.037962437 -0.08351736 -0.0873136 0.07592487 -0.06833238
0000a0 8d 7e 6d 6f 7d 9d 8b 7d 6f 7e af 69 70 82 94 78
       0.049351167 -0.007592487 -0.07212863 -0.06453614 -0.01138873 0.11009106 0.04175868 -0.01138873 -0.06453614 -0.007592487 0.17842345 -0.0873136 -0.060739897 0.007592487 0.07592487 -0.030369949
0000b0 a1 94 80 8e 98 87 72 92 7c 79 83 7f 66 66 7e 8d
       0.12527604 0.07592487 0.0 0.05314741 0.09110984 0.026573705 -0.05314741 0.06833238 -0.015184974 -0.026573705 0.01138873 -0.0037962436 -0.098702334 -0.098702334 -0.007592487 0.049351167
0000c0 93 7e 75 90 8e 83 7c aa 80 86 77 82 81 88 60 84
       0.07212863 -0.007592487 -0.04175868 0.060739897 0.05314741 0.01138873 -0.015184974 0.15944223 0.0 0.02277746 -0.03416619 0.007592487 0.0037962436 0.030369949 -0.121479794 0.015184974
0000d0 7a 74 6f 83 7d 7f 7d 6d 70 69 8d 8d 80 7e 88 62
       -0.02277746 -0.04555492 -0.06453614 0.01138873 -0.01138873 -0.0037962436 -0.01138873 -0.07212863 -0.060739897 -0.0873136 0.049351167 0.049351167 0.0 -0.007592487 0.030369949 -0.11388731
0000e0 8b 7a 79 81 88 8f 69 96 77 8a 80 5c 94 95 95 8f
       0.04175868 -0.02277746 -0.026573705 0.0037962436 0.030369949 0.056943655 -0.0873136 0.08351736 -0.03416619 0.037962437 0.0 -0.13666476 0.07592487 0.079721116 0.079721116 0.056943655
0000f0 9c 7c 7b 67 90 76 8a 7b a3 84 7b 78 94 8b 73 97
       0.10629482 -0.015184974 -0.018981218 -0.09490609 0.060739897 -0.037962437 0.037962437 -0.018981218 0.13286853 0.015184974 -0.018981218 -0.030369949 0.07592487 0.04175868 -0.049351167 0.0873136

DS-CNN/fc1/weights_quant/FakeQuantWithMinMaxVars/transpose u1 [12, 276] scale=0.005676943 zero_point=128
000000 60 14 a6 54 54 83 65 6a 1f 72 0d 7a 41 4d 78 5c
       -0.18166217 -0.6131098 0.21572383 -0.24978548 -0.24978548 0.017030828 -0.15327746 -0.12489274 -0.5506635 -0.0794772 -0.6528484 -0.034061655 -0.3576474 -0.28952408 -0.045415543 -0.20436995
000010 6e 2c 53 65 5b 23 53 79 44 3e 9d 6b 6d 58 4b 77
       -0.10218497 -0.4768632 -0.25546244 -0.15327746 -0.21004689 -0.5279557 -0.25546244 -0.0397386 -0.34061658 -0.37467822 0.16463134 -0.1192158 -0.107861914 -0.22707772 -0.30087796 -0.051092487
000020 37 a4 63 57 48 6e 80 4d b6 6c 61 43 7f 70 31 a3
       -0.41441682 0.20436995 -0.16463134 -0.23275466 -0.3179088 -0.10218497 0.0 -0.28952408 0.3065549 -0.11353886 -0.17598523 -0.3462935 -0.005676943 -0.090831086 -0.4484785 0.198693
000030 57 59 a7 52 9c 88 48 b6 57 76 21 5f 68 56 1d 2e
       -0.23275466 -0.22140077 0.22140077 -0.26113936 0.1589544 0.045415543 -0.3179088 0.3065549 -0.23275466 -0.05676943 -0.53930956 -0.18733911 -0.13624662 -0.2384316 -0.5620173 -0.46550933
000040 a9 44 2a 70 45 4d 68 60 4e 42 32 66 ae 61 8e 5b
       0.23275466 -0.34061658 -0.4882171 -0.090831086 -0.33493963 -0.28952408 -0.13624662 -0.18166217 -0.28384715 -0.35197046 -0.44280154 -0.14760052 0.26113936 -0.17598523 0.0794772 -0.21004689
000050 69 b2 68 48 7e 58 7b 64 9b 59 3e 87 4a 66 af 1b
       -0.13056968 0.28384715 -0.13624662 -0.3179088 -0.011353886 -0.22707772 -0.028384715 -0.1589544 0.15327746 -0.22140077 -0.37467822 0.0397386 -0.3065549 -0.14760052 0.26681632 -0.57337123
000060 a6 a6 6a b2 56 88 39 b4 4a b2 b5 8b b2 65 9a 50
       0.21572383 0.21572383 -0.12489274 0.28384715 -0.2384316 0.045415543 -0.40306294 0.29520103 -0.3065549 0.28384715 0.30087796 0.06244637 0.28384715 -0.15327746 0.14760052 -0.27249324
000070 67 5f 56 ab 69 45 7c 5c 58 40 5c 48 4c 19 58 5b
       -0.14192358 -0.18733911 -0.2384316 0.24410854 -0.13056968 -0.33493963 -0.022707772 -0.20436995 -0.22707772 -0.36332434 -0.20436995 -0.3179088 -0.29520103 -0.58472514 -0.22707772 -0.21004689
000080 3e a0 4a 3f 51 4f 3c b0 49 3c 69 2c 54 b5 5b 4e
       -0.37467822 0.18166217 -0.3065549 -0.3690013 -0.26681632 -0.2781702 -0.3860321 0.27249324 -0.31223187 -0.3860321 -0.13056968 -0.4768632 -0.24978548 0.30087796 -0.21004689 -0.28384715
000090 27 76 88 71 1b 45 34 6f 14 46 53 4e 2f 69 34 5a
       -0.5052479 -0.05676943 0.045415543 -0.085154146 -0.57337123 -0.33493963 -0.43144765 -0.096508026 -0.6131098 -0.32926267 -0.25546244 -0.28384715 -0.45983237 -0.13056968 -0.43144765 -0.21572383
0000a0 6a 2e 4d 4e 57 59 27 3b 36 4c 3d 4f 75 85 6d 35
       -0.12489274 -0.46550933 -0.28952408 -0.28384715 -0.23275466 -0.22140077 -0.5052479 -0.39170906 -0.42009377 -0.29520103 -0.38035518 -0.2781702 -0.06244637 0.028384715 -0.107861914 -0.42577073
0000b0 79 95 77 6c 52 12 60 3d 81 44 2d 90 4e 71 73 5a
       -0.0397386 0.1192158 -0.051092487 -0.11353886 -0.26113936 -0.62446374 -0.18166217 -0.38035518 0.005676943 -0.34061658 -0.47118625 0.090831086 -0.28384715 -0.085154146 -0.07380026 -0.21572383
0000c0 62 83 31 01 68 61 a0 3e a4 3e 39 24 79 22 1d a9
       -0.17030829 0.017030828 -0.4484785 -0.72097176 -0.13624662 -0.17598523 0.18166217 -0.37467822 0.20436995 -0.37467822 -0.40306294 -0.5222787 -0.0397386 -0.53363264 -0.5620173 0.23275466
0000d0 3a b5 8e 39 6c 3e 47 51 1f 86 4e 75 74 ab 30 6b
       -0.397386 0.30087796 0.0794772 -0.40306294 -0.11353886 -0.37467822 -0.32358575 -0.26681632 -0.5506635 0.034061655 -0.28384715 -0.06244637 -0.06812331 0.24410854 -0.45415545 -0.1192158
0000e0 6b 4f 66 35 72 46 b2 76 4c 58 50 41 38 af 49 42
       -0.1192158 -0.2781702 -0.14760052 -0.42577073 -0.0794772 -0.32926267 0.28384715 -0.05676943 -0.29520103 -0.22707772 -0.27249324 -0.3576474 -0.4087399 0.26681632 -0.31223187 -0.35197046
0000f0 ad 6b ab 40 a6 52 43 5a 66 60 6c 7a 37 30 54 33
       0.25546244 -0.1192158 0.24410854 -0.36332434 0.21572383 -0.26113936 -0.3462935 -0.21572383 -0.14760052 -0.18166217 -0.11353886 -0.034061655 -0.41441682 -0.45415545 -0.24978548 -0.4371246
