nn_menu/starters/keyword_spotting/model/KWS_ds_cnn_l_quant_98timesteps.tflite (tflite, 427432 bytes, 12 tensors)

DS-CNN/conv_1/weights_quant/FakeQuantWithMinMaxVars u1 [276, 10, 4, 1] scale=0.0021625839 zero_point=113
0	0x84	0.041089095
1	0x67	-0.02162584
2	0x82	0.036763925
3	0x5f	-0.03892651
4	0x84	0.041089095
5	0x6f	-0.0043251677
6	0x7a	0.019463254
7	0x68	-0.019463254
8	0x6d	-0.0086503355
9	0x73	0.0043251677
10	0x84	0.041089095
11	0x58	-0.054064598
12	0x72	0.0021625839
13	0x72	0.0021625839
14	0x74	0.0064877514
15	0x60	-0.036763925
16	0x69	-0.017300671
17	0x7d	0.025951006
18	0x6d	-0.0086503355
19	0x60	-0.036763925
20	0x62	-0.03243876
21	0x87	0.047576845
22	0x6b	-0.012975503
23	0x65	-0.025951006
24	0x5d	-0.04325168
25	0x76	0.01081292
26	0x6d	-0.0086503355
27	0x6f	-0.0043251677
28	0x75	0.0086503355
29	0x73	0.0043251677
30	0x6d	-0.0086503355
31	0x75	0.0086503355
32	0x67	-0.02162584
33	0x6b	-0.012975503
34	0x80	0.03243876
35	0x87	0.047576845
36	0x65	-0.025951006
37	0x6b	-0.012975503
38	0x7f	0.030276174
39	0x81	0.034601342
40	0x65	-0.025951006
41	0x90	0.0670401
42	0x81	0.034601342
43	0x7d	0.025951006
44	0x73	0.0043251677
45	0x6f	-0.0043251677
46	0x7b	0.02162584
47	0x70	-0.0021625839
48	0x63	-0.030276174
49	0x5d	-0.04325168
50	0x66	-0.023788422
51	0x76	0.01081292
52	0x6a	-0.015138087
53	0x49	-0.08650336
54	0x6f	-0.0043251677
55	0x7c	0.023788422
56	0x75	0.0086503355
57	0x58	-0.054064598
58	0x7c	0.023788422
59	0x5f	-0.03892651
60	0x7a	0.019463254
61	0x83	0.03892651
62	0x89	0.05190201
63	0x57	-0.05622718
64	0x76	0.01081292
65	0x90	0.0670401
66	0x81	0.034601342
67	0x5a	-0.049739428
68	0x8e	0.062714934
69	0x97	0.08217819
70	0x84	0.041089095
71	0x6e	-0.0064877514
72	0x85	0.04325168
73	0x7d	0.025951006
74	0x68	-0.019463254
75	0x6b	-0.012975503
76	0x6a	-0.015138087
77	0x4e	-0.07569043
78	0x5a	-0.049739428
79	0x6f	-0.0043251677
80	0x6e	-0.0064877514
81	0x5e	-0.041089095
82	0x75	0.0086503355
83	0x71	0.0
84	0x73	0.0043251677
85	0x4d	-0.07785302
86	0x63	-0.030276174
87	0x80	0.03243876
88	0x7d	0.025951006
89	0x50	-0.07136527
90	0x61	-0.034601342
91	0x7e	0.02811359
92	0x6e	-0.0064877514
93	0x6c	-0.01081292
94	0x57	-0.05622718
95	0x74	0.0064877514
96	0x72	0.0021625839
97	0x79	0.017300671
98	0x5e	-0.041089095
99	0x71	0.0
100	0x73	0.0043251677
101	0x7e	0.02811359
102	0x65	-0.025951006
103	0x7c	0.023788422
104	0x74	0.0064877514
105	0x7d	0.025951006
106	0x77	0.012975503
107	0x82	0.036763925
108	0x6d	-0.0086503355
109	0x86	0.04541426
110	0x7d	0.025951006
111	0x7b	0.02162584
112	0x67	-0.02162584
113	0x7c	0.023788422
114	0x79	0.017300671
115	0x88	0.049739428
116	0x6f	-0.0043251677
117	0x6f	-0.0043251677
118	0x81	0.034601342
119	0x77	0.012975503
120	0x5c	-0.04541426
121	0x69	-0.017300671
122	0x7f	0.030276174
123	0x2d	-0.1470557
124	0x70	-0.0021625839
125	0x85	0.04325168
126	0x92	0.07136527
127	0x38	-0.12326728
128	0x73	0.0043251677
129	0x83	0.03892651
130	0x82	0.036763925
131	0x4c	-0.0800156
132	0x64	-0.02811359
133	0x8a	0.054064598
134	0x69	-0.017300671
135	0x51	-0.069202684
136	0x64	-0.02811359
137	0x86	0.04541426
138	0x4c	-0.0800156
139	0x70	-0.0021625839
140	0x77	0.012975503
141	0x7b	0.02162584
142	0x4b	-0.08217819
143	0x8e	0.062714934
144	0x80	0.03243876
145	0x63	-0.030276174
146	0x51	-0.069202684
147	0x99	0.08650336
148	0x7d	0.025951006
149	0x6c	-0.01081292
150	0x57	-0.05622718
151	0xac	0.12759244
152	0x88	0.049739428
153	0x4c	-0.0800156
154	0x54	-0.062714934
155	0x98	0.08434077
156	0x75	0.0086503355
157	0x5b	-0.047576845
158	0x7e	0.02811359
159	0x88	0.049739428
160	0x70	-0.0021625839
161	0x71	0.0
162	0x70	-0.0021625839
163	0x6a	-0.015138087
164	0x71	0.0
165	0x71	0.0
166	0x6e	-0.0064877514
167	0x6e	-0.0064877514
168	0x6f	-0.0043251677
169	0x6c	-0.01081292
170	0x6b	-0.012975503
171	0x70	-0.0021625839
172	0x70	-0.0021625839
173	0x68	-0.019463254
174	0x6e	-0.0064877514
175	0x6f	-0.0043251677
176	0x71	0.0
177	0x6b	-0.012975503
178	0x70	-0.0021625839
179	0x71	0.0
180	0x6f	-0.0043251677
181	0x6f	-0.0043251677
182	0x6d	-0.0086503355
183	0x6d	-0.0086503355
184	0x72	0.0021625839
185	0x6c	-0.01081292
186	0x71	0.0
187	0x71	0.0
188	0x71	0.0
189	0x69	-0.017300671
190	0x72	0.0021625839
191	0x6c	-0.01081292
192	0x6d	-0.0086503355
193	0x6f	-0.0043251677
194	0x74	0.0064877514
195	0x6d	-0.0086503355
196	0x71	0.0
197	0x72	0.0021625839
198	0x72	0.0021625839
199	0x69	-0.017300671
200	0x6b	-0.012975503
201	0x74	0.0064877514
202	0x75	0.0086503355
203	0x6c	-0.01081292
204	0x73	0.0043251677
205	0x75	0.0086503355
206	0x7b	0.02162584
207	0x78	0.015138087
208	0x6f	-0.0043251677
209	0x70	-0.0021625839
210	0x7d	0.025951006
211	0x74	0.0064877514
212	0x70	-0.0021625839
213	0x6e	-0.0064877514
214	0x7d	0.025951006
215	0x79	0.017300671
216	0x69	-0.017300671
217	0x70	-0.0021625839
218	0x76	0.01081292
219	0x70	-0.0021625839
220	0x6b	-0.012975503
221	0x78	0.015138087
222	0x7d	0.025951006
223	0x79	0.017300671
224	0x70	-0.0021625839
225	0x74	0.0064877514
226	0x79	0.017300671
227	0x73	0.0043251677
228	0x6d	-0.0086503355
229	0x74	0.0064877514
230	0x74	0.0064877514
231	0x6d	-0.0086503355
232	0x6d	-0.0086503355
233	0x76	0.01081292
234	0x73	0.0043251677
235	0x6c	-0.01081292
236	0x73	0.0043251677
237	0x73	0.0043251677
238	0x73	0.0043251677
239	0x6c	-0.01081292
240	0x6f	-0.0043251677
241	0x6d	-0.0086503355
242	0x75	0.0086503355
243	0x66	-0.023788422
244	0x6f	-0.0043251677
245	0x6e	-0.0064877514
246	0x72	0.0021625839
247	0x67	-0.02162584
248	0x6f	-0.0043251677
249	0x6f	-0.0043251677
250	0x70	-0.0021625839
251	0x5d	-0.04325168
252	0x75	0.0086503355
253	0x6d	-0.0086503355
254	0x69	-0.017300671
255	0x66	-0.023788422

DS-CNN/conv_ds_1/dw_conv/weights_quant/FakeQuantWithMinMaxVars u1 [1, 3, 3, 276] scale=0.019182526 zero_point=130
0	0xa4	0.6522059
1	0x86	0.0767301
2	0xa2	0.6138408
3	0xb5	0.9783088
4	0x5f	-0.6713884
5	0x54	-0.88239616
6	0xb5	0.9783088
7	0x7e	-0.0767301
8	0x5a	-0.767301
9	0x49	-1.0934039
10	0x79	-0.17264274
11	0x75	-0.24937284
12	0x71	-0.32610294
13	0x90	0.26855534
14	0x5d	-0.70975345
15	0x87	0.09591263
16	0x7c	-0.11509515
17	0x87	0.09591263
18	0x80	-0.03836505
19	0x52	-0.9207612
20	0x51	-0.93994373
21	0x6c	-0.42201555
22	0x70	-0.34528548
23	0x4b	-1.0550389
24	0x89	0.13427767
25	0x43	-1.2084991
26	0x96	0.3836505
27	0x85	0.057547577
28	0xff	2.3978157
29	0x97	0.40283304
30	0x61	-0.6330233
31	0x8e	0.2301903
32	0xa6	0.69057095
33	0x65	-0.55629325
34	0x73	-0.28773788
35	0x81	-0.019182526
36	0x95	0.36446798
37	0x8a	0.1534602
38	0x61	-0.6330233
39	0xb7	1.0166738
40	0x7e	-0.0767301
41	0x72	-0.3069204
42	0x41	-1.2468642
43	0xab	0.7864835
44	0xa6	0.69057095
45	0x64	-0.57547575
46	0x68	-0.49874568
47	0x3a	-1.3811419
48	0x5f	-0.6713884
49	0x9c	0.49874568
50	0x9f	0.55629325
51	0x68	-0.49874568
52	0x6a	-0.4603806
53	0x7b	-0.13427767
54	0x8f	0.24937284
55	0x51	-0.93994373
56	0x8e	0.2301903
57	0x7f	-0.057547577
58	0xb0	0.88239616
59	0xcf	1.4770545
60	0xc0	1.1893166
61	0x81	-0.019182526
62	0xcc	1.4195069
63	0x9e	0.5371107
64	0x71	-0.32610294
65	0x61	-0.6330233
66	0x6f	-0.36446798
67	0xc6	1.3044118
68	0xae	0.8440311
69	0x80	-0.03836505
70	0xb0	0.88239616
71	0x85	0.057547577
72	0x95	0.36446798
73	0x96	0.3836505
74	0x88	0.11509515
75	0x51	-0.93994373
76	0x8c	0.19182526
77	0x92	0.3069204
78	0xa3	0.6330233
79	0xa2	0.6138408
80	0x85	0.057547577
81	0xa0	0.57547575
82	0x9f	0.55629325
83	0x6b	-0.44119808
84	0x9e	0.5371107
85	0xa4	0.6522059
86	0xad	0.8248486
87	0xac	0.8056661
88	0xa8	0.72893596
89	0x83	0.019182526
90	0x34	-1.496237
91	0x90	0.26855534
92	0x92	0.3069204
93	0x82	0.0
94	0x7a	-0.1534602
95	0x75	-0.24937284
96	0x54	-0.88239616
97	0x86	0.0767301
98	0x5f	-0.6713884
99	0x99	0.44119808
100	0x71	-0.32610294
101	0x91	0.28773788
102	0x87	0.09591263
103	0xb0	0.88239616
104	0x99	0.44119808
105	0x88	0.11509515
106	0xa9	0.7481185
107	0x90	0.26855534
108	0x62	-0.6138408
109	0x70	-0.34528548
110	0x9e	0.5371107
111	0x6c	-0.42201555
112	0x73	-0.28773788
113	0x7c	-0.11509515
114	0x77	-0.21100777
115	0x70	-0.34528548
116	0x6e	-0.3836505
117	0x8b	0.17264274
118	0x80	-0.03836505
119	0x8a	0.1534602
120	0x86	0.0767301
121	0x74	-0.26855534
122	0x7b	-0.13427767
123	0xc1	1.2084991
124	0x8a	0.1534602
125	0x40	-1.2660466
126	0x65	-0.55629325
127	0x8b	0.17264274
128	0x9d	0.5179282
129	0x88	0.11509515
130	0x78	-0.19182526
131	0x6a	-0.4603806
132	0x6b	-0.44119808
133	0x6e	-0.3836505
134	0x85	0.057547577
135	0xd3	1.5537846
136	0x87	0.09591263
137	0xc0	1.1893166
138	0x87	0.09591263
139	0x6e	-0.3836505
140	0x69	-0.47956315
141	0x4c	-1.0358564
142	0x82	0.0
143	0xb2	0.9207612
144	0x51	-0.93994373
145	0xa1	0.5946583
146	0xbd	1.1317691
147	0x79	-0.17264274
148	0x52	-0.9207612
149	0xae	0.8440311
150	0x95	0.36446798
151	0x72	-0.3069204
152	0x90	0.26855534
153	0x7d	-0.09591263
154	0x79	-0.17264274
155	0x62	-0.6138408
156	0x93	0.32610294
157	0xad	0.8248486
158	0x5e	-0.69057095
159	0x85	0.057547577
160	0x75	-0.24937284
161	0x94	0.34528548
162	0x50	-0.9591263
163	0x71	-0.32610294
164	0x63	-0.5946583
165	0x80	-0.03836505
166	0x95	0.36446798
167	0x7c	-0.11509515
168	0x6d	-0.40283304
169	0x7c	-0.11509515
170	0x61	-0.6330233
171	0x79	-0.17264274
172	0x87	0.09591263
173	0x85	0.057547577
174	0x57	-0.8248486
175	0x7e	-0.0767301
176	0x73	-0.28773788
177	0x7b	-0.13427767
178	0xbf	1.1701341
179	0x3e	-1.3044118
180	0x59	-0.7864835
181	0x64	-0.57547575
182	0x85	0.057547577
183	0xb0	0.88239616
184	0xac	0.8056661
185	0x9d	0.5179282
186	0xc7	1.3235942
187	0xaa	0.767301
188	0x44	-1.1893166
189	0x9a	0.4603806
190	0x60	-0.6522059
191	0x9c	0.49874568
192	0x77	-0.21100777
193	0x6e	-0.3836505
194	0x5e	-0.69057095
195	0x68	-0.49874568
196	0x6b	-0.44119808
197	0x89	0.13427767
198	0x5e	-0.69057095
199	0x79	-0.17264274
200	0x8a	0.1534602
201	0x73	-0.28773788
202	0xae	0.8440311
203	0x58	-0.8056661
204	0x8c	0.19182526
205	0x98	0.42201555
206	0xa3	0.6330233
207	0x56	-0.8440311
208	0x7b	-0.13427767
209	0x95	0.36446798
210	0x78	-0.19182526
211	0x67	-0.5179282
212	0x4d	-1.0166738
213	0x9e	0.5371107
214	0x96	0.3836505
215	0xa4	0.6522059
216	0x69	-0.47956315
217	0x69	-0.47956315
218	0x5c	-0.72893596
219	0xb5	0.9783088
220	0x14	-2.1100779
221	0x51	-0.93994373
222	0x7c	-0.11509515
223	0x97	0.40283304
224	0x85	0.057547577
225	0xc7	1.3235942
226	0x97	0.40283304
227	0x7f	-0.057547577
228	0x7c	-0.11509515
229	0x63	-0.5946583
230	0x7a	-0.1534602
231	0x9e	0.5371107
232	0x80	-0.03836505
233	0x8d	0.21100777
234	0x53	-0.9015787
235	0x60	-0.6522059
236	0x82	0.0
237	0x24	-1.8031574
238	0x0e	-2.225173
239	0x98	0.42201555
240	0x96	0.3836505
241	0x6c	-0.42201555
242	0x34	-1.496237
243	0x62	-0.6138408
244	0x7a	-0.1534602
245	0x6d	-0.40283304
246	0x7b	-0.13427767
247	0xaa	0.767301
248	0x74	-0.26855534
249	0x6d	-0.40283304
250	0xce	1.4578719
251	0xc5	1.2852292
252	0x89	0.13427767
253	0x75	-0.24937284
254	0x69	-0.47956315
255	0x70	-0.34528548

DS-CNN/conv_ds_1/pw_conv/weights_quant/FakeQuantWithMinMaxVars u1 [276, 1, 1, 276] scale=0.0034772463 zero_point=108
0	0x95	0.1425671
1	0x43	-0.1425671
2	0x46	-0.13213536
3	0x42	-0.14604434
4	0x75	0.031295218
5	0x49	-0.12170362
6	0x9d	0.17038506
7	0x4e	-0.10431739
8	0x4c	-0.11127188
9	0x6e	0.0069544925
10	0x6d	0.0034772463
11	0x6b	-0.0034772463
12	0x79	0.0452042
13	0x5a	-0.062590435
14	0x87	0.09388565
15	0x9b	0.16343057
16	0x70	0.013908985
17	0x47	-0.12865812
18	0x8e	0.11822637
19	0x58	-0.06954493
20	0x66	-0.020863477
21	0x67	-0.017386232
22	0x85	0.086931154
23	0x66	-0.020863477
24	0xa0	0.1808168
25	0x6e	0.0069544925
26	0x8a	0.10431739
27	0x6e	0.0069544925
28	0x62	-0.034772463
29	0x65	-0.024340725
30	0x57	-0.07302217
31	0x76	0.034772463
32	0x8d	0.114749126
33	0x61	-0.03824971
34	0x44	-0.13908985
35	0x66	-0.020863477
36	0x72	0.020863477
37	0x4d	-0.107794635
38	0x8b	0.107794635
39	0x30	-0.20863478
40	0x4f	-0.100840144
41	0x48	-0.12518087
42	0x4b	-0.114749126
43	0x4d	-0.107794635
44	0x50	-0.0973629
45	0x7c	0.05563594
46	0x73	0.024340725
47	0x7c	0.05563594
48	0x62	-0.034772463
49	0x84	0.08345391
50	0x86	0.0904084
51	0x9a	0.15995333
52	0x9d	0.17038506
53	0x75	0.031295218
54	0x60	-0.041726954
55	0x6d	0.0034772463
56	0x79	0.0452042
57	0x81	0.07302217
58	0x93	0.1356126
59	0x83	0.07997666
60	0x7e	0.062590435
61	0x76	0.034772463
62	0x95	0.1425671
63	0x64	-0.02781797
64	0x80	0.06954493
65	0x56	-0.07649942
66	0x7d	0.059113186
67	0x52	-0.0904084
68	0x76	0.034772463
69	0x6d	0.0034772463
70	0x7f	0.06606768
71	0x7d	0.059113186
72	0x5a	-0.062590435
73	0x95	0.1425671
74	0x64	-0.02781797
75	0x85	0.086931154
76	0x8a	0.10431739
77	0x83	0.07997666
78	0x70	0.013908985
79	0x45	-0.1356126
80	0x59	-0.06606768
81	0x5a	-0.062590435
82	0x47	-0.12865812
83	0x4c	-0.11127188
84	0x80	0.06954493
85	0x4c	-0.11127188
86	0x85	0.086931154
87	0x72	0.020863477
88	0x72	0.020863477
89	0x5c	-0.05563594
90	0x63	-0.031295218
91	0x95	0.1425671
92	0x63	-0.031295218
93	0x91	0.12865812
94	0x69	-0.010431739
95	0x68	-0.013908985
96	0x94	0.13908985
97	0x31	-0.20515753
98	0x6c	0.0
99	0x8c	0.11127188
100	0x8d	0.114749126
101	0x8e	0.11822637
102	0x5d	-0.052158695
103	0x8e	0.11822637
104	0x48	-0.12518087
105	0x77	0.03824971
106	0x7f	0.06606768
107	0x77	0.03824971
108	0x78	0.041726954
109	0x6f	0.010431739
110	0x6c	0.0
111	0x90	0.12518087
112	0x4a	-0.11822637
113	0x41	-0.14952159
114	0x80	0.06954493
115	0x73	0.024340725
116	0x7b	0.052158695
117	0x7e	0.062590435
118	0x55	-0.07997666
119	0x5d	-0.052158695
120	0x65	-0.024340725
121	0x74	0.02781797
122	0x2a	-0.22949825
123	0x54	-0.08345391
124	0x62	-0.034772463
125	0x65	-0.024340725
126	0x87	0.09388565
127	0x81	0.07302217
128	0x79	0.0452042
129	0x4b	-0.114749126
130	0x64	-0.02781797
131	0x4a	-0.11822637
132	0x88	0.0973629
133	0x92	0.13213536
134	0x6c	0.0
135	0x78	0.041726954
136	0x5a	-0.062590435
137	0x99	0.15647608
138	0x79	0.0452042
139	0x6f	0.010431739
140	0x64	-0.02781797
141	0x65	-0.024340725
142	0x3d	-0.16343057
143	0x51	-0.09388565
144	0x5e	-0.04868145
145	0x8a	0.10431739
146	0x96	0.14604434
147	0x56	-0.07649942
148	0x3a	-0.17386231
149	0x39	-0.17733955
150	0x5b	-0.059113186
151	0x4e	-0.10431739
152	0x85	0.086931154
153	0x79	0.0452042
154	0x5f	-0.0452042
155	0x6f	0.010431739
156	0x6e	0.0069544925
157	0x57	-0.07302217
158	0x51	-0.09388565
159	0x59	-0.06606768
160	0x8c	0.11127188
161	0x6c	0.0
162	0x61	-0.03824971
163	0x48	-0.12518087
164	0x49	-0.12170362
165	0xa2	0.1877713
166	0x4f	-0.100840144
167	0x65	-0.024340725
168	0x42	-0.14604434
169	0x60	-0.041726954
170	0x53	-0.086931154
171	0x62	-0.034772463
172	0x75	0.031295218
173	0x47	-0.12865812
174	0xa3	0.19124855
175	0x75	0.031295218
176	0x75	0.031295218
177	0x82	0.07649942
178	0x6a	-0.0069544925
179	0x81	0.07302217
180	0x77	0.03824971
181	0x76	0.034772463
182	0x7e	0.062590435
183	0x6b	-0.0034772463
184	0x4e	-0.10431739
185	0x6e	0.0069544925
186	0x87	0.09388565
187	0x96	0.14604434
188	0x62	-0.034772463
189	0x6b	-0.0034772463
190	0x3c	-0.16690782
191	0x3d	-0.16343057
192	0x9c	0.16690782
193	0x49	-0.12170362
194	0x47	-0.12865812
195	0x62	-0.034772463
196	0x94	0.13908985
197	0x8a	0.10431739
198	0x60	-0.041726954
199	0x35	-0.19124855
200	0x75	0.031295218
201	0x86	0.0904084
202	0x7b	0.052158695
203	0x8c	0.11127188
204	0x60	-0.041726954
205	0x61	-0.03824971
206	0x2b	-0.226021
207	0x85	0.086931154
208	0x6c	0.0
209	0x55	-0.07997666
210	0x5b	-0.059113186
211	0x7a	0.04868145
212	0x67	-0.017386232
213	0x36	-0.1877713
214	0x65	-0.024340725
215	0x81	0.07302217
216	0x69	-0.010431739
217	0x47	-0.12865812
218	0x30	-0.20863478
219	0x78	0.041726954
220	0xa0	0.1808168
221	0x43	-0.1425671
222	0x78	0.041726954
223	0x6b	-0.0034772463
224	0x7d	0.059113186
225	0x69	-0.010431739
226	0x76	0.034772463
227	0x79	0.0452042
228	0x5a	-0.062590435
229	0x75	0.031295218
230	0x82	0.07649942
231	0x50	-0.0973629
232	0x74	0.02781797
233	0x41	-0.14952159
234	0x52	-0.0904084
235	0x8f	0.12170362
236	0x8f	0.12170362
237	0x95	0.1425671
238	0x4f	-0.100840144
239	0x82	0.07649942
240	0x80	0.06954493
241	0x9f	0.17733955
242	0x7a	0.04868145
243	0x6d	0.0034772463
244	0x6b	-0.0034772463
245	0x71	0.017386232
246	0x95	0.1425671
247	0xbd	0.28165695
248	0x52	-0.0904084
249	0x92	0.13213536
250	0x4b	-0.114749126
251	0x55	-0.07997666
252	0x2f	-0.21211202
253	0x9c	0.16690782
254	0x84	0.08345391
255	0x4c	-0.11127188

DS-CNN/conv_ds_2/dw_conv/weights_quant/FakeQuantWithMinMaxVars u1 [1, 3, 3, 276] scale=0.016120402 zero_point=121
0	0x39	-1.0317057
1	0x82	0.14508362
2	0xb4	0.95110375
3	0x57	-0.5480937
4	0x52	-0.62869567
5	0x5f	-0.41913044
6	0x43	-0.8705017
7	0xa1	0.6448161
8	0x83	0.16120403
9	0x67	-0.29016724
10	0x70	-0.14508362
11	0x3d	-0.9672241
12	0x7b	0.032240804
13	0x43	-0.8705017
14	0x62	-0.37076926
15	0x50	-0.6609365
16	0x56	-0.56421405
17	0x6b	-0.22568563
18	0x50	-0.6609365
19	0x5b	-0.48361206
20	0x9f	0.6125753
21	0xcd	1.3541138
22	0x79	0.0
23	0x7a	0.016120402
24	0x88	0.24180603
25	0xc2	1.1767894
26	0xad	0.8382609
27	0x5c	-0.46749166
28	0x61	-0.38688964
29	0x8f	0.35464886
30	0x47	-0.8060201
31	0x99	0.51585287
32	0x5d	-0.45137125
33	0xb7	0.9994649
34	0xa2	0.6609365
35	0x6f	-0.16120403
36	0x41	-0.9027425
37	0x49	-0.7737793
38	0xcc	1.3379934
39	0x42	-0.88662213
40	0x63	-0.35464886
41	0x5c	-0.46749166
42	0x5d	-0.45137125
43	0x52	-0.62869567
44	0x8d	0.32240805
45	0x70	-0.14508362
46	0x15	-1.6120402
47	0xba	1.0478262
48	0x89	0.25792643
49	0x1f	-1.4508362
50	0x82	0.14508362
51	0xb9	1.0317057
52	0xe2	1.6926422
53	0x46	-0.8221405
54	0x93	0.41913044
55	0x56	-0.56421405
56	0x44	-0.8543813
57	0x91	0.38688964
58	0x65	-0.32240805
59	0x6e	-0.17732443
60	0x5f	-0.41913044
61	0x63	-0.35464886
62	0xff	2.1601338
63	0x43	-0.8705017
64	0x3a	-1.0155853
65	0x6c	-0.20956522
66	0x58	-0.53197324
67	0x90	0.37076926
68	0x98	0.49973246
69	0x77	-0.032240804
70	0x7e	0.08060201
71	0x85	0.19344482
72	0x61	-0.38688964
73	0x8d	0.32240805
74	0x46	-0.8221405
75	0x32	-1.1445485
76	0xad	0.8382609
77	0x68	-0.27404684
78	0x75	-0.06448161
79	0x9a	0.53197324
80	0x92	0.40301004
81	0x5e	-0.43525085
82	0x4b	-0.7415385
83	0x6e	-0.17732443
84	0x6a	-0.24180603
85	0x9f	0.6125753
86	0xaf	0.8705017
87	0x92	0.40301004
88	0x91	0.38688964
89	0x76	-0.048361205
90	0xbb	1.0639465
91	0x90	0.37076926
92	0xb4	0.95110375
93	0xb5	0.9672241
94	0xaa	0.7898997
95	0x7d	0.06448161
96	0xbb	1.0639465
97	0xae	0.8543813
98	0xba	1.0478262
99	0x9a	0.53197324
100	0xa4	0.6931773
101	0x98	0.49973246
102	0xbd	1.0961874
103	0x42	-0.88662213
104	0x58	-0.53197324
105	0x79	0.0
106	0x97	0.48361206
107	0xbb	1.0639465
108	0x58	-0.53197324
109	0x8a	0.27404684
110	0x7b	0.032240804
111	0x68	-0.27404684
112	0x8c	0.30628765
113	0x86	0.20956522
114	0x59	-0.51585287
115	0x78	-0.016120402
116	0x44	-0.8543813
117	0xa9	0.7737793
118	0x89	0.25792643
119	0x67	-0.29016724
120	0xcc	1.3379934
121	0xb5	0.9672241
122	0x98	0.49973246
123	0x58	-0.53197324
124	0x4d	-0.7092977
125	0x65	-0.32240805
126	0x8c	0.30628765
127	0x50	-0.6609365
128	0x43	-0.8705017
129	0x86	0.20956522
130	0x54	-0.59645486
131	0x38	-1.0478262
132	0x5e	-0.43525085
133	0x50	-0.6609365
134	0x94	0.43525085
135	0x8c	0.30628765
136	0x6d	-0.19344482
137	0x75	-0.06448161
138	0x95	0.45137125
139	0x87	0.22568563
140	0xc0	1.1445485
141	0x7f	0.09672241
142	0x4e	-0.6931773
143	0x79	0.0
144	0xa9	0.7737793
145	0x54	-0.59645486
146	0x70	-0.14508362
147	0x56	-0.56421405
148	0x4e	-0.6931773
149	0xa0	0.62869567
150	0x6b	-0.22568563
151	0x4a	-0.7576589
152	0xab	0.8060201
153	0x79	0.0
154	0xa7	0.7415385
155	0x70	-0.14508362
156	0x70	-0.14508362
157	0x67	-0.29016724
158	0x5e	-0.43525085
159	0xba	1.0478262
160	0x43	-0.8705017
161	0x4b	-0.7415385
162	0x50	-0.6609365
163	0x57	-0.5480937
164	0x94	0.43525085
165	0x76	-0.048361205
166	0x9c	0.56421405
167	0xd9	1.5475585
168	0xad	0.8382609
169	0xb9	1.0317057
170	0x86	0.20956522
171	0xc4	1.2090302
172	0xab	0.8060201
173	0x15	-1.6120402
174	0x78	-0.016120402
175	0x5b	-0.48361206
176	0x68	-0.27404684
177	0x50	-0.6609365
178	0x5a	-0.49973246
179	0x5e	-0.43525085
180	0x5b	-0.48361206
181	0x45	-0.8382609
182	0xab	0.8060201
183	0x6a	-0.24180603
184	0x5a	-0.49973246
185	0x99	0.51585287
186	0x8a	0.27404684
187	0x6b	-0.22568563
188	0x52	-0.62869567
189	0x95	0.45137125
190	0x8e	0.33852845
191	0x68	-0.27404684
192	0x76	-0.048361205
193	0x5d	-0.45137125
194	0x70	-0.14508362
195	0x62	-0.37076926
196	0x4b	-0.7415385
197	0xbf	1.1284281
198	0x5c	-0.46749166
199	0x5d	-0.45137125
200	0x84	0.17732443
201	0x7d	0.06448161
202	0x4c	-0.7254181
203	0x4a	-0.7576589
204	0x66	-0.30628765
205	0x5c	-0.46749166
206	0x74	-0.08060201
207	0x9b	0.5480937
208	0x1f	-1.4508362
209	0xb0	0.88662213
210	0x82	0.14508362
211	0x65	-0.32240805
212	0x31	-1.160669
213	0x54	-0.59645486
214	0x50	-0.6609365
215	0xaa	0.7898997
216	0x71	-0.12896322
217	0x6e	-0.17732443
218	0x85	0.19344482
219	0x90	0.37076926
220	0xbe	1.1123078
221	0x2b	-1.2573913
222	0x91	0.38688964
223	0x69	-0.25792643
224	0xb6	0.98334455
225	0x44	-0.8543813
226	0x6c	-0.20956522
227	0x63	-0.35464886
228	0x6d	-0.19344482
229	0x7b	0.032240804
230	0x50	-0.6609365
231	0xd1	1.4185954
232	0x57	-0.5480937
233	0x53	-0.6125753
234	0x8d	0.32240805
235	0x56	-0.56421405
236	0x75	-0.06448161
237	0xa5	0.7092977
238	0x99	0.51585287
239	0xa1	0.6448161
240	0x66	-0.30628765
241	0x69	-0.25792643
242	0x6a	-0.24180603
243	0xde	1.6281606
244	0x4e	-0.6931773
245	0x98	0.49973246
246	0xbb	1.0639465
247	0xa0	0.62869567
248	0x75	-0.06448161
249	0x73	-0.09672241
250	0x5a	-0.49973246
251	0x37	-1.0639465
252	0x7b	0.032240804
253	0x5e	-0.43525085
254	0x68	-0.27404684
255	0x78	-0.016120402

DS-CNN/conv_ds_2/pw_conv/weights_quant/FakeQuantWithMinMaxVars u1 [276, 1, 1, 276] scale=0.0026779196 zero_point=120
0	0x70	-0.021423357
1	0x66	-0.048202552
2	0x3f	-0.15264142
3	0x69	-0.040168792
4	0x5a	-0.080337584
5	0xa9	0.13121806
6	0x51	-0.10443886
7	0x4f	-0.109794706
8	0x41	-0.14728558
9	0x7d	0.013389598
10	0x73	-0.013389598
11	0x81	0.024101276
12	0xa1	0.109794706
13	0x75	-0.008033759
14	0x73	-0.013389598
15	0x75	-0.008033759
16	0x5d	-0.07230383
17	0x6c	-0.032135036
18	0x76	-0.005355839
19	0x9c	0.096405104
20	0xba	0.17674269
21	0x6f	-0.024101276
22	0x5d	-0.07230383
23	0x82	0.026779195
24	0x93	0.07230383
25	0x58	-0.08569343
26	0x8c	0.05355839
27	0xa1	0.109794706
28	0xac	0.13925181
29	0x64	-0.05355839
30	0xa5	0.12050638
31	0x9a	0.09104927
32	0x4a	-0.1231843
33	0x90	0.06427007
34	0x71	-0.018745437
35	0x7e	0.016067518
36	0x7e	0.016067518
37	0x8a	0.048202552
38	0x77	-0.0026779196
39	0xb2	0.15531933
40	0x7d	0.013389598
41	0xc0	0.19281021
42	0x59	-0.08301551
43	0x9f	0.10443886
44	0x2a	-0.20887773
45	0x9c	0.096405104
46	0x40	-0.1499635
47	0x95	0.07765967
48	0x97	0.08301551
49	0xac	0.13925181
50	0xae	0.14460766
51	0x83	0.029457115
52	0x47	-0.13121806
53	0x69	-0.040168792
54	0x50	-0.10711678
55	0x66	-0.048202552
56	0x5c	-0.07498175
57	0x48	-0.12854014
58	0x95	0.07765967
59	0x8f	0.06159215
60	0x56	-0.09104927
61	0x52	-0.101760946
62	0x8e	0.05891423
63	0x43	-0.14192973
64	0x55	-0.09372719
65	0x93	0.07230383
66	0x6f	-0.024101276
67	0x66	-0.048202552
68	0xaf	0.14728558
69	0x80	0.021423357
70	0x89	0.045524634
71	0x56	-0.09104927
72	0x6f	-0.024101276
73	0x98	0.08569343
74	0xce	0.23030108
75	0x69	-0.040168792
76	0x89	0.045524634
77	0x67	-0.045524634
78	0x50	-0.10711678
79	0xa4	0.11782846
80	0xab	0.1365739
81	0x92	0.06962591
82	0x6f	-0.024101276
83	0x9e	0.101760946
84	0x9a	0.09104927
85	0xa5	0.12050638
86	0x81	0.024101276
87	0x77	-0.0026779196
88	0x89	0.045524634
89	0x53	-0.09908302
90	0x5b	-0.07765967
91	0x40	-0.1499635
92	0x66	-0.048202552
93	0x9a	0.09104927
94	0x68	-0.042846713
95	0x5e	-0.06962591
96	0x8a	0.048202552
97	0x68	-0.042846713
98	0x63	-0.05623631
99	0x96	0.080337584
100	0x59	-0.08301551
101	0x51	-0.10443886
102	0x25	-0.22226733
103	0x68	-0.042846713
104	0x90	0.06427007
105	0x7c	0.010711678
106	0x7d	0.013389598
107	0x77	-0.0026779196
108	0x35	-0.1794206
109	0x4b	-0.12050638
110	0x47	-0.13121806
111	0xba	0.17674269
112	0x7c	0.010711678
113	0x90	0.06427007
114	0x5c	-0.07498175
115	0x83	0.029457115
116	0xa4	0.11782846
117	0xb5	0.1633531
118	0x7a	0.005355839
119	0x82	0.026779195
120	0x9f	0.10443886
121	0x98	0.08569343
122	0x76	-0.005355839
123	0x4a	-0.1231843
124	0x69	-0.040168792
125	0x39	-0.16870894
126	0x69	-0.040168792
127	0x83	0.029457115
128	0x90	0.06427007
129	0x7e	0.016067518
130	0xb3	0.15799725
131	0x70	-0.021423357
132	0x50	-0.10711678
133	0x5a	-0.080337584
134	0x61	-0.06159215
135	0x46	-0.13389598
136	0x9c	0.096405104
137	0x5d	-0.07230383
138	0x40	-0.1499635
139	0x9d	0.09908302
140	0xa8	0.12854014
141	0x86	0.037490875
142	0x3a	-0.16603102
143	0x3e	-0.15531933
144	0x83	0.029457115
145	0x53	-0.09908302
146	0x43	-0.14192973
147	0x91	0.06694799
148	0x9d	0.09908302
149	0xaa	0.13389598
150	0x52	-0.101760946
151	0x4f	-0.109794706
152	0x56	-0.09104927
153	0x6c	-0.032135036
154	0x93	0.07230383
155	0x9b	0.09372719
156	0x6d	-0.029457115
157	0x8e	0.05891423
158	0xa0	0.10711678
159	0x74	-0.010711678
160	0x66	-0.048202552
161	0x84	0.032135036
162	0x90	0.06427007
163	0x5c	-0.07498175
164	0x55	-0.09372719
165	0x8f	0.06159215
166	0x36	-0.17674269
167	0x66	-0.048202552
168	0x8e	0.05891423
169	0xbe	0.18745437
170	0x36	-0.17674269
171	0x4f	-0.109794706
172	0x9a	0.09104927
173	0x7b	0.008033759
174	0x01	-0.31867242
175	0xb1	0.15264142
176	0x51	-0.10443886
177	0x61	-0.06159215
178	0x53	-0.09908302
179	0x55	-0.09372719
180	0x65	-0.050880473
181	0x62	-0.05891423
182	0x41	-0.14728558
183	0x88	0.042846713
184	0x70	-0.021423357
185	0x7a	0.005355839
186	0x4f	-0.109794706
187	0x41	-0.14728558
188	0x78	0.0
189	0x76	-0.005355839
190	0x76	-0.005355839
191	0xc5	0.20619981
192	0x4a	-0.1231843
193	0xa0	0.10711678
194	0x8d	0.05623631
195	0x92	0.06962591
196	0xb9	0.17406477
197	0x8a	0.048202552
198	0x36	-0.17674269
199	0x40	-0.1499635
200	0xa4	0.11782846
201	0xab	0.1365739
202	0xaa	0.13389598
203	0xb5	0.1633531
204	0x76	-0.005355839
205	0x7b	0.008033759
206	0x8b	0.050880473
207	0x95	0.07765967
208	0x88	0.042846713
209	0x84	0.032135036
210	0x58	-0.08569343
211	0xa8	0.12854014
212	0xa6	0.1231843
213	0x56	-0.09104927
214	0x72	-0.016067518
215	0x46	-0.13389598
216	0xb4	0.16067517
217	0x70	-0.021423357
218	0x8c	0.05355839
219	0x9c	0.096405104
220	0x7e	0.016067518
221	0x9e	0.101760946
222	0x65	-0.050880473
223	0x6c	-0.032135036
224	0x7a	0.005355839
225	0x5b	-0.07765967
226	0x59	-0.08301551
227	0x6b	-0.034812953
228	0x6d	-0.029457115
229	0x63	-0.05623631
230	0x3b	-0.1633531
231	0x69	-0.040168792
232	0x89	0.045524634
233	0x72	-0.016067518
234	0x91	0.06694799
235	0xbf	0.19013229
236	0x7a	0.005355839
237	0x90	0.06427007
238	0x57	-0.088371344
239	0xa2	0.11247262
240	0x38	-0.17138685
241	0x3e	-0.15531933
242	0x75	-0.008033759
243	0x89	0.045524634
244	0x9f	0.10443886
245	0x66	-0.048202552
246	0x93	0.07230383
247	0xcf	0.232979
248	0x96	0.080337584
249	0x9a	0.09104927
250	0x3e	-0.15531933
251	0x86	0.037490875
252	0x52	-0.101760946
253	0x97	0.08301551
254	0x86	0.037490875
255	0x91	0.06694799

DS-CNN/conv_ds_3/dw_conv/weights_quant/FakeQuantWithMinMaxVars u1 [1, 3, 3, 276] scale=0.015043091 zero_point=115
0	0x6c	-0.10530163
1	0xab	0.84241307
2	0x80	0.19556019
3	0x67	-0.18051709
4	0x44	-0.7070253
5	0x65	-0.21060327
6	0x9d	0.63180983
7	0xd5	1.4742229
8	0xb0	0.9176285
9	0x7d	0.15043092
10	0xa3	0.72206837
11	0x57	-0.42120653
12	0x6d	-0.090258546
13	0xa3	0.72206837
14	0x55	-0.45129272
15	0x8a	0.3459911
16	0x5d	-0.330948
17	0x40	-0.76719767
18	0x87	0.30086184
19	0x7a	0.10530163
20	0x9a	0.58668053
21	0x6b	-0.12034473
22	0xa1	0.6919822
23	0x5a	-0.37607726
24	0x9e	0.6468529
25	0x8f	0.42120653
26	0x60	-0.28581873
27	0x47	-0.661896
28	0x26	-1.158318
29	0xc3	1.2034473
30	0x5c	-0.3459911
31	0x70	-0.045129273
32	0x7e	0.165474
33	0x8b	0.36103418
34	0x97	0.5415513
35	0x5a	-0.37607726
36	0x99	0.57163745
37	0x2b	-1.0831026
38	0x68	-0.165474
39	0x8b	0.36103418
40	0xa2	0.7070253
41	0xa5	0.7521545
42	0x8a	0.3459911
43	0x75	0.030086182
44	0x4b	-0.6017237
45	0x37	-0.90258545
46	0x92	0.46633583
47	0x86	0.28581873
48	0xba	1.0680594
49	0x5a	-0.37607726
50	0xeb	1.8051709
51	0xbd	1.1131887
52	0x8f	0.42120653
53	0x56	-0.43624964
54	0x63	-0.24068946
55	0x6e	-0.07521546
56	0x67	-0.18051709
57	0xca	1.308749
58	0x64	-0.22564636
59	0x6b	-0.12034473
60	0x83	0.24068946
61	0x7a	0.10530163
62	0xb4	0.9778009
63	0x92	0.46633583
64	0x7d	0.15043092
65	0xca	1.308749
66	0xa0	0.6769391
67	0x95	0.5114651
68	0x87	0.30086184
69	0xae	0.88754237
70	0xc6	1.2485765
71	0xbb	1.0831026
72	0xa8	0.7972838
73	0x72	-0.015043091
74	0x96	0.5265082
75	0x4b	-0.6017237
76	0x92	0.46633583
77	0x4b	-0.6017237
78	0x56	-0.43624964
79	0x8e	0.40616345
80	0xa0	0.6769391
81	0x71	-0.030086182
82	0xad	0.8724993
83	0x5d	-0.330948
84	0x72	-0.015043091
85	0x5c	-0.3459911
86	0x5e	-0.31590492
87	0x94	0.496422
88	0x6a	-0.13538782
89	0x49	-0.63180983
90	0x94	0.496422
91	0xa0	0.6769391
92	0x44	-0.7070253
93	0x54	-0.46633583
94	0x86	0.28581873
95	0x73	0.0
96	0xad	0.8724993
97	0xad	0.8724993
98	0x42	-0.73711145
99	0xb1	0.93267167
100	0x88	0.31590492
101	0x63	-0.24068946
102	0x97	0.5415513
103	0x49	-0.63180983
104	0x9f	0.661896
105	0x50	-0.5265082
106	0x4c	-0.58668053
107	0xb0	0.9176285
108	0x4e	-0.5565944
109	0x5f	-0.30086184
110	0x91	0.45129272
111	0x76	0.045129273
112	0x92	0.46633583
113	0x84	0.25573254
114	0x68	-0.165474
115	0x21	-1.2335335
116	0x97	0.5415513
117	0x7c	0.13538782
118	0x39	-0.8724993
119	0x58	-0.40616345
120	0x60	-0.28581873
121	0xd8	1.5193522
122	0x1b	-1.323792
123	0x82	0.22564636
124	0x27	-1.1432749
125	0x9c	0.61676675
126	0x25	-1.1733611
127	0x5b	-0.36103418
128	0xa3	0.72206837
129	0x6f	-0.060172364
130	0x52	-0.496422
131	0xb5	0.992844
132	0x74	0.015043091
133	0x37	-0.90258545
134	0x6b	-0.12034473
135	0x95	0.5114651
136	0x72	-0.015043091
137	0x8d	0.39112037
138	0x7d	0.15043092
139	0x53	-0.4813789
140	0x7b	0.12034473
141	0x41	-0.7521545
142	0xb5	0.992844
143	0x56	-0.43624964
144	0x50	-0.5265082
145	0x5d	-0.330948
146	0xcf	1.3839644
147	0x84	0.25573254
148	0x70	-0.045129273
149	0x5e	-0.31590492
150	0x7c	0.13538782
151	0xa3	0.72206837
152	0x6c	-0.10530163
153	0x7a	0.10530163
154	0x4e	-0.5565944
155	0x61	-0.27077565
156	0x4d	-0.57163745
157	0x92	0.46633583
158	0xa5	0.7521545
159	0x4f	-0.5415513
160	0xb9	1.0530164
161	0x76	0.045129273
162	0x68	-0.165474
163	0x5e	-0.31590492
164	0x71	-0.030086182
165	0x5d	-0.330948
166	0xa3	0.72206837
167	0x4f	-0.5415513
168	0x53	-0.4813789
169	0x74	0.015043091
170	0x56	-0.43624964
171	0xa6	0.76719767
172	0x78	0.07521546
173	0x5a	-0.37607726
174	0x5a	-0.37607726
175	0x74	0.015043091
176	0x6b	-0.12034473
177	0x43	-0.72206837
178	0x47	-0.661896
179	0x1d	-1.2937058
180	0x6d	-0.090258546
181	0x90	0.43624964
182	0xa1	0.6919822
183	0x53	-0.4813789
184	0x91	0.45129272
185	0x44	-0.7070253
186	0x19	-1.3538781
187	0x6b	-0.12034473
188	0x5a	-0.37607726
189	0x87	0.30086184
190	0x40	-0.76719767
191	0xa3	0.72206837
192	0x56	-0.43624964
193	0x8f	0.42120653
194	0x4f	-0.5415513
195	0x9f	0.661896
196	0x6f	-0.060172364
197	0x7d	0.15043092
198	0xb5	0.992844
199	0x5f	-0.30086184
200	0x8a	0.3459911
201	0x9a	0.58668053
202	0x52	-0.496422
203	0x7a	0.10530163
204	0x4f	-0.5415513
205	0x9e	0.6468529
206	0x71	-0.030086182
207	0x7b	0.12034473
208	0x6b	-0.12034473
209	0x63	-0.24068946
210	0x58	-0.40616345
211	0x2c	-1.0680594
212	0x79	0.090258546
213	0xb5	0.992844
214	0x5a	-0.37607726
215	0x36	-0.9176285
216	0x5a	-0.37607726
217	0xa1	0.6919822
218	0x38	-0.88754237
219	0xa2	0.7070253
220	0x84	0.25573254
221	0x41	-0.7521545
222	0xb4	0.9778009
223	0x40	-0.76719767
224	0x47	-0.661896
225	0x9a	0.58668053
226	0x78	0.07521546
227	0x9b	0.6017237
228	0x7f	0.18051709
229	0x88	0.31590492
230	0x3f	-0.78224075
231	0x93	0.4813789
232	0x66	-0.19556019
233	0x85	0.27077565
234	0x61	-0.27077565
235	0x9c	0.61676675
236	0x8d	0.39112037
237	0x74	0.015043091
238	0x51	-0.5114651
239	0x55	-0.45129272
240	0x9b	0.6017237
241	0x60	-0.28581873
242	0x68	-0.165474
243	0xa4	0.73711145
244	0x6f	-0.060172364
245	0x98	0.5565944
246	0xa4	0.73711145
247	0x6a	-0.13538782
248	0x4c	-0.58668053
249	0xbf	1.1432749
250	0x8e	0.40616345
251	0x63	-0.24068946
252	0x5a	-0.37607726
253	0x81	0.21060327
254	0x77	0.060172364
255	0xb8	1.0379733

DS-CNN/conv_ds_3/pw_conv/weights_quant/FakeQuantWithMinMaxVars u1 [276, 1, 1, 276] scale=0.0028111644 zero_point=123
0	0x6b	-0.04497863
1	0x7d	0.0056223287
2	0x71	-0.028111644
3	0x64	-0.06465678
4	0x48	-0.14336938
5	0xaa	0.13212472
6	0x3f	-0.16866986
7	0x5a	-0.09276842
8	0xaf	0.14618054
9	0x96	0.07590144
10	0x60	-0.07590144
11	0x90	0.05903445
12	0x63	-0.06746794
13	0x7f	0.011244657
14	0xc5	0.20802616
15	0x98	0.08152377
16	0x85	0.028111644
17	0x77	-0.011244657
18	0x97	0.078712605
19	0xa6	0.12088007
20	0x7f	0.011244657
21	0xa1	0.10682425
22	0x97	0.078712605
23	0x61	-0.07309027
24	0x53	-0.11244658
25	0x4d	-0.12931356
26	0x64	-0.06465678
27	0x7b	0.0
28	0x41	-0.16304754
29	0x48	-0.14336938
30	0x96	0.07590144
31	0x65	-0.061845616
32	0xaf	0.14618054
33	0x52	-0.11525774
34	0xa7	0.12369123
35	0x9d	0.09557959
36	0x7f	0.011244657
37	0x71	-0.028111644
38	0x9d	0.09557959
39	0x4a	-0.13774705
40	0x46	-0.1489917
41	0x8e	0.053412125
42	0x3e	-0.17148103
43	0x93	0.06746794
44	0x5e	-0.08152377
45	0x91	0.061845616
46	0xa4	0.11525774
47	0x46	-0.1489917
48	0x9a	0.087146096
49	0xa1	0.10682425
50	0x44	-0.15461405
51	0x84	0.025300479
52	0x84	0.025300479
53	0xb5	0.16304754
54	0x94	0.07027911
55	0x59	-0.09557959
56	0x97	0.078712605
57	0x6c	-0.042167466
58	0x9b	0.08995726
59	0x97	0.078712605
60	0x54	-0.10963541
61	0x85	0.028111644
62	0x8f	0.05622329
63	0x47	-0.14618054
64	0x9e	0.09839075
65	0xdb	0.26987177
66	0x5e	-0.08152377
67	0x6e	-0.036545135
68	0xa4	0.11525774
69	0x42	-0.16023637
70	0x86	0.030922808
71	0x60	-0.07590144
72	0xb3	0.15742521
73	0x73	-0.022489315
74	0xba	0.17710336
75	0x90	0.05903445
76	0x4a	-0.13774705
77	0x68	-0.053412125
78	0xac	0.13774705
79	0x83	0.022489315
80	0x80	0.014055822
81	0x85	0.028111644
82	0x49	-0.14055821
83	0x37	-0.19115917
84	0x64	-0.06465678
85	0x75	-0.016866986
86	0xa4	0.11525774
87	0x81	0.016866986
88	0x8c	0.047789793
89	0x58	-0.09839075
90	0x62	-0.07027911
91	0x6b	-0.04497863
92	0x65	-0.061845616
93	0xa0	0.10401308
94	0xa8	0.1265024
95	0x92	0.06465678
96	0x6c	-0.042167466
97	0x5f	-0.078712605
98	0x2d	-0.21927083
99	0x84	0.025300479
100	0x6f	-0.03373397
101	0x6c	-0.042167466
102	0x57	-0.101201914
103	0x3c	-0.17710336
104	0x7c	0.0028111644
105	0x98	0.08152377
106	0x91	0.061845616
107	0x81	0.016866986
108	0x8c	0.047789793
109	0xa5	0.1180689
110	0x53	-0.11244658
111	0x79	-0.0056223287
112	0x66	-0.05903445
113	0x75	-0.016866986
114	0x87	0.03373397
115	0x88	0.036545135
116	0xa0	0.10401308
117	0x31	-0.20802616
118	0xa1	0.10682425
119	0x6f	-0.03373397
120	0x6e	-0.036545135
121	0x89	0.039356302
122	0xbb	0.17991452
123	0x37	-0.19115917
124	0x82	0.019678151
125	0x9f	0.101201914
126	0x49	-0.14055821
127	0x3a	-0.18272568
128	0x51	-0.1180689
129	0x62	-0.07027911
130	0x65	-0.061845616
131	0xad	0.14055821
132	0x4a	-0.13774705
133	0x9d	0.09557959
134	0x48	-0.14336938
135	0x82	0.019678151
136	0x4c	-0.13212472
137	0x92	0.06465678
138	0xc0	0.19397034
139	0x41	-0.16304754
140	0x93	0.06746794
141	0x66	-0.05903445
142	0x61	-0.07309027
143	0x6c	-0.042167466
144	0x65	-0.061845616
145	0xab	0.13493589
146	0x7c	0.0028111644
147	0x62	-0.07027911
148	0x75	-0.016866986
149	0x6e	-0.036545135
150	0xa5	0.1180689
151	0x91	0.061845616
152	0xa6	0.12088007
153	0x7a	-0.0028111644
154	0x7d	0.0056223287
155	0x84	0.025300479
156	0x52	-0.11525774
157	0x95	0.07309027
158	0x75	-0.016866986
159	0x42	-0.16023637
160	0x76	-0.014055822
161	0x51	-0.1180689
162	0x9f	0.101201914
163	0x9e	0.09839075
164	0x69	-0.050600957
165	0x77	-0.011244657
166	0x96	0.07590144
167	0x64	-0.06465678
168	0x5d	-0.08433493
169	0x4d	-0.12931356
170	0x67	-0.05622329
171	0x80	0.014055822
172	0x73	-0.022489315
173	0x6d	-0.039356302
174	0x94	0.07027911
175	0xa9	0.12931356
176	0xa1	0.10682425
177	0x52	-0.11525774
178	0x7b	0.0
179	0x46	-0.1489917
180	0x73	-0.022489315
181	0x55	-0.10682425
182	0xa1	0.10682425
183	0x93	0.06746794
184	0xa5	0.1180689
185	0x90	0.05903445
186	0x72	-0.025300479
187	0x67	-0.05622329
188	0x5f	-0.078712605
189	0x5f	-0.078712605
190	0x68	-0.053412125
191	0x7e	0.008433493
192	0x84	0.025300479
193	0x64	-0.06465678
194	0x43	-0.15742521
195	0x90	0.05903445
196	0x7f	0.011244657
197	0x5e	-0.08152377
198	0xab	0.13493589
199	0x77	-0.011244657
200	0x89	0.039356302
201	0x1c	-0.2670606
202	0xad	0.14055821
203	0x98	0.08152377
204	0x6c	-0.042167466
205	0x97	0.078712605
206	0xb7	0.16866986
207	0x6f	-0.03373397
208	0x5c	-0.087146096
209	0x7d	0.0056223287
210	0xa3	0.11244658
211	0x7d	0.0056223287
212	0x9e	0.09839075
213	0x48	-0.14336938
214	0xa9	0.12931356
215	0x6f	-0.03373397
216	0x7e	0.008433493
217	0x69	-0.050600957
218	0x93	0.06746794
219	0x4a	-0.13774705
220	0xae	0.14336938
221	0xbb	0.17991452
222	0x60	-0.07590144
223	0xa5	0.1180689
224	0x77	-0.011244657
225	0x80	0.014055822
226	0x82	0.019678151
227	0x53	-0.11244658
228	0xa7	0.12369123
229	0x77	-0.011244657
230	0x96	0.07590144
231	0x46	-0.1489917
232	0x54	-0.10963541
233	0x5b	-0.08995726
234	0x74	-0.019678151
235	0x74	-0.019678151
236	0x88	0.036545135
237	0x55	-0.10682425
238	0x7c	0.0028111644
239	0x4f	-0.12369123
240	0x76	-0.014055822
241	0x5a	-0.09276842
242	0x4d	-0.12931356
243	0x8b	0.04497863
244	0x48	-0.14336938
245	0x88	0.036545135
246	0xc4	0.20521499
247	0x96	0.07590144
248	0x5a	-0.09276842
249	0x76	-0.014055822
250	0x47	-0.14618054
251	0x51	-0.1180689
252	0x9f	0.101201914
253	0x66	-0.05903445
254	0x90	0.05903445
255	0x83	0.022489315

DS-CNN/conv_ds_4/dw_conv/weights_quant/FakeQuantWithMinMaxVars u1 [1, 3, 3, 276] scale=0.013623464 zero_point=121
0	0xbd	0.92639554
1	0x75	-0.054493856
2	0x49	-0.65392625
3	0x98	0.42232737
4	0x97	0.40870392
5	0xe6	1.4849576
6	0x9a	0.44957432
7	0x91	0.32696313
8	0x83	0.13623464
9	0x8e	0.28609273
10	0x89	0.21797542
11	0x8d	0.27246928
12	0x76	-0.04087039
13	0xa7	0.62667936
14	0x6c	-0.17710502
15	0xb0	0.7492905
16	0x90	0.31333968
17	0x70	-0.12261117
18	0x59	-0.43595085
19	0x80	0.09536425
20	0xa7	0.62667936
21	0xa6	0.6130559
22	0x96	0.39508045
23	0x71	-0.10898771
24	0x89	0.21797542
25	0x80	0.09536425
26	0x65	-0.27246928
27	0x57	-0.46319777
28	0xb0	0.7492905
29	0x6e	-0.1498581
30	0x90	0.31333968
31	0xd3	1.2261118
32	0x92	0.3405866
33	0x33	-0.9536425
34	0x72	-0.09536425
35	0x6e	-0.1498581
36	0x9a	0.44957432
37	0x6c	-0.17710502
38	0xaa	0.6675497
39	0x90	0.31333968
40	0xc5	1.0353832
41	0xbc	0.91277206
42	0xcb	1.1171241
43	0x6d	-0.16348156
44	0x41	-0.762914
45	0x60	-0.3405866
46	0x4f	-0.57218546
47	0xbc	0.91277206
48	0xe1	1.4168402
49	0x60	-0.3405866
50	0x5b	-0.40870392
51	0x8e	0.28609273
52	0xa2	0.55856204
53	0x20	-1.2124883
54	0x88	0.20435196
55	0x8e	0.28609273
56	0x8d	0.27246928
57	0x80	0.09536425
58	0xc7	1.0626302
59	0xa2	0.55856204
60	0x6d	-0.16348156
61	0x7e	0.06811732
62	0x26	-1.1307476
63	0x5e	-0.36783352
64	0x65	-0.27246928
65	0x84	0.1498581
66	0x70	-0.12261117
67	0x4e	-0.58580893
68	0x92	0.3405866
69	0xba	0.88552517
70	0x38	-0.88552517
71	0x3f	-0.7901609
72	0x50	-0.55856204
73	0x5b	-0.40870392
74	0xba	0.88552517
75	0x90	0.31333968
76	0xcc	1.1307476
77	0x77	-0.027246928
78	0x61	-0.32696313
79	0x50	-0.55856204
80	0x8f	0.2997162
81	0xa6	0.6130559
82	0x42	-0.7492905
83	0x91	0.32696313
84	0xa3	0.57218546
85	0x5a	-0.42232737
86	0x9c	0.47682124
87	0x99	0.43595085
88	0x9e	0.50406814
89	0x43	-0.73566705
90	0x7f	0.08174078
91	0xe2	1.4304637
92	0xb1	0.762914
93	0xca	1.1035006
94	0x55	-0.4904447
95	0x56	-0.47682124
96	0x84	0.1498581
97	0xb3	0.7901609
98	0xc8	1.0762537
99	0xa7	0.62667936
100	0x44	-0.7220436
101	0x92	0.3405866
102	0xa3	0.57218546
103	0x86	0.17710502
104	0xb1	0.762914
105	0xa1	0.54493856
106	0x45	-0.7084201
107	0x9a	0.44957432
108	0x92	0.3405866
109	0x79	0.0
110	0xc4	1.0217597
111	0x8f	0.2997162
112	0x78	-0.013623464
113	0x63	-0.2997162
114	0x53	-0.5176916
115	0x4e	-0.58580893
116	0x9f	0.5176916
117	0xb0	0.7492905
118	0xc0	0.96726596
119	0x6c	-0.17710502
120	0x78	-0.013623464
121	0x96	0.39508045
122	0xb2	0.7765374
123	0x67	-0.24522234
124	0x6c	-0.17710502
125	0x74	-0.06811732
126	0x98	0.42232737
127	0x72	-0.09536425
128	0x54	-0.50406814
129	0x48	-0.6675497
130	0xb5	0.81740785
131	0x53	-0.5176916
132	0xa8	0.6403028
133	0x86	0.17710502
134	0x5a	-0.42232737
135	0xae	0.7220436
136	0xc1	0.9808894
137	0x6f	-0.13623464
138	0x5f	-0.35421005
139	0x89	0.21797542
140	0x7d	0.054493856
141	0x4e	-0.58580893
142	0x62	-0.31333968
143	0x66	-0.2588458
144	0x89	0.21797542
145	0xb8	0.8582782
146	0x7c	0.04087039
147	0x78	-0.013623464
148	0x62	-0.31333968
149	0x5e	-0.36783352
150	0x56	-0.47682124
151	0xd6	1.2669822
152	0x07	-1.5530748
153	0x47	-0.6811732
154	0x9d	0.4904447
155	0x75	-0.054493856
156	0xcf	1.1716179
157	0x6b	-0.1907285
158	0xbf	0.9536425
159	0x21	-1.1988648
160	0xae	0.7220436
161	0xa4	0.58580893
162	0x9c	0.47682124
163	0x9a	0.44957432
164	0xa0	0.5313151
165	0x88	0.20435196
166	0x3c	-0.8310313
167	0x37	-0.89914864
168	0xc1	0.9808894
169	0x84	0.1498581
170	0xb5	0.81740785
171	0x6c	-0.17710502
172	0xff	1.8255441
173	0x90	0.31333968
174	0xbb	0.89914864
175	0xb0	0.7492905
176	0xa2	0.55856204
177	0x51	-0.54493856
178	0x49	-0.65392625
179	0x36	-0.91277206
180	0x7f	0.08174078
181	0x58	-0.44957432
182	0x9f	0.5176916
183	0xc1	0.9808894
184	0x8a	0.23159888
185	0xb6	0.8310313
186	0x5f	-0.35421005
187	0x9e	0.50406814
188	0x30	-0.99451286
189	0xb3	0.7901609
190	0xc6	1.0490067
191	0x97	0.40870392
192	0xa1	0.54493856
193	0x69	-0.21797542
194	0xc0	0.96726596
195	0x3c	-0.8310313
196	0x7c	0.04087039
197	0x5f	-0.35421005
198	0xbd	0.92639554
199	0x76	-0.04087039
200	0x6f	-0.13623464
201	0x73	-0.08174078
202	0x83	0.13623464
203	0xa2	0.55856204
204	0x3a	-0.8582782
205	0x52	-0.5313151
206	0x97	0.40870392
207	0x95	0.381457
208	0x62	-0.31333968
209	0x91	0.32696313
210	0x7a	0.013623464
211	0x95	0.381457
212	0x5b	-0.40870392
213	0x44	-0.7220436
214	0xa2	0.55856204
215	0x5e	-0.36783352
216	0xb5	0.81740785
217	0xa7	0.62667936
218	0x3b	-0.84465474
219	0xb8	0.8582782
220	0x33	-0.9536425
221	0x9d	0.4904447
222	0xb6	0.8310313
223	0xa0	0.5313151
224	0xa6	0.6130559
225	0x5b	-0.40870392
226	0x42	-0.7492905
227	0x9c	0.47682124
228	0x85	0.16348156
229	0x7c	0.04087039
230	0xa6	0.6130559
231	0x87	0.1907285
232	0x2e	-1.0217597
233	0x9a	0.44957432
234	0x6b	-0.1907285
235	0x81	0.10898771
236	0x69	-0.21797542
237	0xc8	1.0762537
238	0xbb	0.89914864
239	0x40	-0.7765374
240	0x82	0.12261117
241	0x97	0.40870392
242	0x68	-0.23159888
243	0x9a	0.44957432
244	0x54	-0.50406814
245	0x46	-0.6947967
246	0x45	-0.7084201
247	0x92	0.3405866
248	0x41	-0.762914
249	0x35	-0.92639554
250	0xad	0.7084201
251	0x95	0.381457
252	0x4f	-0.57218546
253	0x6f	-0.13623464
254	0x77	-0.027246928
255	0xad	0.7084201

DS-CNN/conv_ds_4/pw_conv/weights_quant/FakeQuantWithMinMaxVars u1 [276, 1, 1, 276] scale=0.0025966412 zero_point=119
0	0x4c	-0.11165557
1	0x88	0.044142902
2	0x69	-0.036352977
3	0x74	-0.007789924
4	0x4f	-0.103865646
5	0x81	0.025966411
6	0x84	0.033756334
7	0x7e	0.018176489
8	0x7d	0.015579848
9	0x8b	0.051932823
10	0x70	-0.018176489
11	0x52	-0.09607572
12	0x85	0.036352977
13	0x7e	0.018176489
14	0x74	-0.007789924
15	0xa2	0.11165557
16	0x5b	-0.072705954
17	0x59	-0.07789923
18	0x8e	0.059722748
19	0x8b	0.051932823
20	0x86	0.038949616
21	0x6d	-0.025966411
22	0x6d	-0.025966411
23	0x83	0.031159695
24	0xad	0.14021863
25	0x5b	-0.072705954
26	0x7d	0.015579848
27	0x7d	0.015579848
28	0x7a	0.007789924
29	0x5b	-0.072705954
30	0x5a	-0.07530259
31	0xb0	0.14800856
32	0x7c	0.012983206
33	0x86	0.038949616
34	0x80	0.02336977
35	0x6a	-0.033756334
36	0x93	0.072705954
37	0x8f	0.06231939
38	0x59	-0.07789923
39	0x7c	0.012983206
40	0x6f	-0.02077313
41	0x58	-0.08049588
42	0x74	-0.007789924
43	0x95	0.07789923
44	0x68	-0.038949616
45	0x93	0.072705954
46	0x67	-0.04154626
47	0x84	0.033756334
48	0x90	0.06491603
49	0x43	-0.13502534
50	0x97	0.08309252
51	0x59	-0.07789923
52	0x9a	0.09088244
53	0x79	0.0051932824
54	0x84	0.033756334
55	0x82	0.028563052
56	0x3a	-0.15839511
57	0x6a	-0.033756334
58	0x7c	0.012983206
59	0x70	-0.018176489
60	0x9a	0.09088244
61	0x85	0.036352977
62	0x72	-0.012983206
63	0x96	0.08049588
64	0x88	0.044142902
65	0x4d	-0.10905893
66	0x59	-0.07789923
67	0x89	0.04673954
68	0x4c	-0.11165557
69	0x8a	0.049336184
70	0x71	-0.015579848
71	0x5b	-0.072705954
72	0x6f	-0.02077313
73	0x85	0.036352977
74	0x7b	0.010386565
75	0x68	-0.038949616
76	0x72	-0.012983206
77	0x79	0.0051932824
78	0x59	-0.07789923
79	0x46	-0.12723541
80	0x7b	0.010386565
81	0x7f	0.02077313
82	0x86	0.038949616
83	0x43	-0.13502534
84	0x9a	0.09088244
85	0x6a	-0.033756334
86	0x82	0.028563052
87	0x81	0.025966411
88	0x5d	-0.06751267
89	0x72	-0.012983206
90	0x91	0.06751267
91	0x7f	0.02077313
92	0x8f	0.06231939
93	0x86	0.038949616
94	0x5b	-0.072705954
95	0x77	0.0
96	0xa5	0.119445495
97	0x65	-0.04673954
98	0x3c	-0.15320183
99	0xa2	0.11165557
100	0x98	0.08568916
101	0x5c	-0.070109315
102	0x8b	0.051932823
103	0x50	-0.10126901
104	0x74	-0.007789924
105	0x84	0.033756334
106	0x98	0.08568916
107	0x93	0.072705954
108	0x7d	0.015579848
109	0x6c	-0.028563052
110	0x6a	-0.033756334
111	0x60	-0.059722748
112	0x88	0.044142902
113	0x60	-0.059722748
114	0x76	-0.0025966412
115	0xb1	0.15060519
116	0x8d	0.057126105
117	0x7c	0.012983206
118	0x78	0.0025966412
119	0x50	-0.10126901
120	0x79	0.0051932824
121	0x4a	-0.116848856
122	0x64	-0.049336184
123	0x65	-0.04673954
124	0x7e	0.018176489
125	0x89	0.04673954
126	0x91	0.06751267
127	0x8e	0.059722748
128	0x76	-0.0025966412
129	0x7b	0.010386565
130	0x92	0.070109315
131	0x5b	-0.072705954
132	0x83	0.031159695
133	0x7f	0.02077313
134	0x89	0.04673954
135	0x79	0.0051932824
136	0x78	0.0025966412
137	0x79	0.0051932824
138	0x68	-0.038949616
139	0x9b	0.09347908
140	0x6e	-0.02336977
141	0x84	0.033756334
142	0x69	-0.036352977
143	0x90	0.06491603
144	0x7f	0.02077313
145	0x59	-0.07789923
146	0x73	-0.010386565
147	0x84	0.033756334
148	0x81	0.025966411
149	0x93	0.072705954
150	0x6c	-0.028563052
151	0x8c	0.054529466
152	0x7d	0.015579848
153	0x5e	-0.06491603
154	0x64	-0.049336184
155	0x5d	-0.06751267
156	0x60	-0.059722748
157	0x5b	-0.072705954
158	0x7d	0.015579848
159	0x89	0.04673954
160	0x42	-0.13762198
161	0x9d	0.09867237
162	0x77	0.0
163	0x88	0.044142902
164	0x61	-0.057126105
165	0x71	-0.015579848
166	0x94	0.07530259
167	0x99	0.088285804
168	0x4f	-0.103865646
169	0x5d	-0.06751267
170	0x84	0.033756334
171	0x3d	-0.15060519
172	0x63	-0.051932823
173	0x4b	-0.11425221
174	0x3d	-0.15060519
175	0x48	-0.122042134
176	0x6d	-0.025966411
177	0x65	-0.04673954
178	0x94	0.07530259
179	0x90	0.06491603
180	0x62	-0.054529466
181	0x73	-0.010386565
182	0x64	-0.049336184
183	0x79	0.0051932824
184	0x74	-0.007789924
185	0x3c	-0.15320183
186	0x74	-0.007789924
187	0x6c	-0.028563052
188	0x7c	0.012983206
189	0x76	-0.0025966412
190	0x5d	-0.06751267
191	0x4a	-0.116848856
192	0x9e	0.10126901
193	0x7c	0.012983206
194	0x60	-0.059722748
195	0x9d	0.09867237
196	0x55	-0.088285804
197	0x8d	0.057126105
198	0x6a	-0.033756334
199	0x6e	-0.02336977
200	0x86	0.038949616
201	0x7a	0.007789924
202	0x71	-0.015579848
203	0x6b	-0.031159695
204	0x86	0.038949616
205	0x61	-0.057126105
206	0x5c	-0.070109315
207	0x47	-0.12463878
208	0x57	-0.08309252
209	0x75	-0.0051932824
210	0x62	-0.054529466
211	0x54	-0.09088244
212	0x6b	-0.031159695
213	0x63	-0.051932823
214	0x56	-0.08568916
215	0x91	0.06751267
216	0x4c	-0.11165557
217	0x99	0.088285804
218	0x7f	0.02077313
219	0x9a	0.09088244
220	0x69	-0.036352977
221	0x69	-0.036352977
222	0x84	0.033756334
223	0x6e	-0.02336977
224	0x68	-0.038949616
225	0x42	-0.13762198
226	0x68	-0.038949616
227	0x7a	0.007789924
228	0x98	0.08568916
229	0x53	-0.09347908
230	0x94	0.07530259
231	0x8b	0.051932823
232	0x56	-0.08568916
233	0x60	-0.059722748
234	0x47	-0.12463878
235	0x7e	0.018176489
236	0x9a	0.09088244
237	0x6f	-0.02077313
238	0x5d	-0.06751267
239	0x82	0.028563052
240	0x85	0.036352977
241	0x7c	0.012983206
242	0x8c	0.054529466
243	0x7e	0.018176489
244	0x62	-0.054529466
245	0x72	-0.012983206
246	0x80	0.02336977
247	0x6a	-0.033756334
248	0x7f	0.02077313
249	0x79	0.0051932824
250	0x48	-0.122042134
251	0x3e	-0.14800856
252	0x71	-0.015579848
253	0xa0	0.10646229
254	0x95	0.07789923
255	0x60	-0.059722748
