nn_menu/starters/keyword_spotting/model/KWS_ds_cnn_s_quant_power.tflite (tflite, 30840 bytes, 10 tensors)

DS-CNN/conv_1/weights_quant/FakeQuantWithMinMaxVars u1 [1, 10, 4, 64] scale=0.00078801747 zero_point=128
0.007880175 0.0023640525 -0.00078801747 -0.0023640525 0.004728105 -0.014972332 0.032308716 -0.048069067
0.005516122 -0.023640525 -0.0070921574 0.008668192 0.041764926 -0.013396297 -0.00078801747 -0.0031520699
0.033884753 -0.01576035 -0.038612857 0.0 -0.0031520699 0.0126082795 0.0126082795 -0.0031520699
0.0031520699 -0.011032244 -0.0023640525 0.005516122 -0.014184315 0.033884753 0.0023640525 0.0031520699
-0.01576035 0.0063041397 -0.017336383 -0.011820262 -0.014972332 0.018124402 -0.00945621 -0.011032244
0.032308716 0.005516122 0.016548367 0.0 -0.00078801747 -0.025216559 -0.021276472 -0.004728105
0.0063041397 0.004728105 0.023640525 -0.004728105 0.05279717 -0.007880175 -0.0039400873 0.0039400873
-0.00078801747 0.004728105 -0.0063041397 0.029156646 -0.004728105 0.0039400873 -0.0015760349 -0.0063041397
0.00078801747 0.00078801747 -0.0023640525 -0.00945621 -0.0023640525 0.026004577 0.007880175 0.013396297
0.0063041397 0.020488454 0.00945621 -0.0063041397 -0.005516122 0.00078801747 0.0126082795 0.0015760349
0.029156646 -0.0070921574 0.0315207 0.0063041397 -0.0039400873 0.0031520699 0.0039400873 0.0039400873
-0.0039400873 0.011820262 0.0 -0.011032244 -0.0126082795 0.016548367 0.0031520699 0.036248803
-0.0070921574 0.026792593 0.013396297 0.013396297 0.007880175 -0.010244227 0.01891242 -0.011820262
-0.038612857 -0.011820262 0.01576035 0.01891242 0.0031520699 -0.007880175 0.0126082795 0.0023640525
0.010244227 0.0315207 0.00945621 0.0126082795 0.01576035 -0.008668192 -0.00078801747 -0.0063041397
-0.00945621 0.010244227 -0.029156646 0.0070921574 -0.00945621 0.008668192 -0.021276472 -0.00078801747
-0.025216559 -0.017336383 0.0031520699 -0.0063041397 -0.008668192 0.008668192 -0.022064488 0.00945621
0.0126082795 0.02442854 0.005516122 0.010244227 0.0063041397 0.005516122 -0.0031520699 -0.021276472
0.013396297 0.01576035 0.022852506 -0.0031520699 -0.013396297 -0.010244227 0.008668192 -0.019700436
0.008668192 -0.0039400873 -0.02836863 0.014184315 -0.01576035 0.019700436 -0.0015760349 -0.023640525
-0.008668192 -0.011820262 -0.02442854 0.01576035 0.008668192 -0.018124402 -0.016548367 -0.020488454
-0.051221136 -0.004728105 -0.01576035 0.02442854 0.014972332 0.018124402 0.013396297 -0.005516122
-0.014972332 0.010244227 -0.008668192 0.0015760349 -0.0031520699 0.0070921574 -0.0126082795 0.007880175
0.004728105 0.0070921574 0.0070921574 0.02836863 0.014972332 -0.0063041397 0.004728105 0.019700436
0.010244227 0.025216559 -0.0039400873 0.021276472 -0.0039400873 0.0023640525 -0.017336383 -0.014972332
-0.01576035 -0.011032244 0.013396297 0.0126082795 -0.0070921574 -0.0126082795 -0.00945621 0.0039400873
0.020488454 0.0031520699 -0.011032244 -0.013396297 -0.0031520699 -0.021276472 0.02836863 -0.004728105
-0.0126082795 0.005516122 0.0126082795 -0.00945621 -0.0031520699 0.00078801747 -0.014972332 -0.05594924
0.0023640525 -0.018124402 -0.035460785 0.00945621 -0.0039400873 -0.04649303 -0.0023640525 -0.021276472
-0.050433118 -0.00945621 0.0023640525 -0.0023640525 0.011820262 -0.014972332 0.020488454 0.0031520699
-0.0063041397 -0.029156646 0.011820262 -0.005516122 -0.005516122 0.0031520699 0.008668192 0.0070921574
0.014972332 0.011820262 0.021276472 0.026792593 0.005516122 0.004728105 -0.0015760349 -0.0031520699
00000000: 8a83 7f7d 866d a943 8762 778b b56f 7f7c
00000010: ab6c 4f80 7c90 907c 8472 7d87 6eab 8384
00000020: 6c88 6a71 6d97 7472 a987 9580 7f60 657a
00000030: 8886 9e7a c376 7b85 7f86 78a5 7a85 7e78
00000040: 8181 7d74 7da1 8a91 889a 8c78 7981 9082
00000050: a577 a888 7b84 8585 7b8f 8072 7095 84ae
00000060: 77a2 9191 8a73 9871 4f71 9498 8476 9083
00000070: 8da8 8c90 9475 7f78 748d 5b89 748b 657f
00000080: 606a 8478 758b 648c 909f 878d 8887 7c65
00000090: 9194 9d7c 6f73 8b67 8b7b 5c92 6c99 7e62
000000a0: 7571 6194 8b69 6b66 3f7a 6c9f 9397 9179
000000b0: 6d8d 7582 7c89 708a 8689 89a4 9378 8699
000000c0: 8da0 7b9b 7b83 6a6d 6c72 9190 7770 7485
000000d0: 9a84 726f 7c65 a47a 7087 9074 7c81 6d39
000000e0: 8369 538c 7b45 7d65 4074 837d 8f6d 9a84
000000f0: 785b 8f79 7984 8b89 938f 9ba2 8786 7e7c

DS-CNN/conv_ds_1/dw_conv/weights_quant/FakeQuantWithMinMaxVars u1 [1, 3, 3, 64] scale=0.021644736 zero_point=128
-1.0173026 0.58440787 0.6060526 1.4501973 0.7792105 -0.4761842 -0.08657894 -1.0822368
-0.021644736 0.9307236 0.45453945 -0.38960525 -0.62769735 -0.4761842 0.67098683 -0.3679605
0.12986842 1.7965131 -0.021644736 -0.08657894 0.28138158 0.3030263 0.28138158 0.8874342
0.735921 -0.9090789 0.67098683 -1.0389473 -0.08657894 0.62769735 -0.58440787 -0.67098683
-0.28138158 0.15151314 -0.3679605 1.2553947 -1.6449999 0.28138158 0.32467103 1.0822368
0.19480263 0.4761842 -0.04328947 -0.9090789 0.8008552 0.71427625 -0.17315789 -0.19480263
-0.28138158 -0.69263154 0.19480263 1.7315788 -0.67098683 0.49782893 0.12986842 1.23375
0.3030263 -0.15151314 0.10822368 -0.25973684 0.8441447 1.1255263 1.7315788 0.25973684
-0.08657894 -0.4328947 -2.4458551 -0.49782893 0.3030263 -0.9523684 0.7792105 0.735921
-0.25973684 -0.67098683 -0.67098683 0.21644735 0.04328947 -0.32467103 -1.6882894 -1.23375
-0.34631577 -0.56276315 -0.8008552 -0.9307236 0.06493421 0.7792105 -0.21644735 0.75756574
0.62769735 -0.3030263 -0.99565786 0.45453945 -0.58440787 -0.21644735 0.17315789 0.32467103
0.19480263 0.9307236 -0.71427625 -0.9090789 -0.9523684 0.4761842 -0.34631577 -1.2121052
-0.4328947 -1.6449999 0.28138158 0.735921 -1.3636184 0.62769735 -0.12986842 0.4328947
-0.12986842 -0.6060526 -1.0389473 -0.41124997 -0.45453945 -1.3636184 0.9740131 0.04328947
-0.67098683 -0.45453945 -0.9523684 0.34631577 0.28138158 0.58440787 -0.9740131 -0.3030263
0.41124997 1.0389473 0.8441447 -0.32467103 -0.21644735 0.45453945 0.021644736 -0.4761842
0.32467103 -0.25973684 0.25973684 -0.38960525 -0.3679605 0.62769735 1.4501973 0.9523684
0.4761842 -1.060592 0.8441447 -1.0173026 0.021644736 -1.883092 0.56276315 -0.17315789
-1.9913157 -0.32467103 -0.6060526 -0.71427625 0.19480263 0.3030263 -0.38960525 0.58440787
0.41124997 0.99565786 -0.3679605 0.9090789 0.8441447 0.6060526 -0.38960525 -0.6060526
-0.08657894 1.4285525 1.5800657 -0.15151314 -1.1255263 -0.69263154 1.4069078 0.5194737
-2.121184 0.6060526 0.38960525 0.5194737 0.15151314 -1.7532235 -0.8657894 0.735921
1.2770394 -0.10822368 0.5411184 0.49782893 0.45453945 -2.0778947 0.62769735 0.38960525
0.7792105 0.0 -0.8008552 0.3679605 1.1904604 -0.19480263 -0.67098683 -0.8008552
0.8008552 0.49782893 0.8874342 -0.10822368 0.0 0.8874342 0.17315789 -0.56276315
0.99565786 -0.735921 0.15151314 0.04328947 0.3030263 0.64934206 -0.04328947 -0.71427625
-0.04328947 0.8008552 0.71427625 0.64934206 0.04328947 -1.7315788 0.15151314 0.41124997
0.9740131 -0.67098683 0.25973684 0.8657894 0.34631577 -1.060592 1.1038815 -1.0822368
-0.49782893 -0.64934206 -0.41124997 0.58440787 -1.558421 0.3679605 -0.8008552 0.34631577
0.5194737 0.7792105 -1.2553947 -0.6060526 0.62769735 -0.9090789 0.99565786 -1.1904604
-0.2380921 0.06493421 -0.82249993 -0.15151314 0.32467103 1.1904604 -0.19480263 0.15151314
00000000: 519b 9cc3 a46a 7c4e 7fab 956e 636a 9f6f
00000010: 86d3 7f7c 8d8e 8da9 a256 9f50 7c9d 6561
00000020: 7387 6fba 348d 8fb2 8996 7e56 a5a1 7877
00000030: 7360 89d0 6197 86b9 8e79 8574 a7b4 d08c
00000040: 7c6c 0f69 8e54 a4a2 7461 618a 8271 3247
00000050: 7066 5b55 83a4 76a3 9d72 5295 6576 888f
00000060: 89ab 5f56 5496 7048 6c34 8da2 419d 7a94
00000070: 7a64 506d 6b41 ad82 616b 5490 8d9b 5372
00000080: 93b0 a771 7695 816a 8f74 8c6e 6f9d c3ac
00000090: 964f a751 8129 9a78 2471 645f 898e 6e9b
000000a0: 93ae 6faa a79c 6e64 7cc2 c979 4c60 c198
000000b0: 1e9c 9298 872f 58a2 bb7b 9997 9520 9d92
000000c0: a480 5b91 b777 615b a597 a97b 80a9 8866
000000d0: ae5e 8782 8e9e 7e5f 7ea5 a19e 8230 8793
000000e0: ad61 8ca8 904f b34e 6962 6d9b 3891 5b90
000000f0: 98a4 4664 9d56 ae49 7583 5a79 8fb7 7787

DS-CNN/conv_ds_1/pw_conv/weights_quant/FakeQuantWithMinMaxVars u1 [64, 1, 1, 64] scale=0.005275496 zero_point=128
-0.2584993 0.116060905 0.15298937 0.005275496 -0.094958924 -0.052754957 0.116060905 -0.015826488
0.1266119 -0.2690503 -0.14243838 0.07913244 -0.34290722 0.031652976 0.27960128 0.03692847
-0.29015228 0.047479462 -0.17936686 -0.29015228 -0.32180524 0.20574434 -0.08968343 -0.23212181
0.15826488 0.18464236 0.28487676 -0.11078541 -0.052754957 -0.23739731 -0.36928472 -0.31652975
-0.06330595 0.047479462 -0.058030453 -0.23739731 -0.010550992 -0.010550992 -0.19519335 0.17936686
-0.18991785 0.23212181 0.0 -0.1266119 0.08440793 0.116060905 -0.13188739 0.052754957
-0.07913244 0.20574434 0.0 0.08968343 0.21629533 0.27960128 -0.29542777 0.18464236
-0.16881587 0.094958924 -0.010550992 0.22157082 0.29015228 0.14243838 0.15826488 0.07385694
0.0 -0.06858145 -0.06330595 0.11078541 -0.015826488 0.36928472 -0.3587337 -0.1266119
-0.021101983 0.2426728 -0.08440793 0.08968343 -0.19519335 0.07913244 0.06330595 0.052754957
0.32180524 0.31125426 -0.052754957 0.052754957 0.18464236 -0.16881587 0.19519335 -0.042203967
0.010550992 -0.21101983 0.1213364 0.14243838 -0.23212181 -0.105509914 0.116060905 0.0
0.1266119 -0.031652976 -0.021101983 0.18464236 0.06858145 -0.19519335 0.058030453 -0.2584993
0.19519335 -0.058030453 -0.1213364 0.17936686 -0.14771388 -0.27960128 -0.20574434 0.08968343
0.11078541 0.21101983 0.06858145 0.19519335 -0.11078541 -0.094958924 -0.2479483 0.17936686
0.19519335 0.116060905 0.047479462 -0.15298937 -0.06330595 0.116060905 -0.19519335 0.2690503
-0.2532238 -0.17409137 -0.026377479 -0.06858145 -0.31125426 0.27960128 -0.15826488 0.005275496
0.08968343 -0.14243838 -0.30597875 0.14243838 0.36928472 0.005275496 -0.16881587 0.15826488
-0.06858145 0.3640092 0.03692847 0.18991785 -0.1371629 0.38511118 -0.23212181 0.2532238
0.47479463 -0.058030453 0.17936686 -0.32708073 -0.19519335 0.047479462 0.021101983 -0.1213364
-0.015826488 0.105509914 -0.08440793 -0.30597875 -0.06330595 -0.21629533 0.44841716 0.094958924
-0.010550992 -0.058030453 -0.14243838 -0.058030453 -0.116060905 -0.17936686 -0.41148868 -0.40093768
-0.042203967 0.03692847 0.15826488 0.22684632 0.010550992 -0.11078541 0.15298937 0.15826488
0.21629533 0.058030453 -0.20574434 -0.07913244 0.1371629 -0.1266119 -0.22684632 -0.058030453
-0.08440793 0.08440793 0.20046884 -0.010550992 0.14243838 -0.1213364 -0.026377479 0.1213364
0.021101983 -0.17409137 -0.21101983 0.28487676 0.20574434 0.026377479 -0.116060905 0.094958924
0.031652976 0.13188739 -0.27960128 -0.08440793 0.06858145 0.005275496 0.0 -0.3640092
-0.10023442 -0.10023442 0.3956622 -0.010550992 0.13188739 -0.010550992 0.031652976 0.105509914
0.11078541 0.26377478 -0.005275496 -0.3903867 0.06330595 0.08968343 -0.1371629 0.015826488
-0.20574434 -0.21629533 0.16354036 -0.11078541 0.13188739 -0.026377479 0.005275496 -0.22157082
0.010550992 0.21629533 -0.15826488 -0.042203967 -0.08968343 0.17409137 0.015826488 -0.116060905
-0.15826488 0.2690503 -0.2584993 0.23739731 0.06858145 0.1371629 0.27960128 -0.16881587
00000000: 4f96 9d81 6e76 967d 984d 658f 3f86 b587
00000010: 4989 5e49 43a7 6f54 9ea3 b66b 7653 3a44
00000020: 7489 7553 7e7e 5ba2 5cac 8068 9096 678a
00000030: 71a7 8091 a9b5 48a3 6092 7eaa b79b 9e8e
00000040: 8073 7495 7dc6 3c68 7cae 7091 5b8f 8c8a
00000050: bdbb 768a a360 a578 8258 979b 546c 9680
00000060: 987a 7ca3 8d5b 8b4f a575 69a2 644b 5991
00000070: 95a8 8da5 6b6e 51a2 a596 8963 7496 5bb3
00000080: 505f 7b73 45b5 6281 9165 469b c681 609e
00000090: 73c5 87a4 66c9 54b0 da75 a242 5b89 8469
000000a0: 7d94 7046 7457 d592 7e75 6575 6a5e 3234
000000b0: 7887 9eab 826b 9d9e a98b 5971 9a68 5575
000000c0: 7090 a67e 9b69 7b97 845f 58b6 a785 6a92
000000d0: 8699 4b70 8d81 803b 6d6d cb7e 997e 8694
000000e0: 95b2 7f36 8c91 6683 5957 9f6b 997b 8156
000000f0: 82a9 6278 6fa1 836a 62b3 4fad 8d9a b560

DS-CNN/conv_ds_2/dw_conv/weights_quant/FakeQuantWithMinMaxVars u1 [1, 3, 3, 64] scale=0.013021008 zero_point=128
0.44271427 -0.20833613 0.42969328 -0.52084035 0.74219745 0.06510504 0.9244916 1.4974159
-0.22135714 -0.40365124 -0.013021008 0.06510504 -0.052084032 -0.8073025 -0.37760922 -0.026042016
0.06510504 -1.2630378 -0.9375126 -0.59896636 -0.9895966 1.1718907 0.3125042 -0.33854622
1.0286596 0.54688233 -0.6250084 -0.026042016 0.6250084 0.66407144 0.039063025 -0.6380294
0.8463655 0.9244916 1.5104369 0.44271427 -0.71615547 -0.52084035 1.0547017 -0.9635546
0.23437814 1.3021008 -0.74219745 0.44271427 0.61198735 0.53386134 0.20833613 0.87240756
-0.41667226 0.36458823 -0.1562521 1.2500168 0.1562521 -0.5729244 -0.33854622 -0.3255252
0.33854622 0.61198735 -0.74219745 -0.6510504 -0.07812605 0.6901134 0.85938656 0.40365124
-0.4557353 0.7682395 0.22135714 -0.6510504 -0.07812605 0.026042016 0.19531512 -0.3255252
0.13021009 -0.3255252 -0.5599033 0.54688233 -0.7682395 -0.40365124 0.039063025 0.13021009
0.36458823 -0.052084032 -0.3515672 0.95053357 -0.37760922 1.0547017 0.67709243 -0.4687563
1.3541849 0.44271427 -0.29948318 1.2369958 -0.4557353 -0.61198735 0.3125042 0.0
-0.9375126 -0.013021008 1.4713739 -0.29948318 -0.09114706 0.1432311 -0.20833613 0.75521845
0.11718907 -0.16927311 -1.3411639 0.039063025 0.29948318 0.3125042 0.5599033 -0.09114706
0.7031344 -0.23437814 1.5104369 0.72917646 0.11718907 -0.013021008 -0.87240756 0.039063025
1.1588697 0.61198735 -0.29948318 -0.20833613 -0.95053357 -0.013021008 0.5599033 -0.37760922
-0.4557353 -1.0807437 -0.27344117 0.67709243 -0.40365124 0.6901134 -0.20833613 0.9244916
0.7812605 0.6510504 -0.26042017 1.0937647 -0.8463655 0.58594537 -0.9114706 0.37760922
-0.6901134 -0.9114706 -0.22135714 0.37760922 -0.95053357 -0.53386134 0.3255252 0.052084032
0.18229412 -0.7031344 0.33854622 0.29948318 1.0677227 0.27344117 0.1562521 -0.58594537
0.104168065 -0.4557353 0.18229412 -0.9244916 0.3515672 0.4947983 0.7942815 -0.9895966
-0.039063025 -1.2239747 -0.58594537 -0.039063025 0.39063025 0.013021008 0.75521845 -0.40365124
-0.2864622 -0.5078193 -1.1588697 0.88542855 0.039063025 0.74219745 0.18229412 -1.601584
0.5729244 0.1432311 -0.026042016 0.22135714 -0.36458823 0.58594537 0.61198735 0.8203235
0.4687563 -0.75521845 0.71615547 -0.4817773 -0.8463655 1.3151218 0.5729244 0.6250084
-0.26042017 -0.44271427 0.09114706 0.0 -0.7682395 1.2760588 -0.66407144 0.13021009
1.2890798 -0.85938656 -0.2864622 -0.4687563 0.026042016 -0.4947983 -0.85938656 -0.6250084
0.11718907 0.37760922 -0.71615547 0.039063025 0.104168065 0.7682395 -0.40365124 -0.40365124
0.5729244 -0.3255252 -1.1198066 1.653668 0.26042017 -0.59896636 1.1718907 0.5599033
0.41667226 0.67709243 -0.24739915 0.27344117 -0.5599033 0.54688233 0.74219745 0.75521845
-0.33854622 0.06510504 -0.3125042 0.85938656 0.54688233 -0.2864622 -0.104168065 -0.44271427
-0.24739915 -0.13021009 -0.36458823 -0.5729244 -0.42969328 0.20833613 0.3515672 0.29948318
00000000: a270 a158 b985 c7f3 6f61 7f85 7c42 637e
00000010: 851f 3852 34da 9866 cfaa 507e b0b3 834f
00000020: c1c7 f4a2 4958 d136 92e4 47a2 afa9 90c3
00000030: 609c 74e0 8c54 6667 9aaf 474e 7ab5 c29f
00000040: 5dbb 914e 7a82 8f67 8a67 55aa 4561 838a
00000050: 9c7c 65c9 63d1 b45c e8a2 69df 5d51 9880
00000060: 387f f169 798b 70ba 8973 1983 9798 ab79
00000070: b66e f4b8 897f 3d83 d9af 6970 377f ab63
00000080: 5d2d 6bb4 61b5 70c7 bcb2 6cd4 3fad 3a9d
00000090: 4b3a 6f9d 3757 9984 8e4a 9a97 d295 8c53
000000a0: 885d 8e39 9ba6 bd34 7d22 537d 9e81 ba61
000000b0: 6a59 27c4 83b9 8e05 ac8b 7e91 64ad afbf
000000c0: a446 b75b 3fe5 acb0 6c5e 8780 45e2 4d8a
000000d0: e33e 6a5c 825a 3e50 899d 4983 88bb 6161
000000e0: ac67 2aff 9452 daab a0b4 6d95 55aa b9ba
000000f0: 6685 68c2 aa6a 785e 6d76 6454 5f90 9b97

DS-CNN/conv_ds_2/pw_conv/weights_quant/FakeQuantWithMinMaxVars u1 [64, 1, 1, 64] scale=0.0051377025 zero_point=128
-0.28771132 -0.24660972 -0.17468189 0.025688512 -0.12330486 0.16954418 0.09247865 0.07192783
0.10789175 0.025688512 0.27229822 0.015413107 -0.17468189 0.097616345 0.0051377025 -0.27743593
-0.025688512 -0.14385566 0.015413107 -0.23633431 -0.14899337 0.010275405 -0.14385566 -0.04110162
0.07192783 0.13358027 -0.12844256 0.25174743 -0.118167154 0.051377025 -0.097616345 0.2157835
0.10275405 -0.17981958 -0.2157835 0.118167154 0.118167154 0.13871796 -0.030826215 -0.010275405
-0.13871796 0.13871796 -0.12844256 0.0 0.077065535 0.14385566 -0.10275405 0.04110162
0.09247865 -0.12844256 0.035963915 0.077065535 -0.10275405 0.04110162 -0.12330486 0.13358027
-0.030826215 -0.07192783 0.15926878 0.025688512 -0.2106458 -0.15413107 0.046239324 -0.11302945
-0.15413107 0.0 0.14385566 -0.16954418 -0.2157835 0.11302945 -0.14385566 0.06165243
0.010275405 0.19009499 0.14385566 0.19523269 0.12844256 0.097616345 0.035963915 -0.26716053
0.10275405 0.097616345 -0.17981958 0.16954418 0.32881296 0.118167154 -0.09247865 0.06165243
-0.077065535 0.2055081 0.0051377025 0.10275405 0.15926878 -0.04110162 0.19523269 -0.12844256
-0.14899337 -0.19009499 0.14385566 0.16954418 0.19009499 -0.015413107 0.056514725 -0.08220324
-0.14385566 -0.015413107 -0.10789175 0.24660972 -0.06679013 0.046239324 0.12844256 -0.13358027
0.02055081 -0.2106458 0.14385566 0.23119661 0.097616345 -0.2157835 0.06679013 -0.23119661
-0.32367525 0.2055081 -0.26716053 0.10275405 -0.025688512 0.32881296 -0.12330486 0.07192783
0.15413107 -0.431567 0.07192783 -0.010275405 -0.26716053 0.40587848 0.09247865 -0.29798675
0.19009499 -0.09247865 -0.046239324 -0.25174743 0.0 -0.47266862 0.30312446 -0.13358027
-0.15413107 -0.09247865 -0.118167154 0.06679013 0.06679013 0.2055081 -0.056514725 -0.16954418
0.09247865 0.28257364 0.11302945 0.24660972 0.16954418 -0.12844256 -0.12330486 -0.12844256
0.0 -0.17468189 0.30312446 -0.17981958 0.097616345 -0.09247865 -0.04110162 0.23633431
-0.046239324 0.14899337 0.13358027 -0.2106458 -0.010275405 -0.2003704 0.16954418 0.030826215
-0.09247865 0.14385566 0.26716053 0.0051377025 -0.06679013 0.39046538 0.26716053 -0.010275405
0.056514725 -0.097616345 -0.29284903 0.2568851 -0.27229822 0.08220324 -0.33908835 -0.02055081
-0.097616345 0.16440648 -0.23633431 -0.06679013 -0.08220324 -0.051377025 0.08220324 0.2260589
-0.27743593 0.10789175 -0.1849573 0.0 -0.26202282 -0.2106458 0.15413107 -0.33395067
0.010275405 -0.13871796 -0.2568851 -0.17981958 -0.2003704 0.13871796 -0.10789175 -0.29284903
-0.056514725 0.2568851 -0.09247865 -0.34422606 -0.030826215 -0.16440648 0.26716053 0.15413107
0.10275405 0.12844256 -0.2209212 -0.08220324 -0.06165243 -0.08220324 -0.010275405 -0.16954418
0.14385566 0.2209212 -0.2055081 0.030826215 0.08734094 0.097616345 -0.051377025 -0.29798675
0.16440648 0.17468189 0.30826214 -0.12844256 0.06165243 0.015413107 0.04110162 0.29284903
-0.1849573 -0.11302945 -0.15413107 -0.06679013 -0.0051377025 -0.097616345 0.02055081 -0.14385566
00000000: 4850 5e85 68a1 928e 9585 b583 5e93 814a
00000010: 7b64 8352 6382 6478 8e9a 67b1 698a 6daa
00000020: 945d 5697 979b 7a7e 659b 6780 8f9c 6c88
00000030: 9267 878f 6c88 689a 7a72 9f85 5762 896a
00000040: 6280 9c5f 5696 648c 82a5 9ca6 9993 874c
00000050: 9493 5da1 c097 6e8c 71a8 8194 9f78 a667
00000060: 635b 9ca1 a57d 8b70 647d 6bb0 7389 9966
00000070: 8457 9cad 9356 8d53 41a8 4c94 7bc0 688e
00000080: 9e2c 8e7e 4ccf 9246 a56e 774f 8024 bb66
00000090: 626e 698d 8da8 755f 92b7 96b0 a167 6867
000000a0: 805e bb5d 936e 78ae 779d 9a57 7e59 a186
000000b0: 6e9c b481 73cc b47e 8b6d 47b2 4b90 3e7c
000000c0: 6da0 5273 7076 90ac 4a95 5c80 4d57 9e3f
000000d0: 8265 4e5d 599b 6b47 75b2 6e3d 7a60 b49e
000000e0: 9499 5570 7470 7e5f 9cab 5886 9193 7646
000000f0: a0a2 bc67 8c83 88b9 5c6a 6273 7f6d 8464

DS-CNN/conv_ds_3/dw_conv/weights_quant/FakeQuantWithMinMaxVars u1 [1, 3, 3, 64] scale=0.012005738 zero_point=128
0.39618936 -0.8524074 -0.70833856 -1.056505 0.7563615 -1.4526943 -0.24011476 -0.9724648
0.6242984 0.33616066 -0.48022953 0.6603156 -0.84040165 0.9484533 -0.37217787 0.81639016
0.6002869 -0.56426966 0.37217787 -0.39618936 0.13206312 0.20409754 0.18008608 0.21610329
0.49223524 -0.44421232 0.99647623 -0.3241549 -0.6483098 0.38418362 0.10805164 0.6963328
0.2521205 0.40819508 0.6242984 -0.22810902 0.5282525 0.0 0.036017213 0.20409754
0.8283959 -0.10805164 -0.22810902 0.6002869 -0.43220657 0.5282525 1.008482 -0.6603156
-0.3121492 -0.21610329 1.2005738 -0.5762754 0.56426966 0.072034426 -0.44421232 1.1525508
0.6242984 0.3241549 -0.16808033 -0.06002869 0.68432707 0.2881377 0.88842463 -0.46822378
-0.21610329 0.0 -0.18008608 -0.8524074 0.40819508 0.3241549 0.16808033 0.0
-0.43220657 0.9484533 -0.40819508 -0.5282525 -0.552264 0.780373 0.10805164 -0.22810902
0.37217787 -0.44421232 0.2521205 -0.58828115 0.6723213 -0.26412624 0.024011476 0.3121492
-0.26412624 0.276132 0.26412624 0.37217787 -0.24011476 0.8764189 -0.12005738 0.012005738
-0.39618936 0.3241549 -0.024011476 0.45621803 0.6963328 -0.73235 -0.38418362 0.096045904
0.2881377 -0.18008608 -0.18008608 0.86441314 -0.780373 -0.036017213 0.43220657 -0.74435574
-0.46822378 -0.43220657 0.16808033 -0.06002869 0.19209181 -0.18008608 -0.70833856 0.63630414
-0.6723213 0.048022952 0.80438447 -0.084040165 0.3121492 0.18008608 0.58828115 -0.5282525
0.81639016 -0.276132 0.61229265 0.22810902 -0.036017213 -0.44421232 -0.56426966 0.24011476
0.5762754 0.504241 -0.3241549 -0.7563615 -0.5282525 0.33616066 -0.5762754 1.008482
0.7563615 -0.6002869 -0.9004303 -0.68432707 -0.58828115 0.58828115 -0.40819508 0.56426966
0.58828115 -0.63630414 0.13206312 0.9004303 0.80438447 0.30014345 -0.9844705 0.072034426
-0.7203443 0.072034426 0.9004303 0.5402582 0.096045904 0.0 0.0 0.3241549
0.73235 -0.20409754 -0.45621803 0.13206312 -0.49223524 0.2521205 0.18008608 -0.56426966
-0.21610329 -0.10805164 0.13206312 1.332637 0.10805164 -0.3121492 0.06002869 0.3241549
0.49223524 0.3241549 0.42020082 0.2881377 -0.21610329 0.48022953 -0.06002869 0.024011476
0.48022953 -0.22810902 -0.276132 -0.3121492 0.504241 0.36017215 -0.40819508 -0.40819508
0.26412624 0.42020082 -0.10805164 0.5762754 -0.33616066 0.5402582 -0.276132 -0.13206312
0.43220657 -0.43220657 0.42020082 -0.26412624 0.33616066 0.1560746 0.5402582 -0.276132
0.18008608 -0.44421232 0.63630414 -0.24011476 -0.18008608 0.70833856 0.552264 0.024011476
-0.3121492 0.48022953 0.6002869 0.16808033 0.45621803 -0.74435574 -0.24011476 0.6002869
0.58828115 -0.44421232 -0.06002869 0.19209181 -0.504241 0.48022953 0.9724648 -0.16808033
-0.2521205 0.68432707 0.40819508 -0.73235 0.43220657 0.39618936 -0.504241 -0.81639016
0.36017215 0.6242984 0.80438447 0.36017215 -0.012005738 0.44421232 -0.6963328 -0.2521205
00000000: a139 4528 bf07 6c2f b49c 58b7 3acf 61c4
00000010: b251 9f5f 8b91 8f92 a95b d365 4aa0 89ba
00000020: 95a2 b46d ac80 8391 c577 6db2 5cac d449
00000030: 666e e450 af86 5be0 b49b 727b b998 ca59
00000040: 6e80 7139 a29b 8e80 5ccf 5e54 52c1 896d
00000050: 9f5b 954f b86a 829a 6a97 969f 6cc9 7681
00000060: 5f9b 7ea6 ba43 6088 9871 71c8 3f7d a442
00000070: 595c 8e7b 9071 45b5 4884 c379 9a8f b154
00000080: c469 b393 7d5b 5194 b0aa 6541 549c 50d4
00000090: bf4e 3547 4fb1 5eaf b14b 8bcb c399 2e86
000000a0: 4486 cbad 8880 809b bd6f 5a8b 5795 8f51
000000b0: 6e77 8bef 8966 859b a99b a398 6ea8 7b82
000000c0: a86d 6966 aa9e 5e5e 96a3 77b0 64ad 6975
000000d0: a45c a36a 9c8d ad69 8f5b b56c 71bb ae82
000000e0: 66a8 b28e a642 6cb2 b15b 7b90 56a8 d172
000000f0: 6bb9 a243 a4a1 563c 9eb4 c39e 7fa5 466b

DS-CNN/conv_ds_3/pw_conv/weights_quant/FakeQuantWithMinMaxVars u1 [64, 1, 1, 64] scale=0.00537537 zero_point=128
0.07525518 -0.03762759 0.06987981 0.17738721 -0.14513499 -0.02150148 0.2150148 -0.05912907
0.33327293 -0.0537537 0.01075074 0.23114091 -0.11288277 0.40315273 0.19351332 0.13975962
-0.19888869 0.19888869 -0.09138129 -0.2687685 0.0 -0.17738721 -0.01075074 0.04300296
-0.29564536 -0.09675666 -0.42465422 0.15588573 -0.03225222 0.04300296 -0.52678627 0.16663647
0.29564536 0.12900887 -0.33327293 -0.19351332 0.24189165 -0.02687685 -0.36014977 -0.07525518
-0.3225222 0.1075074 0.01075074 -0.04300296 0.11825814 0.07525518 -0.14513499 -0.2526424
-0.02150148 -0.02687685 -0.26339313 0.06450444 -0.18276258 -0.22039017 0.1612611 -0.08600592
0.33327293 -0.41390347 0.24189165 -0.13975962 0.39777738 0.09138129 0.06987981 -0.18813795
0.15051036 0.19888869 -0.24189165 -0.01612611 -0.10213203 -0.03225222 0.40852812 -0.1075074
0.25801775 -0.0537537 -0.43540496 0.12363351 0.01075074 0.12363351 -0.3010207 0.01612611
0.13975962 0.3709005 0.08063055 -0.09138129 -0.3063961 -0.23114091 -0.03225222 0.6020414
0.04300296 0.34939903 -0.28489462 -0.08063055 0.03225222 0.02150148 -0.17201184 0.3010207
0.3010207 0.2687685 0.0537537 -0.26339313 -0.12900887 -0.17201184 -0.44078034 -0.18813795
-0.31177145 -0.03225222 0.41390347 0.1075074 0.0537537 -0.23651628 -0.01612611 -0.47840792
0.3762759 -0.13975962 -0.59666604 -0.3063961 0.17738721 -0.15588573 0.12900887 -0.09675666
0.12900887 -0.08600592 0.4461557 0.15051036 0.31714684 0.04300296 -0.13438424 0.22039017
0.1612611 0.01075074 0.1612611 -0.20963943 -0.10213203 -0.22039017 0.20426406 0.11288277
0.15051036 0.23651628 -0.08063055 0.09675666 0.18276258 0.17201184 0.11288277 -0.15051036
0.09675666 -0.07525518 0.35477442 -0.26339313 0.00537537 -0.36014977 0.12363351 0.14513499
0.3762759 -0.01612611 -0.06450444 -0.3010207 -0.2150148 -0.0537537 -0.04300296 -0.09138129
0.04300296 -0.04300296 0.04837833 0.17201184 0.07525518 -0.25801775 0.19888869 0.09138129
0.32789758 0.18813795 -0.23114091 0.13438424 0.38702664 0.06987981 -0.06450444 0.3225222
-0.02150148 -0.09675666 0.29564536 0.23651628 -0.19351332 0.13975962 0.27414387 0.20426406
-0.03225222 0.06987981 -0.15051036 0.16663647 -0.2526424 0.3010207 0.2150148 0.09675666
-0.10213203 -0.4461557 0.02150148 -0.02687685 -0.16663647 0.01612611 0.2526424 0.12900887
0.12363351 -0.0537537 -0.28489462 -0.1612611 0.19351332 0.04300296 -0.3709005 0.13975962
-0.05912907 0.13438424 0.12900887 -0.22039017 0.03225222 0.04837833 -0.27951923 0.11288277
0.04300296 0.22039017 -0.03762759 -0.31177145 0.04300296 0.06987981 0.17738721 0.1612611
-0.06450444 -0.24726702 0.24726702 -0.06450444 -0.38165125 0.02687685 -0.11825814 0.11288277
0.16663647 0.1075074 -0.14513499 -0.15588573 -0.01612611 -0.09138129 -0.1075074 -0.04837833
0.08600592 -0.39777738 -0.00537537 0.04837833 -0.11288277 0.02150148 -0.10213203 0.02687685
-0.11825814 0.20426406 0.07525518 -0.03225222 0.25801775 -0.29026997 -0.02150148 0.55903846
00000000: 8e79 8da1 657c a875 be76 82ab 6bcb a49a
00000010: 5ba5 6f4e 805f 7e88 496e 319d 7a88 1e9f
00000020: b798 425c ad7b 3d72 4494 8278 968e 6551
00000030: 7c7b 4f8c 5e57 9e70 be33 ad66 ca91 8d5d
00000040: 9ca5 537d 6d7a cc6c b076 2f97 8297 4883
00000050: 9ac5 8f6f 4755 7af0 88c1 4b71 8684 60b8
00000060: b8b2 8a4f 6860 2e5d 467a cd94 8a54 7d27
00000070: c666 1147 a163 986e 9870 d39c bb88 67a9
00000080: 9e82 9e59 6d57 a695 9cac 7192 a2a0 9564
00000090: 9272 c24f 813d 979b c67d 7448 5876 786f
000000a0: 8878 89a0 8e50 a591 bda3 5599 c88d 74bc
000000b0: 7c6e b7ac 5c9a b3a6 7a8d 649f 51b8 a892
000000c0: 6d2d 847b 6183 af98 9776 4b62 a488 3b9a
000000d0: 7599 9857 8689 4c95 88a9 7946 888d a19e
000000e0: 7452 ae74 3985 6a95 9f94 6563 7d6f 6c77
000000f0: 9036 7f89 6b84 6d85 6aa6 8e7a b04a 7ce8

DS-CNN/conv_ds_4/dw_conv/weights_quant/FakeQuantWithMinMaxVars u1 [1, 3, 3, 64] scale=0.009517694 zero_point=128
0.7614155 0.4568493 -0.36167237 0.8565925 0.52347314 0.5044378 0.36167237 0.466367
-0.5044378 -0.27601314 -0.3236016 0.6186501 -0.52347314 -0.39974314 -0.5329909 -0.1427654
-0.54250854 0.6281678 -0.5329909 -0.40926084 0.713827 0.42829624 -0.08565924 -0.26649544
-1.180194 0.59961474 0.6376855 -0.40926084 -0.42829624 -0.39022544 -0.8185217 -0.39974314
0.36167237 0.42829624 -0.26649544 0.48540238 0.48540238 -1.1135702 0.6757563 -0.20938927
0.56154394 0.7614155 0.8946632 0.5139555 0.39974314 -0.038070776 0.41877854 -0.4758847
-0.4473316 0.7328624 0.4378139 -0.19035387 1.0850171 0.06662386 -0.21890695 0.5139555
-0.56154394 0.74238014 -0.37119007 -0.26649544 -0.22842465 0.70430934 -0.49492007 -0.41877854
0.6091324 0.42829624 -0.047588468 0.590097 0.59961474 0.5044378 -0.6376855 0.72334474
-0.4473316 -0.5520263 -0.1522831 0.6186501 -0.19035387 -0.4473316 -0.52347314 -0.4473316
-0.5044378 0.56154394 -0.5329909 -0.34263697 0.6281678 0.4758847 -0.22842465 -0.6472032
-0.38070774 0.5044378 0.6186501 -0.38070774 -0.37119007 -0.20938927 -0.36167237 -0.2855308
0.466367 0.37119007 -0.18083619 0.5044378 0.6472032 0.33311927 0.6091324 -0.104694635
0.59961474 0.6472032 0.66623855 0.7804509 0.49492007 0.019035388 0.5710616 -0.38070774
0.21890695 0.6091324 0.39974314 -0.7709332 0.8946632 -0.38070774 0.047588468 0.52347314
-0.54250854 0.6376855 -0.39974314 -0.2855308 -0.22842465 0.54250854 -0.36167237 -0.33311927
0.466367 0.4378139 -0.24746004 0.6757563 0.6091324 0.66623855 -0.21890695 0.39974314
-0.3236016 -0.5710616 -0.23794235 0.466367 -0.4568493 -0.39022544 -0.27601314 0.019035388
-0.54250854 0.6091324 -0.35215467 -0.33311927 0.5139555 0.34263697 -0.38070774 -0.35215467
-0.047588468 0.5044378 0.5139555 -0.35215467 -0.13324772 -0.22842465 -0.028553082 -0.23794235
0.4378139 0.009517694 -0.1618008 0.39022544 0.37119007 -0.20938927 0.58057934 -0.11421233
0.52347314 0.6186501 0.70430934 0.5520263 0.809004 0.08565924 0.42829624 -0.27601314
-0.22842465 0.56154394 0.39022544 -0.6947917 0.82803935 -0.6186501 0.06662386 0.54250854
-0.37119007 0.66623855 -0.17131849 -0.2855308 -0.1522831 0.6091324 -0.3140839 -0.33311927
0.1427654 0.13324772 -0.12373002 0.1427654 0.095176935 0.047588468 0.20938927 -0.009517694
0.12373002 0.104694635 -1.2087471 0.104694635 -0.019035388 -0.11421233 -0.34263697 -0.17131849
-0.104694635 0.019035388 -0.019035388 -0.019035388 -0.13324772 0.27601314 -0.1427654 0.019035388
-0.3236016 0.23794235 -0.37119007 0.07614155 -0.24746004 -0.12373002 -0.5329909 -0.23794235
0.24746004 0.104694635 -0.19035387 0.1427654 0.038070776 -0.590097 -0.009517694 -0.24746004
0.019035388 0.095176935 -0.13324772 0.13324772 0.26649544 -0.6376855 0.009517694 -0.038070776
-0.4473316 0.08565924 0.1427654 -0.25697774 0.12373002 0.104694635 0.07614155 0.038070776
-0.4568493 0.11421233 -0.38070774 0.08565924 -0.19035387 0.19035387 0.12373002 0.13324772
00000000: d0b0 5ada b7b5 a6b1 4b63 5ec1 4956 4871
00000010: 47c2 4855 cbad 7764 04bf c355 5357 2a56
00000020: a6ad 64b3 b30b c76a bbd0 deb6 aa7c ac4e
00000030: 51cd ae6c f287 69b6 45ce 5964 68ca 4c54
00000040: c0ad 7bbe bfb5 3dcc 5146 70c1 6c51 4951
00000050: 4bbb 485c c2b2 683c 58b5 c158 596a 5a62
00000060: b1a7 6db5 c4a3 c075 bfc4 c6d2 b482 bc58
00000070: 97c0 aa2f de58 85b7 47c3 5662 68b9 5a5d
00000080: b1ae 66c7 c0c6 69aa 5e44 67b1 5057 6382
00000090: 47c0 5b5d b6a4 585b 7bb5 b65b 7268 7d67
000000a0: ae81 6fa9 a76a bd74 b7c1 caba d589 ad63
000000b0: 68bb a937 d73f 87b9 59c6 6e62 70c0 5f5d
000000c0: 8f8e 738f 8a85 967f 8d8b 018b 7e74 5c6e
000000d0: 7582 7e7e 729d 7182 5e99 5988 6673 4867
000000e0: 9a8b 6c8f 8442 7f66 828a 728e 9c3d 817c
000000f0: 5189 8f65 8d8b 8884 508c 5889 6c94 8d8e

DS-CNN/conv_ds_4/pw_conv/weights_quant/FakeQuantWithMinMaxVars u1 [64, 1, 1, 64] scale=0.0071616974 zero_point=128
0.22917432 -0.021485092 0.03580849 0.5084805 0.31511468 -0.2649828 -0.19336583 -0.021485092
-0.3007913 -0.2578211 0.16471905 -0.11458716 -0.14323395 -0.12891056 0.2936296 -0.021485092
-0.17904243 0.15039565 0.38673165 0.15755734 -0.22201262 -0.2649828 -0.03580849 0.17188074
0.33659977 -0.05729358 0.47983372 -0.2578211 0.2649828 0.41537845 -0.042970184 0.11458716
0.2793062 -0.17904243 -0.32227638 -0.07877867 0.0 -0.14323395 0.2864679 -0.13607225
0.18620414 -0.16471905 0.0 0.2649828 0.16471905 -0.14323395 -0.3007913 0.24349771
-0.12891056 -0.19336583 0.18620414 0.3007913 -0.17904243 0.03580849 0.12891056 0.05729358
-0.042970184 -0.021485092 -0.16471905 0.16471905 0.10742546 -0.014323395 0.021485092 -0.13607225
0.11458716 0.11458716 -0.0071616974 -0.23633601 -0.07161698 -0.19336583 0.15039565 -0.45118693
0.09310207 -0.38673165 -0.014323395 0.19336583 0.11458716 -0.12891056 0.14323395 0.22201262
-0.24349771 0.3007913 -0.03580849 0.17188074 0.15755734 0.37956995 -0.17904243 -0.18620414
-0.10026376 0.021485092 -0.10026376 -0.45834863 0.35808486 0.13607225 0.35092318 -0.12174886
-0.23633601 -0.07877867 0.17188074 0.37956995 -0.36524656 -0.03580849 0.05729358 0.22201262
0.37956995 0.17188074 0.3294381 0.13607225 0.0 0.03580849 0.12891056 0.02864679
0.17904243 -0.20052752 0.042970184 0.05013188 -0.21485092 0.20052752 -0.2506594 -0.2578211
0.48699543 -0.06445528 -0.35092318 -0.2864679 -0.10742546 0.76630163 -0.20768923 0.12174886
0.12174886 0.10026376 -0.17188074 -0.12891056 0.10026376 -0.15039565 -0.21485092 0.05729358
0.02864679 -0.22201262 -0.22201262 -0.22201262 0.042970184 0.042970184 0.31511468 -0.05013188
0.03580849 -0.22917432 -0.40105504 0.19336583 0.32227638 -0.2936296 0.10742546 0.17904243
-0.05729358 0.042970184 0.22201262 -0.5228039 -0.014323395 -0.24349771 0.0071616974 0.37240827
0.22201262 -0.14323395 -0.09310207 0.09310207 0.14323395 0.07877867 -0.3007913 0.33659977
0.22917432 -0.40821674 -0.18620414 0.11458716 -0.15039565 0.05729358 -0.2793062 0.10742546
-0.02864679 0.5084805 -0.07161698 0.40105504 0.18620414 -0.17904243 -0.21485092 -0.0071616974
0.12174886 0.47983372 0.19336583 -0.20052752 0.8092718 -0.2793062 -0.33659977 -0.5586124
0.36524656 -0.20768923 -0.13607225 -0.0071616974 0.48699543 -0.03580849 0.35808486 0.17904243
0.021485092 -0.02864679 0.05013188 -0.20768923 0.40821674 0.22201262 0.31511468 0.2721445
-0.15755734 0.13607225 0.2506594 -0.48699543 0.014323395 0.11458716 -0.07161698 -0.12174886
0.14323395 0.07161698 0.014323395 0.0071616974 -0.05013188 0.09310207 -0.10742546 -0.22917432
0.37240827 -0.08594037 -0.021485092 0.0 0.02864679 -0.2864679 -0.09310207 -0.32227638
0.014323395 0.18620414 0.02864679 -0.22917432 0.09310207 0.2793062 0.2578211 -0.33659977
-0.35092318 0.014323395 -0.03580849 -0.41537845 0.042970184 0.3007913 -0.03580849 -0.15039565
-0.014323395 -0.40105504 -0.12174886 0.02864679 0.05013188 0.03580849 0.5800975 0.21485092
00000000: a07d 85c7 ac5b 657d 565c 9770 6c6e a97d
00000010: 6795 b696 615b 7b98 af78 c35c a5ba 7a90
00000020: a767 5375 806c a86d 9a69 80a5 976c 56a2
00000030: 6e65 9aaa 6785 9288 7a7d 6997 8f7e 836d
00000040: 9090 7f5f 7665 9541 8d4a 7e9b 906e 949f
00000050: 5eaa 7b98 96b5 6766 7283 7240 b293 b16f
00000060: 5f75 98b5 4d7b 889f b598 ae93 8085 9284
00000070: 9964 8687 629c 5d5c c477 4f58 71eb 6391
00000080: 918e 686e 8e6b 6288 8461 6161 8686 ac79
00000090: 8560 489b ad57 8f99 7886 9f37 7e5e 81b4
000000a0: 9f6c 738d 948b 56af a047 6690 6b88 598f
000000b0: 7cc7 76b8 9a67 627f 91c3 9b64 f159 5132
000000c0: b363 6d7f c47b b299 837c 8763 b99f aca6
000000d0: 6a93 a33c 8290 766f 948a 8281 798d 7160
000000e0: b474 7d80 8458 7353 829a 8460 8da7 a451
000000f0: 4f82 7b46 86aa 7b6b 7e48 6f84 8785 d19e

DS-CNN/fc1/weights_quant/FakeQuantWithMinMaxVars/transpose u1 [12, 64] scale=0.009661823 zero_point=128
0.7536222 0.7536222 -0.086956404 -0.9855059 0.6763276 -1.0531386 0.62801844 -0.45410568
-1.1594187 0.7826076 -0.79226947 -0.60869485 0.7149749 -0.76328397 -0.86956406 0.87922585
0.7729458 -0.9468586 -1.0434768 -1.1111096 -0.7826076 -0.9855059 -0.9758441 0.6859894
-0.8599022 0.43478203 -0.90821135 -0.36714926 -0.8985495 0.6376803 -0.66666573 -0.57004756
-0.8212549 -1.0144913 -0.69565123 -0.99516773 -0.8115931 -0.80193126 -0.84057856 -1.1304332
-0.8502404 -1.0724623 -0.599033 0.57970935 -0.7826076 -0.7246367 -0.9855059 -1.1787424
-0.8212549 -0.83091676 -0.9371968 -0.9758441 -1.1304332 -0.66666573 -0.599033 -0.6473421
-0.92753494 0.45410568 -0.7342985 -0.5507239 -0.76328397 -0.9371968 0.7246367 -1.2270515
-0.23188373 -0.6763276 0.61835665 -0.4251202 -0.10628005 -0.3381638 0.34782562 0.76328397
0.44444385 0.086956404 0.11594187 -0.35748744 -0.3768111 0.20289828 -0.009661823 0.11594187
0.28019285 -0.599033 -0.20289828 -0.3381638 0.62801844 0.25120738 0.62801844 -0.48309112
0.46376747 -0.34782562 -0.45410568 0.46376747 0.24154556 -0.057970934 0.20289828 0.06763276
-0.028985467 -0.03864729 -0.45410568 -0.17391281 0.5507239 -0.46376747 -0.057970934 -0.46376747
0.66666573 -0.2125601 -0.49275294 0.06763276 0.24154556 -0.25120738 0.03864729 0.15458916
-0.14492734 -0.17391281 -0.57970935 -0.4734293 -0.35748744 0.5603857 -0.36714926 0.15458916
0.3768111 -0.06763276 -0.09661823 0.8212549 0.12560369 -0.24154556 -0.07729458 -0.40579656
0.57004756 -0.705313 -0.43478203 0.3381638 0.44444385 -0.69565123 -0.39613473 -0.53140026
0.66666573 0.69565123 -0.6376803 -0.7729458 0.3768111 0.4734293 -0.5603857 -0.4251202
0.10628005 -0.57970935 -0.49275294 -0.2608692 -0.40579656 0.3768111 0.2995165 0.66666573
-0.53140026 -0.5120766 0.69565123 -0.79226947 -0.61835665 0.019323645 -0.6763276 -0.90821135
0.35748744 -0.44444385 -0.06763276 0.6473421 0.45410568 -0.16425098 -0.69565123 -0.705313
0.49275294 0.48309112 0.57004756 -0.61835665 -0.23188373 0.50241476 0.43478203 0.11594187
-0.76328397 -0.19323646 0.6473421 0.7439603 -0.086956404 0.028985467 -0.6763276 -0.03864729
-0.46376747 0.028985467 -0.53140026 0.50241476 -0.46376747 -0.599033 -0.80193126 0.5893712
-0.48309112 0.28019285 -0.31884015 -0.43478203 -0.15458916 -0.03864729 -0.5603857 -0.16425098
0.10628005 -0.028985467 -0.7342985 -0.6859894 0.705313 -0.5603857 -0.4251202 -0.43478203
0.5120766 -0.2608692 -0.4251202 0.5120766 -0.62801844 0.3864729 -0.30917832 -0.53140026
0.44444385 -0.60869485 -0.60869485 -0.27053103 0.62801844 0.53140026 -0.54106206 0.27053103
-0.46376747 -0.65700394 -0.5120766 -0.61835665 0.27053103 -0.49275294 -0.11594187 0.32850197
-0.09661823 0.009661823 0.8115931 -0.60869485 -0.40579656 -0.028985467 -0.48309112 0.36714926
-0.34782562 -0.086956404 0.45410568 0.41545838 0.35748744 -0.06763276 -0.27053103 -0.53140026
0.5603857 0.4251202 0.83091676 -0.40579656 0.45410568 0.7826076 0.18357463 -0.25120738
00000000: cece 771a c613 c151 08d1 2e41 ca31 26db
00000010: d01e 140d 2f1a 1bc7 27ad 225a 23c2 3b45
00000020: 2b17 3819 2c2d 290b 2811 42bc 2f35 1a06
00000030: 2b2a 1f1b 0b3b 423d 20af 3447 311f cb01
00000040: 683a c054 755d a4cf ae89 8c5b 5995 7f8c
00000050: 9d42 6b5d c19a c14e b05c 51b0 997a 9587
00000060: 7d7c 516e b950 7a50 c56a 4d87 9966 8490
00000070: 716e 444f 5bba 5a90 a779 76d5 8d67 7856
00000080: bb37 53a3 ae38 5749 c5c8 3e30 a7b1 4654
00000090: 8b44 4d65 56a7 9fc5 494b c82e 4082 3a22
000000a0: a552 79c3 af6f 3837 b3b2 bb40 68b4 ad8c
000000b0: 316c c3cd 7783 3a7c 5083 49b4 5042 2dbd
000000c0: 4e9d 5f53 707c 466f 8b7d 3439 c946 5453
000000d0: b565 54b5 3fa8 6049 ae41 4164 c1b7 489c
000000e0: 503c 4b40 9c4d 74a2 7681 d441 567d 4ea6
000000f0: 5c77 afab a579 6449 baac d656 afd1 9366
