nn_menu/starters/keyword_spotting/model/KWS_ds_cnn_m_quant_power.tflite (tflite, 146176 bytes, 10 tensors)

DS-CNN/conv_1/weights_quant/FakeQuantWithMinMaxVars u1 [172, 10, 4, 1] scale=0.00078815373 zero_point=128
-0.00078815373 0.008669691 -0.003152615 0.003152615 -0.003152615 0.010245998 0.00078815373 0.007881537
0.0015763075 0.0110341525 -0.0023644613 0.008669691 -0.00078815373 0.010245998 0.00078815373 0.007881537
0.0 0.00630523 -0.0015763075 0.0070933835 -0.0023644613 0.0039407685 0.00078815373 0.0039407685
-0.0015763075 0.0015763075 0.00078815373 0.0 -0.0015763075 -0.00078815373 -0.00078815373 0.0055170762
-0.0023644613 -0.0015763075 0.0055170762 0.0039407685 -0.0039407685 -0.00078815373 0.0039407685 0.0039407685
-0.014974921 -0.00630523 0.03389061 0.017339382 -0.016551228 0.0039407685 0.036255073 0.0
-0.008669691 0.013398614 0.022068305 -0.018127536 0.0039407685 0.014974921 0.011822306 -0.029949842
-0.0023644613 0.011822306 0.0023644613 -0.032314304 0.014974921 0.01261046 -0.0015763075 -0.036255073
0.0070933835 0.0039407685 -0.007881537 -0.024432765 0.0070933835 -0.009457845 0.0047289226 -0.024432765
0.0110341525 -0.007881537 -0.00630523 -0.00630523 0.0070933835 -0.018127536 -0.007881537 -0.014974921
0.013398614 0.01261046 0.0110341525 0.0055170762 0.017339382 0.007881537 -0.0023644613 0.0
0.015763074 0.003152615 -0.016551228 -0.007881537 0.014186767 0.0055170762 -0.010245998 -0.022856459
0.00630523 0.0039407685 -0.007881537 -0.023644611 -0.0055170762 0.0039407685 0.0039407685 -0.013398614
-0.010245998 0.0015763075 0.015763074 -0.011822306 -0.009457845 -0.010245998 0.011822306 0.0070933835
-0.02128015 -0.0039407685 0.014186767 0.011822306 -0.014186767 0.0039407685 0.010245998 0.010245998
0.003152615 0.00078815373 -0.00078815373 -0.00078815373 0.0070933835 0.0039407685 -0.010245998 0.0023644613
0.0023644613 0.013398614 -0.011822306 -0.0055170762 -0.00078815373 0.016551228 -0.013398614 -0.00630523
0.003152615 0.015763074 -0.0070933835 -0.008669691 -0.00078815373 0.0070933835 0.0015763075 -0.0023644613
0.0023644613 -0.0023644613 0.0 0.0047289226 -0.0015763075 -0.0055170762 0.0 0.00630523
-0.0055170762 -0.0070933835 -0.00078815373 0.0047289226 -0.010245998 0.0023644613 0.00630523 -0.003152615
-0.020491997 0.022068305 0.00630523 -0.02758538 -0.019703843 0.011822306 0.018127536 -0.04886553
-0.014974921 -0.0047289226 0.01891569 -0.03152615 0.0023644613 -0.00630523 0.014186767 -0.020491997
0.0039407685 -0.0110341525 0.007881537 0.0047289226 0.0 -0.009457845 0.014186767 0.019703843
-0.0015763075 -0.008669691 0.020491997 0.04019584 0.014186767 0.0110341525 0.007881537 0.033102456
0.026797228 0.0110341525 -0.01261046 0.022068305 0.024432765 -0.01261046 -0.020491997 0.019703843
0.0023644613 -0.0110341525 -0.01261046 0.015763074 -0.003152615 -0.014186767 -0.0023644613 0.02128015
0.0 -0.0047289226 0.0047289226 0.0047289226 -0.0070933835 -0.0023644613 0.003152615 0.0039407685
-0.0023644613 -0.010245998 0.0023644613 -0.003152615 -0.0039407685 -0.0047289226 -0.0039407685 -0.003152615
-0.007881537 0.0015763075 0.0047289226 0.0047289226 -0.008669691 0.0015763075 0.0110341525 0.014974921
-0.0039407685 -0.00078815373 0.010245998 0.010245998 0.010245998 0.0047289226 0.0039407685 0.014186767
0.015763074 0.003152615 0.017339382 0.014186767 0.018127536 0.0055170762 0.014974921 0.008669691
0.018127536 0.0015763075 0.019703843 0.00630523 0.015763074 0.0110341525 0.0055170762 0.015763074
00000000: 7f8b 7c84 7c8d 818a 828e 7d8b 7f8d 818a
00000010: 8088 7e89 7d85 8185 7e82 8180 7e7f 7f87
00000020: 7d7e 8785 7b7f 8585 6d78 ab96 6b85 ae80
00000030: 7591 9c69 8593 8f5a 7d8f 8357 9390 7e52
00000040: 8985 7661 8974 8661 8e76 7878 8969 766d
00000050: 9190 8e87 968a 7d80 9484 6b76 9287 7363
00000060: 8885 7662 7985 856f 7382 9471 7473 8f89
00000070: 657b 928f 6e85 8d8d 8481 7f7f 8985 7383
00000080: 8391 7179 7f95 6f78 8494 7775 7f89 827d
00000090: 837d 8086 7e79 8088 7977 7f86 7383 887c
000000a0: 669c 885d 678f 9742 6d7a 9858 8378 9266
000000b0: 8572 8a86 8074 9299 7e75 9ab3 928e 8aaa
000000c0: a28e 709c 9f70 6699 8372 7094 7c6e 7d9b
000000d0: 807a 8686 777d 8485 7d73 837c 7b7a 7b7c
000000e0: 7682 8686 7582 8e93 7b7f 8d8d 8d86 8592
000000f0: 9484 9692 9787 938b 9782 9988 948e 8794

DS-CNN/conv_ds_1/dw_conv/weights_quant/FakeQuantWithMinMaxVars u1 [1, 3, 3, 172] scale=0.031201316 zero_point=128
2.1216896 -0.6240263 0.37441579 0.6240263 -0.65522766 0.37441579 0.49922106 -0.6240263
1.0608448 -0.49922106 -1.3104553 -0.71763027 1.0608448 0.5616237 -0.24961053 1.3416566
0.71763027 -1.9968842 -0.592825 0.5304224 0.43681842 -0.68642896 -0.5304224 -0.84243554
-0.21840921 -0.5304224 -1.2168514 1.4352605 0.28081185 -1.7160724 -0.40561712 -0.40561712
0.24961053 0.46801975 -0.34321448 0.43681842 0.49922106 -0.65522766 -1.5288645 0.592825
-0.65522766 -0.7800329 -0.74883157 -0.124805264 1.1544487 0.18720789 1.3728579 -0.592825
0.34321448 -0.5616237 0.65522766 -0.062402632 1.7160724 0.0 -0.592825 0.7800329
-1.6224685 -0.7800329 0.21840921 -0.81123424 -0.37441579 0.7800329 -0.124805264 -0.031201316
-1.092046 0.15600657 0.592825 -0.71763027 1.0296434 0.592825 0.124805264 -0.31201315
0.5616237 1.4664619 -1.0608448 0.87363684 0.74883157 0.031201316 0.9360395 0.24961053
1.3416566 0.84243554 0.9360395 -2.0904882 -0.65522766 0.90483814 -0.34321448 -0.81123424
1.2168514 -0.5304224 -0.21840921 0.46801975 0.90483814 -0.46801975 -1.6536697 0.093603946
0.37441579 1.279254 -0.40561712 -0.592825 0.90483814 -0.81123424 0.65522766 -0.5616237
-0.031201316 1.18565 0.40561712 -0.5616237 0.7800329 -2.3088975 -1.5288645 -0.093603946
-0.7800329 0.6240263 -0.124805264 0.592825 -0.28081185 1.7160724 -0.031201316 0.49922106
-0.65522766 0.124805264 1.092046 -0.65522766 -0.062402632 0.031201316 0.0 0.0
-1.4352605 0.15600657 -0.093603946 -0.21840921 0.43681842 -1.4976631 0.28081185 -0.15600657
0.40561712 0.31201315 -0.90483814 -0.40561712 -0.49922106 0.124805264 -0.74883157 -1.0608448
-1.4664619 -0.74883157 -0.15600657 0.031201316 -0.093603946 -0.68642896 1.2168514 0.37441579
0.46801975 0.43681842 -0.031201316 -0.90483814 -0.21840921 1.2480526 0.43681842 -0.87363684
-1.5288645 0.592825 0.65522766 0.0 0.062402632 0.24961053 -0.062402632 0.37441579
-0.5616237 1.2168514 0.093603946 -0.093603946 0.68642896 0.031201316 -0.18720789 -2.0592868
-0.592825 0.24961053 -0.18720789 -0.49922106 -0.34321448 -1.3416566 -0.9984421 -0.9672408
1.1544487 -0.40561712 -0.15600657 0.0 0.28081185 -0.031201316 -0.68642896 1.4040592
-0.15600657 -0.71763027 -0.592825 -0.6240263 0.7800329 -0.81123424 0.28081185 -1.872079
0.71763027 0.15600657 0.68642896 0.24961053 -1.4352605 -0.9984421 -0.37441579 -1.1544487
0.31201315 0.592825 0.124805264 0.49922106 -0.84243554 0.18720789 -0.15600657 -0.49922106
-0.37441579 -0.062402632 -1.0608448 0.0 1.3728579 -0.49922106 -0.74883157 0.6240263
-0.18720789 -0.093603946 -1.0296434 -1.1544487 -0.34321448 0.84243554 0.81123424 0.9360395
1.9968842 -0.7800329 -1.4352605 -0.124805264 -0.5616237 -0.6240263 1.4352605 -0.031201316
-0.5304224 -0.34321448 -0.093603946 0.65522766 -0.74883157 0.0 0.28081185 0.37441579
1.092046 -0.65522766 -0.031201316 -1.4352605 -0.5304224 -0.68642896 0.031201316 0.43681842
00000000: c46c 8c94 6b8c 906c a270 5669 a292 78ab
00000010: 9740 6d91 8e6a 6f65 796f 59ae 8949 7373
00000020: 888f 758e 906b 4f93 6b67 687c a586 ac6d
00000030: 8b6e 957e b780 6d99 4c67 8766 7499 7c7f
00000040: 5d85 9369 a193 8476 92af 5e9c 9881 9e88
00000050: ab9b 9e3d 6b9d 7566 a76f 798f 9d71 4b83
00000060: 8ca9 736d 9d66 956e 7fa6 8d6e 9936 4f7d
00000070: 6794 7c93 77b7 7f90 6b84 a36b 7e81 8080
00000080: 5285 7d79 8e50 897b 8d8a 6373 7084 685e
00000090: 5168 7b81 7d6a a78c 8f8e 7f63 79a8 8e64
000000a0: 4f93 9580 8288 7e8c 6ea7 837d 9681 7a3e
000000b0: 6d88 7a70 7555 6061 a573 7b80 897f 6aad
000000c0: 7b69 6d6c 9966 8944 9785 9688 5260 745b
000000d0: 8a93 8490 6586 7b70 747e 5e80 ac70 6894
000000e0: 7a7d 5f5b 759b 9a9e c067 527c 6e6c ae7f
000000f0: 6f75 7d95 6880 898c a36b 7f52 6f6a 818e

DS-CNN/conv_ds_1/pw_conv/weights_quant/FakeQuantWithMinMaxVars u1 [172, 1, 1, 172] scale=0.00401841 zero_point=128
0.08840502 -0.072331384 -0.02411046 -0.14868118 0.06027615 0.04822092 0.080368206 -0.06429456
-0.05625774 -0.00401841 -0.01205523 0.04420251 -0.02411046 0.00803682 0.05625774 0.020092051
0.08438661 -0.040184103 -0.036165692 -0.14868118 -0.11653389 0.040184103 -0.06429456 -0.02812887
-0.04420251 -0.12858912 0.03214728 -0.01607364 -0.020092051 -0.076349795 0.08840502 -0.036165692
-0.00803682 -0.00401841 -0.04420251 0.040184103 -0.01205523 0.06027615 -0.108497076 0.072331384
0.052239332 -0.00803682 0.10046025 0.09242343 -0.036165692 0.01607364 -0.02812887 0.052239332
-0.09644184 -0.16475481 -0.03214728 0.00803682 0.01205523 -0.09242343 0.0 0.00401841
-0.104478665 -0.00803682 0.04822092 -0.15269959 -0.02411046 -0.04822092 0.08840502 0.080368206
-0.104478665 0.02812887 0.076349795 0.08438661 -0.12858912 -0.05625774 0.02812887 -0.01205523
-0.11653389 -0.052239332 0.09644184 0.052239332 0.10046025 0.040184103 0.05625774 -0.104478665
0.01205523 0.04822092 0.036165692 0.08438661 0.052239332 0.05625774 0.036165692 -0.11251548
-0.06027615 -0.052239332 0.11653389 -0.052239332 -0.09242343 -0.080368206 -0.020092051 0.06429456
0.00803682 0.01205523 0.06429456 0.02411046 0.02411046 -0.04822092 0.02812887 0.036165692
-0.06429456 -0.09242343 -0.040184103 0.09644184 0.09644184 -0.108497076 -0.00401841 0.04822092
-0.06831297 -0.03214728 0.01205523 0.06027615 0.108497076 0.02411046 -0.104478665 0.00401841
0.036165692 -0.076349795 0.06027615 -0.10046025 0.14868118 -0.080368206 -0.16073641 -0.03214728
-0.00803682 -0.06429456 -0.08438661 0.02812887 -0.06429456 -0.08438661 -0.04822092 -0.040184103
-0.08438661 0.052239332 -0.01205523 -0.02411046 -0.08840502 -0.06831297 -0.02812887 0.05625774
-0.02411046 -0.04822092 0.01607364 -0.052239332 0.0 0.00803682 -0.06831297 0.05625774
-0.02812887 0.01607364 0.09644184 0.052239332 -0.01205523 -0.08438661 0.01205523 -0.072331384
-0.072331384 -0.06027615 -0.01607364 0.02411046 0.108497076 0.052239332 0.02812887 -0.02411046
-0.08438661 0.09644184 -0.040184103 -0.01607364 0.04420251 -0.04420251 0.13662595 -0.06831297
0.08438661 -0.13260753 -0.06429456 0.2772703 -0.080368206 -0.06429456 0.01607364 0.052239332
0.17681004 -0.01205523 -0.34156486 -0.156718 -0.11251548 -0.02812887 0.040184103 -0.080368206
0.06027615 -0.2853071 -0.30138075 0.06429456 -0.04420251 0.32147282 0.0 -0.01607364
-0.19288369 -0.16877322 -0.12858912 -0.072331384 -0.11251548 -0.14064436 0.040184103 -0.036165692
0.072331384 -0.00401841 0.108497076 -0.16877322 0.06831297 -0.02812887 -0.05625774 -0.1205523
0.16073641 0.22503096 0.14466277 0.11653389 0.052239332 0.036165692 0.16475481 0.05625774
-0.03214728 -0.05625774 0.040184103 0.11653389 -0.080368206 0.104478665 -0.00401841 0.04420251
-0.14064436 -0.19288369 0.13260753 0.21297574 0.104478665 -0.052239332 -0.17681004 -0.080368206
-0.104478665 0.01205523 0.00803682 0.2411046 -0.01607364 -0.104478665 -0.072331384 0.06831297
0.36969373 -0.14868118 0.05625774 -0.17279163 0.11251548 -0.00803682 -0.036165692 0.09242343
00000000: 966e 7a5b 8f8c 9470 727f 7d8b 7a82 8e85
00000010: 9576 775b 638a 7079 7560 887c 7b6d 9677
00000020: 7e7f 758a 7d8f 6592 8d7e 9997 7784 798d
00000030: 6857 7882 8369 8081 667e 8c5a 7a74 9694
00000040: 6687 9395 6072 877d 6373 988d 998a 8e66
00000050: 838c 8995 8d8e 8964 7173 9d73 696c 7b90
00000060: 8283 9086 8674 8789 7069 7698 9865 7f8c
00000070: 6f78 838f 9b86 6681 896d 8f67 a56c 5878
00000080: 7e70 6b87 706b 7476 6b8d 7d7a 6a6f 798e
00000090: 7a74 8473 8082 6f8e 7984 988d 7d6b 836e
000000a0: 6e71 7c86 9b8d 877a 6b98 767c 8b75 a26f
000000b0: 955f 70c5 6c70 848d ac7d 2b59 6479 8a6c
000000c0: 8f39 3590 75d0 807c 5056 606e 645d 8a77
000000d0: 927f 9b56 9179 7262 a8b8 a49d 8d89 a98e
000000e0: 7872 8a9d 6c9a 7f8b 5d50 a1b5 9a73 546c
000000f0: 6683 82bc 7c66 6e91 dc5b 8e55 9c7e 7797

DS-CNN/conv_ds_2/dw_conv/weights_quant/FakeQuantWithMinMaxVars u1 [1, 3, 3, 172] scale=0.01763984 zero_point=128
1.9227426 0.15875857 0.31751713 -0.7408733 0.0 -0.5997546 -1.0231107 1.0760303
1.0231107 -1.217149 0.7055936 0.052919522 1.2700685 0.86435217 -0.77615297 -0.7408733
-0.5821147 0.3527968 -0.31751713 0.63503426 0.6173944 -0.15875857 -1.0407505 -0.5115554
0.49391553 -0.5644749 -0.37043664 -0.40571633 -0.28223744 0.19403824 0.440996 0.07055936
0.5115554 -0.45863584 -0.5997546 -0.19403824 1.7110645 -0.5115554 -0.89963186 0.2998773
1.3935474 0.47627568 -0.63503426 -0.31751713 0.5291952 -0.1763984 -0.93491155 -0.33515695
1.0936701 0.63503426 -0.7408733 -0.3527968 -0.49391553 -0.5821147 -0.3527968 0.03527968
-0.19403824 -0.42335618 0.0 1.1995091 -0.47627568 0.7937928 0.37043664 -0.42335618
-0.5997546 0.01763984 -0.7585131 -0.42335618 0.0 -1.2877083 0.5291952 -0.5821147
1.0054709 -0.6526741 0.54683506 -0.2998773 -0.07055936 1.1465896 0.42335618 -0.6526741
0.03527968 -0.7408733 -0.63503426 -0.47627568 -0.105839044 -0.5821147 1.6228653 -0.37043664
-0.105839044 0.21167809 -0.07055936 -0.6526741 1.3406278 0.42335618 -0.5644749 0.2998773
-1.6052254 -0.33515695 -0.07055936 0.12347888 0.6173944 0.2998773 -0.42335618 -0.105839044
-0.84671235 -0.19403824 -1.0583904 0.01763984 0.38807648 -0.7408733 -0.7408733 -0.54683506
-0.63503426 -1.428827 0.12347888 0.5997546 -0.77615297 0.01763984 0.33515695 0.7937928
1.2877083 0.7055936 0.3527968 0.5997546 0.45863584 -0.68795377 -0.7937928 0.3527968
0.24695776 -0.5821147 1.0760303 0.8290725 0.03527968 0.881992 -0.72323346 0.12347888
-0.2998773 0.2645976 -0.07055936 0.3527968 -0.68795377 0.7408733 0.22931792 -0.6526741
-0.03527968 -0.38807648 1.2700685 1.0231107 0.45863584 0.24695776 -1.0407505 -0.9172717
-0.12347888 0.440996 -0.24695776 -0.33515695 -0.38807648 0.42335618 0.68795377 0.63503426
0.72323346 0.0 0.0 0.77615297 -0.6703139 0.5997546 -0.77615297 0.47627568
-0.8290725 -0.89963186 -0.28223744 -0.5821147 0.5644749 0.38807648 -0.45863584 1.0054709
-0.5291952 0.31751713 -0.7055936 -0.84671235 0.42335618 -1.1465896 1.4817466 -0.2998773
0.0881992 -0.12347888 -0.9172717 0.72323346 0.7408733 0.6173944 0.5291952 0.7937928
-0.14111872 -0.07055936 -0.6173944 -0.105839044 -0.54683506 0.40571633 0.5115554 -0.42335618
0.24695776 0.5644749 0.49391553 -0.72323346 -0.6703139 -0.2645976 0.105839044 0.7585131
0.42335618 -0.24695776 0.2645976 0.33515695 0.81143266 -0.052919522 -0.6173944 0.5115554
-0.105839044 0.3527968 -0.0881992 0.2998773 -0.14111872 -0.21167809 1.3053482 -0.5997546
0.5115554 0.37043664 -0.77615297 -0.81143266 0.5997546 0.5115554 -0.440996 0.440996
0.881992 0.63503426 0.24695776 -0.1763984 0.0881992 -0.5115554 -0.14111872 -0.07055936
-0.440996 -0.7585131 0.03527968 1.0583904 -0.1763984 -0.95255136 -0.6703139 0.105839044
0.47627568 -0.2645976 0.15875857 0.2645976 -0.105839044 0.07055936 0.881992 0.6173944
00000000: ed89 9256 805e 46bd ba3b a883 c8b1 5456
00000010: 5f94 6ea4 a377 4563 9c60 6b69 708b 9984
00000020: 9d66 5e75 e163 4d91 cf9b 5c6e 9e76 4b6d
00000030: bea4 566c 645f 6c82 7568 80c4 65ad 9568
00000040: 5e81 5568 8037 9e5f b95b 9f6f 7cc1 985b
00000050: 8256 5c65 7a5f dc6b 7a8c 7c5b cc98 6091
00000060: 256d 7c87 a391 687a 5075 4481 9656 5661
00000070: 5c2f 87a2 5481 93ad c9a8 94a2 9a59 5394
00000080: 8e5f bdaf 82b2 5787 6f8f 7c94 59aa 8d5b
00000090: 7e6a c8ba 9a8e 454c 7999 726d 6a98 a7a4
000000a0: a980 80ac 5aa2 549b 514d 705f a096 66b9
000000b0: 6292 5850 983f d46f 8579 4ca9 aaa3 9ead
000000c0: 787c 5d7a 6197 9d68 8ea0 9c57 5a71 86ab
000000d0: 9872 8f93 ae7d 5d9d 7a94 7b91 7874 ca5e
000000e0: 9d95 5452 a29d 6799 b2a4 8e76 8563 787c
000000f0: 6755 82bc 764a 5a86 9b71 898f 7a84 b2a3

DS-CNN/conv_ds_2/pw_conv/weights_quant/FakeQuantWithMinMaxVars u1 [172, 1, 1, 172] scale=0.0034495331 zero_point=128
-0.15867853 0.037944864 -0.23801778 -0.041394398 0.06899066 0.041394398 -0.0034495331 0.15177946
-0.15522899 -0.013798133 -0.16557759 -0.1759262 0.1759262 -0.12418319 -0.16902712 -0.051742997
-0.16212806 0.086238325 -0.15522899 0.15522899 -0.041394398 -0.10003646 -0.024146732 0.020697199
-0.19662338 -0.18972433 0.020697199 -0.0931374 0.15177946 -0.15177946 0.11728413 -0.07588973
0.010348599 0.048293464 -0.051742997 0.13108227 -0.17247665 -0.062091596 -0.14488038 0.013798133
0.048293464 0.103485994 0.14143085 0.25871497 -0.15867853 -0.06554113 0.062091596 0.058642063
-0.082788795 0.10003646 -0.17937572 -0.0034495331 -0.037944864 0.13108227 -0.13798133 0.041394398
0.020697199 -0.14143085 0.1862748 0.010348599 -0.0034495331 -0.027596265 -0.21042152 -0.16557759
-0.062091596 -0.020697199 -0.051742997 0.13108227 -0.103485994 0.17247665 0.16212806 0.11383459
-0.0034495331 0.037944864 0.18282525 -0.1345318 -0.041394398 0.082788795 0.031045798 -0.10003646
0.12073366 -0.024146732 0.013798133 0.0068990663 0.21387106 -0.17937572 -0.103485994 -0.06899066
0.06899066 -0.10693553 -0.15177946 0.06899066 0.11728413 -0.010348599 0.18972433 -0.020697199
0.1345318 -0.020697199 -0.15177946 -0.14143085 -0.048293464 0.103485994 -0.06554113 0.24146733
-0.15177946 -0.0931374 -0.0034495331 0.027596265 -0.12763272 0.058642063 0.037944864 0.1759262
-0.16212806 0.12073366 -0.051742997 -0.14143085 0.13798133 0.1759262 0.031045798 0.09658693
0.37599912 -0.0034495331 0.048293464 -0.11728413 0.086238325 0.10003646 0.062091596 -0.11728413
0.06899066 -0.051742997 -0.16212806 -0.017247666 0.07244019 0.103485994 -0.16902712 0.017247666
0.062091596 -0.11038506 0.06554113 0.12763272 0.06899066 0.11038506 0.05519253 0.22077012
-0.10003646 0.027596265 -0.103485994 0.15177946 -0.11383459 -0.23456825 0.058642063 0.06899066
0.11383459 -0.13798133 0.017247666 -0.04484393 -0.058642063 -0.21042152 -0.051742997 -0.041394398
0.020697199 -0.017247666 0.0 0.013798133 -0.086238325 -0.07244019 0.0 0.0034495331
0.24836639 -0.22766918 0.15177946 0.086238325 -0.11728413 0.1759262 0.082788795 -0.0931374
0.15522899 0.079339266 0.18972433 -0.041394398 0.027596265 0.12763272 -0.010348599 0.11728413
0.11728413 -0.12418319 -0.11728413 -0.06899066 0.058642063 -0.062091596 0.051742997 -0.0034495331
0.0931374 -0.013798133 0.062091596 -0.22077012 -0.079339266 0.0068990663 -0.22766918 -0.010348599
-0.082788795 -0.05519253 0.05519253 -0.08968786 -0.024146732 0.062091596 -0.06554113 0.23111872
0.10693553 -0.086238325 -0.10693553 0.12073366 -0.1345318 -0.08968786 0.082788795 0.03449533
0.051742997 -0.12763272 -0.037944864 -0.15177946 -0.08968786 -0.12073366 -0.11383459 -0.13798133
0.13798133 -0.16557759 0.103485994 -0.15522899 -0.15522899 -0.06554113 0.12418319 -0.05519253
-0.12073366 -0.062091596 -0.051742997 -0.04484393 -0.15177946 0.058642063 -0.062091596 -0.03449533
0.017247666 0.058642063 0.037944864 -0.058642063 -0.05519253 0.13798133 -0.12418319 0.20697199
0.04484393 0.010348599 0.13108227 0.031045798 -0.19317386 -0.079339266 0.15522899 -0.07244019
00000000: 528b 3b74 948c 7fac 537c 504d b35c 4f71
00000010: 5199 53ad 7463 7986 4749 8665 ac54 a26a
00000020: 838e 71a6 4e6e 5684 8e9e a9cb 526d 9291
00000030: 689d 4c7f 75a6 588c 8657 b683 7f78 4350
00000040: 6e7a 71a6 62b2 afa1 7f8b b559 7498 8963
00000050: a379 8482 be4c 626c 9461 5494 a27d b77a
00000060: a77a 5457 729e 6dc6 5465 7f88 5b91 8bb3
00000070: 51a3 7157 a8b3 899c ed7f 8e5e 999d 925e
00000080: 9471 517b 959e 4f85 9260 93a5 94a0 90c0
00000090: 6388 62ac 5f3c 9194 a158 8573 6f43 7174
000000a0: 867b 8084 676b 8081 c83e ac99 5eb3 9865
000000b0: ad97 b774 88a5 7da2 a25c 5e6c 916e 8f7f
000000c0: 9b7c 9240 6982 3e7d 6870 9066 7992 6dc3
000000d0: 9f67 61a3 5966 988a 8f5b 7554 665d 5f58
000000e0: a850 9e53 536d a470 5d6e 7173 5491 6e76
000000f0: 8591 8b6f 70a8 5cbc 8d83 a689 4869 ad6b

DS-CNN/conv_ds_3/dw_conv/weights_quant/FakeQuantWithMinMaxVars u1 [1, 3, 3, 172] scale=0.012833277 zero_point=128
0.038499832 -0.12833276 -0.9368292 0.6159973 0.97532904 -0.14116605 -0.834163 -0.4491647
-0.102666214 0.06416638 -0.8084964 1.206328 -0.8084964 0.23099898 0.7956632 -0.53899765
1.0908285 -0.97532904 0.7956632 -0.7186635 0.038499832 -0.6929969 0.24383226 -0.038499832
-1.6298262 0.41066486 0.98816234 0.6159973 -0.051333107 -0.26949883 0.8084964 -0.6159973
0.6801637 0.06416638 -0.3336652 0.7186635 -0.4491647 -0.8084964 -0.038499832 -0.48766452
-0.15399933 0.19249915 -0.3978316 -0.2823321 0.5004978 -0.42349812 -0.5903307 0.3336652
-0.051333107 -0.26949883 -0.30799866 0.5903307 0.37216502 -0.47483125 -0.4491647 0.6801637
0.051333107 0.46199796 0.102666214 0.52616435 0.74433005 -0.43633142 0.48766452 0.29516536
-0.35933176 -0.41066486 -0.6801637 -0.46199796 -0.076999664 -0.603164 -0.3978316 0.603164
0.025666554 -0.17966588 0.74433005 -0.7058302 0.8854961 0.102666214 0.12833276 -0.34649846
-0.52616435 0.5004978 -0.7186635 0.6159973 0.15399933 0.24383226 -0.8983294 0.102666214
-0.41066486 0.37216502 -0.025666554 1.2191613 0.6673304 0.20533243 -0.8983294 0.7058302
0.43633142 -0.603164 -0.4491647 -0.9368292 0.603164 1.0138289 0.076999664 -0.3849983
0.051333107 -0.5004978 -0.8084964 1.206328 -0.9239959 -0.46199796 -0.85982955 0.32083192
0.75716335 -0.32083192 -1.1164951 -0.5903307 -0.5774975 0.5004978 0.15399933 -0.7699966
0.3849983 0.1668326 0.52616435 0.8084964 0.2823321 -0.08983294 0.06416638 -0.62883055
0.06416638 0.834163 0.87266284 1.0266621 -0.08983294 0.51333106 0.7956632 0.2823321
0.038499832 0.75716335 -0.08983294 0.62883055 -0.52616435 0.5903307 -0.3849983 -0.97532904
0.08983294 0.46199796 1.0394955 0.5903307 0.3978316 -0.26949883 -0.3849983 -0.08983294
-0.30799866 -0.74433005 1.0523287 -0.53899765 -0.5903307 -0.603164 -0.64166385 0.14116605
-0.87266284 -0.41066486 0.98816234 -0.87266284 0.73149675 -0.46199796 0.26949883 0.48766452
0.5646642 -0.52616435 0.11549949 0.6544971 -0.37216502 0.2823321 0.47483125 0.12833276
-0.47483125 0.5004978 0.06416638 -0.3336652 -0.97532904 0.17966588 -0.37216502 1.0009956
0.96249574 0.29516536 0.51333106 0.5903307 0.7186635 -0.3978316 0.076999664 -0.19249915
-0.6544971 -0.2823321 -0.7186635 -0.5774975 0.12833276 -0.15399933 0.1668326 0.32083192
-0.012833277 0.34649846 0.41066486 -0.17966588 -0.4491647 -0.038499832 -0.20533243 0.3978316
0.51333106 0.06416638 0.37216502 -0.25666553 -0.6159973 -0.834163 -0.43633142 -0.3978316
-0.06416638 -0.34649846 0.06416638 -0.11549949 -0.73149675 -0.3336652 -0.17966588 0.42349812
-0.32083192 0.8084964 -0.64166385 0.2823321 -0.012833277 -0.73149675 -0.43633142 1.2576611
-0.038499832 0.19249915 0.24383226 0.24383226 -0.30799866 -0.834163 -0.96249574 0.21816571
0.62883055 0.35933176 -0.6929969 -1.1164951 -0.2823321 -0.8213297 1.3988272 0.32083192
-0.7699966 -0.6159973 0.038499832 -0.06416638 0.15399933 -0.19249915 0.48766452 -0.20533243
00000000: 8376 37b0 cc75 3f5d 7885 41de 4192 be56
00000010: d534 be48 834a 937d 01a0 cdb0 7c6b bf50
00000020: b585 66b8 5d41 7d5a 748f 616a a75f 529a
00000030: 7c6b 68ae 9d5b 5db5 84a4 88a9 ba5e a697
00000040: 6460 4b5c 7a51 61af 8272 ba49 c588 8a65
00000050: 57a7 48b0 8c93 3a88 609d 7edf b490 3ab7
00000060: a251 5d37 afcf 8662 8459 41de 385c 3d99
00000070: bb67 2952 53a7 8c44 9e8d a9bf 9679 854f
00000080: 85c1 c4d0 79a8 be96 83bb 79b1 57ae 6234
00000090: 87a4 d1ae 9f6b 6279 6846 d256 5251 4e8b
000000a0: 3c60 cd3c b95c 95a6 ac57 89b3 6396 a58a
000000b0: 5ba7 8566 348e 63ce cb97 a8ae b861 8671
000000c0: 4d6a 4853 8a74 8d99 7f9b a072 5d7d 709f
000000d0: a885 9d6c 503f 5e61 7b65 8577 4766 72a1
000000e0: 67bf 4e96 7f47 5ee2 7d8f 9393 683f 3591
000000f0: b19c 4a29 6a40 ed99 4450 837b 8c71 a670

DS-CNN/conv_ds_3/pw_conv/weights_quant/FakeQuantWithMinMaxVars u1 [172, 1, 1, 172] scale=0.003987616 zero_point=128
-0.063801855 -0.04785139 -0.12760371 -0.043863773 0.031900927 0.115640864 -0.08373994 0.023925696
-0.007975232 -0.059814237 -0.05183901 -0.15551703 -0.10766563 -0.08772755 -0.17146748 -0.10367802
0.055826623 -0.06778947 -0.111653246 -0.10766563 -0.01993808 -0.10367802 0.0996904 -0.09570278
0.09570278 -0.023925696 0.06778947 0.05183901 -0.055826623 0.0 -0.05183901 0.01993808
-0.01993808 -0.04785139 0.07975232 0.0 -0.06778947 0.07975232 0.015950464 0.05183901
0.011962848 0.01993808 0.011962848 -0.09570278 -0.05183901 -0.03987616 0.007975232 0.01993808
-0.0996904 0.13557895 -0.07177709 -0.13956656 -0.06778947 -0.10367802 -0.01993808 -0.111653246
-0.0996904 0.003987616 -0.10367802 -0.003987616 -0.055826623 -0.015950464 0.003987616 -0.015950464
-0.13159132 0.011962848 -0.059814237 -0.091715164 -0.17146748 -0.031900927 0.015950464 0.011962848
-0.10766563 -0.015950464 -0.055826623 -0.09570278 -0.015950464 -0.07177709 -0.063801855 -0.015950464
-0.063801855 0.12361609 -0.06778947 0.08373994 0.007975232 0.015950464 -0.023925696 -0.07177709
-0.08373994 -0.19140556 0.011962848 -0.007975232 0.007975232 0.03987616 0.0 -0.027913311
0.027913311 0.08373994 0.023925696 0.055826623 -0.04785139 0.10766563 -0.035888545 -0.06778947
0.003987616 0.115640864 0.027913311 0.031900927 0.07177709 -0.031900927 -0.115640864 0.0757647
0.07177709 0.055826623 -0.091715164 0.003987616 0.011962848 -0.03987616 -0.04785139 0.07975232
-0.023925696 -0.19539317 -0.091715164 -0.027913311 0.007975232 0.04785139 0.027913311 -0.007975232
-0.035888545 0.023925696 0.035888545 0.0 0.031900927 -0.07177709 -0.091715164 0.015950464
0.027913311 0.05183901 0.05183901 0.05183901 -0.035888545 -0.0996904 0.08772755 -0.035888545
0.023925696 0.035888545 0.091715164 -0.1515294 -0.007975232 -0.055826623 0.007975232 -0.12760371
-0.08373994 -0.0996904 -0.059814237 0.007975232 0.015950464 0.027913311 -0.007975232 -0.115640864
0.111653246 0.07975232 0.007975232 -0.115640864 -0.03987616 -0.035888545 -0.06778947 0.04785139
0.0996904 -0.015950464 -0.10766563 0.003987616 -0.14754179 0.0996904 0.05183901 0.15950464
0.023925696 -0.055826623 0.14355418 -0.10766563 0.043863773 -0.2272941 0.035888545 -0.023925696
0.063801855 -0.13956656 0.23526934 0.119628474 -0.22330649 -0.17146748 0.09570278 0.027913311
0.31502166 0.031900927 0.13159132 -0.08772755 0.063801855 -0.23925695 -0.07177709 0.023925696
0.10367802 -0.31103405 -0.13159132 0.10766563 -0.0757647 -0.21931888 -0.031900927 -0.1993808
0.16747987 0.059814237 0.043863773 0.18343033 -0.111653246 -0.21533126 0.1993808 0.015950464
0.119628474 -0.2751455 0.12361609 -0.08772755 0.007975232 -0.111653246 0.015950464 0.10367802
-0.33097214 -0.111653246 0.07177709 -0.0757647 -0.14355418 -0.12760371 0.1993808 0.18741795
0.1515294 -0.23526934 0.14754179 0.0996904 -0.14355418 0.011962848 0.007975232 0.01993808
0.023925696 0.05183901 -0.5064272 0.08772755 0.063801855 0.035888545 0.09570278 -0.015950464
-0.115640864 0.13956656 -0.119628474 -0.10367802 -0.043863773 -0.031900927 -0.08772755 0.023925696
00000000: 7074 6075 889d 6b86 7e71 7359 656a 5566
00000010: 8e6f 6465 7b66 9968 987a 918d 7280 7385
00000020: 7b74 9480 6f94 848d 8385 8368 7376 8285
00000030: 67a2 6e5d 6f66 7b64 6781 667f 727c 817c
00000040: 5f83 7169 5578 8483 657c 7268 7c6e 707c
00000050: 709f 6f95 8284 7a6e 6b50 837e 828a 8079
00000060: 8795 868e 749b 776f 819d 8788 9278 6393
00000070: 928e 6981 8376 7494 7a4f 6979 828c 877e
00000080: 7786 8980 886e 6984 878d 8d8d 7767 9677
00000090: 8689 975a 7e72 8260 6b67 7182 8487 7e63
000000a0: 9c94 8263 7677 6f8c 997c 6581 5b99 8da8
000000b0: 8672 a465 8b47 897a 905d bb9e 4855 9887
000000c0: cf88 a16a 9044 6e86 9a32 5f9b 6d49 784e
000000d0: aa8f 8bae 644a b284 9e3b 9f6a 8264 849a
000000e0: 2d64 926d 5c60 b2af a645 a599 5c83 8285
000000f0: 868d 0196 9089 987c 63a3 6266 7578 6a86

DS-CNN/conv_ds_4/dw_conv/weights_quant/FakeQuantWithMinMaxVars u1 [1, 3, 3, 172] scale=0.013702296 zero_point=128
0.41106886 0.5891987 -0.46587807 0.3425574 -0.53438956 0.3014505 -0.42477116 -0.42477116
0.49328265 0.45217577 -0.972863 -1.2195044 0.57549644 -0.3151528 0.46587807 -0.49328265
0.027404591 -0.57549644 0.20553443 0.9591607 0.5891987 -0.36996198 -0.3425574 0.15072525
-0.47958034 -0.3014505 0.76732856 -0.57549644 0.5617941 -0.12332066 0.5480918 -0.3151528
-0.41106886 -0.3288551 0.76732856 1.0413744 -0.53438956 -0.3425574 0.38366428 0.6303056
0.21923673 0.79473317 -0.3288551 -0.42477116 0.5617941 0.47958034 -0.28774822 0.6303056
0.5480918 -0.3288551 -0.47958034 -0.86324465 -0.20553443 -0.5206872 -0.20553443 0.20553443
0.8769469 0.43847346 0.0 0.6166033 0.8495423 0.67141247 -0.9865653 0.45217577
0.42477116 0.57549644 -0.16442755 0.3562597 -0.47958034 0.42477116 0.7262217 0.6988171
0.28774822 0.7262217 -0.39736658 -0.45217577 0.43847346 -0.46587807 0.9591607 0.3562597
0.17812985 -0.5480918 0.78103083 -0.3562597 -0.3562597 0.45217577 -0.602901 0.21923673
0.90435153 -0.5206872 -0.53438956 -0.6166033 0.3288551 -0.78103083 -0.43847346 -0.45217577
-0.17812985 1.0824814 0.39736658 0.3151528 0.45217577 -0.67141247 -0.36996198 0.6166033
-0.45217577 0.7262217 0.42477116 -0.36996198 -0.7262217 -0.41106886 -0.3151528 -0.2740459
0.06851148 -0.5206872 0.83584005 -0.46587807 -0.13702296 -0.3562597 0.57549644 0.6577102
0.2740459 0.86324465 0.78103083 0.6166033 0.3562597 0.79473317 0.38366428 -0.3151528
-0.38366428 -0.47958034 0.3288551 0.90435153 0.2740459 -0.8495423 0.5891987 0.50698495
-0.6577102 0.7125194 -0.2603436 -0.38366428 0.41106886 -0.38366428 -0.3288551 0.602901
0.50698495 0.6166033 -0.7262217 -0.49328265 0.47958034 0.6440079 -0.57549644 -0.21923673
0.45217577 -0.9454584 0.3151528 -0.3014505 0.41106886 -0.39736658 0.5206872 0.41106886
0.38366428 -0.2603436 0.80843544 0.38366428 0.8495423 0.17812985 -0.39736658 0.2603436
-0.45217577 0.5891987 1.1646951 0.5480918 0.8769469 0.39736658 -0.36996198 0.3562597
-0.7262217 0.6988171 -0.2603436 -0.3014505 0.5206872 0.42477116 -0.21923673 0.6166033
0.602901 -0.3151528 0.50698495 -0.24664132 -0.3151528 -0.45217577 0.027404591 0.47958034
0.38366428 -0.17812985 -0.06851148 -0.6851148 -0.43847346 -0.12332066 0.6988171 -0.41106886
0.41106886 0.09591607 0.76732856 -0.20553443 -0.16442755 -0.39736658 0.53438956 0.45217577
-0.46587807 -0.79473317 0.6577102 0.57549644 0.45217577 0.49328265 -0.39736658 -0.5206872
0.38366428 0.6166033 -0.47958034 0.46587807 0.50698495 -0.20553443 -0.38366428 -0.6166033
-0.06851148 -0.53438956 -0.49328265 0.06851148 0.50698495 0.53438956 -0.24664132 0.21923673
0.49328265 0.36996198 -0.12332066 0.5617941 0.19183214 0.42477116 -0.19183214 -0.5617941
0.013702296 -0.19183214 0.53438956 0.7536263 -0.16442755 0.6303056 -0.3425574 -0.5480918
0.3014505 -0.24664132 0.8495423 0.41106886 0.46587807 -0.20553443 0.8221377 -0.36996198
00000000: 9eab 5e99 5996 6161 a4a1 3927 aa69 a25c
00000010: 8256 8fc6 ab65 678b 5d6a b856 a977 a869
00000020: 6268 b8cc 5967 9cae 90ba 6861 a9a3 6bae
00000030: a868 5d41 715a 718f c0a0 80ad beb1 38a1
00000040: 9faa 749a 5d9f b5b3 95b5 635f a05e c69a
00000050: 8d58 b966 66a1 5490 c25a 5953 9847 605f
00000060: 73cf 9d97 a14f 65ad 5fb5 9f65 4b62 696c
00000070: 855a bd5e 7666 aab0 94bf b9ad 9aba 9c69
00000080: 645d 98c2 9442 aba5 50b4 6d64 9e64 68ac
00000090: a5ad 4b5c a3af 5670 a13b 976a 9e63 a69e
000000a0: 9c6d bb9c be8d 6393 5fab d5a8 c09d 659a
000000b0: 4bb3 6d6a a69f 70ad ac69 a56e 695f 82a3
000000c0: 9c73 7b4e 6077 b362 9e87 b871 7463 a7a1
000000d0: 5e46 b0aa a1a4 635a 9cad 5da2 a571 6453
000000e0: 7b59 5c85 a5a7 6e90 a49b 77a9 8e9f 7257
000000f0: 8172 a7b7 74ae 6758 966e be9e a271 bc65

DS-CNN/conv_ds_4/pw_conv/weights_quant/FakeQuantWithMinMaxVars u1 [172, 1, 1, 172] scale=0.003671652 zero_point=128
0.10647791 -0.003671652 0.08811965 0.022029912 -0.07710469 -0.014686608 -0.07710469 0.084447995
0.014686608 0.033044867 -0.12850782 0.11382121 -0.051403128 0.066089734 0.16155268 -0.022029912
-0.102806255 0.022029912 -0.055074777 0.13952278 0.022029912 0.03671652 -0.084447995 -0.033044867
-0.13585111 -0.12483617 0.01835826 -0.084447995 -0.003671652 0.044059824 -0.033044867 -0.014686608
0.07710469 -0.22397077 -0.022029912 -0.121164516 -0.07343304 -0.029373216 0.066089734 0.14319442
-0.066089734 -0.022029912 -0.055074777 0.13952278 0.0 -0.047731474 0.16522434 0.1909259
-0.18725425 0.18725425 -0.121164516 0.15053773 -0.110149555 0.05874643 0.025701564 0.04038817
-0.084447995 0.17256764 -0.047731474 -0.03671652 -0.16155268 -0.22764242 0.029373216 0.07343304
0.16889599 -0.19459756 -0.055074777 -0.07710469 -0.13217947 -0.033044867 0.16522434 0.08811965
-0.014686608 0.0991346 -0.16522434 0.08811965 -0.066089734 0.0917913 0.16522434 -0.033044867
-0.10647791 -0.24232903 0.022029912 -0.062418085 -0.16155268 -0.066089734 0.062418085 0.09546295
0.022029912 0.05874643 -0.029373216 -0.062418085 -0.05874643 0.16155268 0.06976139 -0.011014956
-0.10647791 -0.03671652 0.01835826 -0.05874643 0.051403128 0.13952278 -0.08811965 -0.19459756
0.0 -0.084447995 -0.15053773 -0.18725425 0.13585111 0.03671652 -0.084447995 0.014686608
-0.11749286 -0.21295582 0.055074777 0.14319442 0.121164516 0.11382121 -0.044059824 -0.044059824
0.066089734 -0.05874643 -0.055074777 0.055074777 -0.011014956 0.22397077 0.17991094 -0.03671652
0.014686608 -0.07343304 0.029373216 0.0 -0.022029912 -0.062418085 0.24600068 -0.04038817
0.062418085 -0.025701564 -0.066089734 -0.033044867 0.14319442 -0.003671652 -0.2900605 0.066089734
0.007343304 -0.08077634 0.110149555 -0.047731474 -0.062418085 -0.18725425 0.04038817 0.055074777
0.03671652 0.062418085 0.23865737 0.11382121 0.084447995 -0.23865737 -0.13217947 0.0917913
0.23498572 0.19459756 0.19459756 -0.15420938 -0.03671652 -0.1909259 0.011014956 -0.084447995
-0.12483617 0.025701564 0.003671652 0.025701564 0.12850782 -0.014686608 0.17991094 0.01835826
-0.15420938 -0.04038817 0.022029912 -0.11382121 0.044059824 -0.08811965 -0.007343304 0.07343304
-0.23131408 -0.03671652 0.04038817 -0.062418085 -0.110149555 0.0 0.007343304 -0.07710469
-0.15053773 0.13952278 -0.08811965 0.08811965 0.025701564 -0.05874643 0.0 0.025701564
0.13585111 0.05874643 -0.044059824 0.13952278 -0.11382121 -0.26435894 -0.10647791 -0.22029911
-0.05874643 0.0917913 0.084447995 0.121164516 0.14686608 -0.05874643 -0.17256764 0.1835826
-0.102806255 -0.029373216 0.121164516 0.16522434 -0.0991346 0.21662746 -0.15420938 0.13217947
0.0 -0.11382121 -0.12850782 -0.01835826 -0.025701564 0.011014956 0.007343304 -0.22029911
0.24600068 -0.26435894 0.09546295 0.003671652 0.110149555 -0.014686608 -0.06976139 -0.003671652
-0.08077634 0.07343304 -0.01835826 -0.025701564 -0.022029912 0.11749286 -0.13952278 -0.04038817
-0.06976139 0.0917913 0.20561251 -0.10647791 -0.15053773 -0.13217947 -0.22764242 -0.15420938
00000000: 9d7f 9886 6b7c 6b97 8489 5d9f 7292 ac7a
00000010: 6486 71a6 868a 6977 5b5e 8569 7f8c 777c
00000020: 9543 7a5f 6c78 92a7 6e7a 71a6 8073 adb4
00000030: 4db3 5fa9 6290 878b 69af 7376 5442 8894
00000040: ae4b 716b 5c77 ad98 7c9b 5398 6e99 ad77
00000050: 633e 866f 546e 919a 8690 786f 70ac 937d
00000060: 6376 8570 8ea6 684b 8069 574d a58a 6984
00000070: 6046 8fa7 a19f 7474 9270 718f 7dbd b176
00000080: 846c 8880 7a6f c375 9179 6e77 a77f 3192
00000090: 826a 9e73 6f4d 8b8f 8a91 c19f 973f 5c99
000000a0: c0b5 b556 764c 8369 5e87 8187 a37c b185
000000b0: 5675 8661 8c68 7e94 4176 8b6f 6280 826b
000000c0: 57a6 6898 8770 8087 a590 74a6 6138 6344
000000d0: 7099 97a1 a870 51b2 6478 a1ad 65bb 56a4
000000e0: 8061 5d7b 7983 8244 c338 9a81 9e7c 6d7f
000000f0: 6a94 7b79 7aa0 5a75 6d99 b863 575c 4256

DS-CNN/fc1/weights_quant/FakeQuantWithMinMaxVars/transpose u1 [12, 172] scale=0.007301722 zero_point=128
-0.29937062 -0.32127577 -0.38699126 -0.25556028 0.23365511 -0.2701637 -0.21174994 -0.3650861
0.40889645 -0.44540507 -0.2920689 0.53302574 -0.4308016 0.0657155 -0.51112056 -0.6279481
-0.657155 -0.23365511 -0.45270678 0.45270678 -0.34318095 -0.51112056 -0.3577844 0.525724
0.44540507 -0.70826703 0.43810332 -0.40889645 -0.5841378 -0.40889645 -0.3577844 0.43810332
-0.21174994 -0.37968954 -0.42349988 -0.3577844 -0.59874123 -0.46731022 -0.40889645 -0.41619816
-0.61334467 0.43810332 -0.62064636 -0.6644567 0.094922386 -0.51112056 0.007301722 -0.394293
-0.5841378 0.394293 -0.6060429 -0.28476715 -0.55493087 -0.8835084 -0.5695343 -0.7155688
-0.5476292 -0.7958877 -0.55493087 0.262862 -0.08031894 -0.6279481 0.1971465 -0.094922386
-0.40159473 -0.51842225 -0.63524985 -0.073017225 -0.3577844 -0.5476292 -0.29937062 0.24095683
-0.37968954 -0.6279481 -0.6060429 -0.40889645 0.51842225 -0.30667233 0.3285775 -0.37968954
-0.4600085 -0.6498533 -0.5403274 -0.4600085 -0.59874123 -0.16063789 -0.788586 -0.6644567
-0.2920689 -0.70096534 -0.37968954 -0.23365511 -0.7593791 -0.20444822 -0.46731022 -0.44540507
-0.014603444 -0.5403274 -0.6060429 -0.10952583 -0.44540507 -0.3285775 -0.59874123 -0.6279481
0.10952583 0.49651712 0.37968954 -0.21905166 0.44540507 -0.3285775 -0.51112056 -0.81049114
-0.44540507 -0.38699126 -0.12412928 -0.394293 0.051112056 -0.394293 0.0 -0.51842225
-0.5476292 -0.131431 -0.91271526 -0.47461194 -0.40159473 -0.525724 -0.31397405 -0.9273187
0.30667233 -0.62064636 -0.5403274 -0.4600085 -0.59874123 -0.63524985 0.18254305 0.3358792
-0.59874123 0.29937062 -0.30667233 0.42349988 -0.46731022 -0.27746543 -0.5038188 -0.3577844
0.3650861 -0.48921537 -0.22635339 -0.3358792 -0.2920689 0.51112056 0.18254305 -0.6279481
0.41619816 -0.51112056 0.4600085 -0.84699976 -0.34318095 -0.22635339 -0.44540507 -0.657155
-0.42349988 0.37238783 -0.4308016 -0.4600085 0.46731022 -0.51112056 -0.55493087 -0.53302574
-0.29937062 -0.5914395 -0.5914395 0.3358792 0.10952583 -0.021905167 0.043810334 0.29937062
-0.28476715 -0.08031894 0.036508612 -0.23365511 0.051112056 0.27746543 -0.21905166 -0.25556028
0.029206889 0.262862 0.3358792 0.1679396 -0.21174994 -0.007301722 0.094922386 0.262862
0.18254305 0.08031894 0.131431 -0.20444822 0.37238783 0.34318095 0.21174994 0.021905167
-0.051112056 0.30667233 0.12412928 -0.3650861 -0.014603444 0.18254305 0.262862 -0.13873272
0.31397405 0.3650861 -0.036508612 0.17524134 0.25556028 -0.1679396 0.25556028 -0.24095683
0.073017225 0.21905166 -0.21174994 -0.058413778 0.27746543 -0.23365511 0.007301722 -0.31397405
0.058413778 0.12412928 -0.27746543 -0.37238783 -0.029206889 -0.2701637 0.32127577 0.10952583
-0.18984477 -0.0657155 0.073017225 0.20444822 -0.12412928 -0.18984477 0.29937062 -0.4600085
-0.3285775 0.22635339 0.043810334 -0.08031894 0.007301722 0.20444822 -0.021905167 -0.262862
-0.08762067 0.3577844 0.14603445 -0.029206889 -0.22635339 0.24095683 -0.13873272 -0.15333617
00000000: 5754 4b5d a05b 634e b843 58c9 4589 3a2a
00000010: 2660 42be 513a 4fc8 bd1f bc48 3048 4fbc
00000020: 634c 464f 2e40 4847 2cbc 2b25 8d3a 814a
00000030: 30b6 2d59 3407 321e 3513 34a4 752a 9b73
00000040: 4939 2976 4f35 57a1 4c2a 2d48 c756 ad4c
00000050: 4127 3641 2e6a 1425 5820 4c60 1864 4043
00000060: 7e36 2d71 4353 2e2a 8fc4 b462 bd53 3a11
00000070: 434b 6f4a 874a 8039 356e 033f 4938 5501
00000080: aa2b 3641 2e29 99ae 2ea9 56ba 405a 3b4f
00000090: b23d 6152 58c6 992a b93a bf0c 5161 4326
000000a0: 46b3 4541 c03a 3437 572f 2fae 8f7d 86a9
000000b0: 5975 8560 87a6 625d 84a4 ae97 637f 8da4
000000c0: 998b 9264 b3af 9d83 79aa 914e 7e99 a46d
000000d0: abb2 7b98 a369 a35f 8a9e 6378 a660 8155
000000e0: 8891 5a4d 7c5b ac8f 6677 8a9c 6f66 a941
000000f0: 539f 8675 819c 7d5c 74b1 947c 61a1 6d6b
