nn_menu/starters/keyword_spotting/model/KWS_ds_cnn_l_quant_power_98timesteps.tflite (tflite, 427432 bytes, 12 tensors)

DS-CNN/conv_1/weights_quant/FakeQuantWithMinMaxVars u1 [276, 10, 4, 1] scale=0.0014069263 zero_point=128
-0.008441558 0.018290043 0.0 -0.018290043 0.0112554105 0.0112554105 -0.0014069263 -0.0056277052
0.016883116 0.03798701 -0.03517316 0.022510821 0.0112554105 0.022510821 -0.040800862 0.036580086
0.019696968 0.008441558 -0.025324674 0.028138526 0.004220779 -0.03095238 -0.0056277052 0.016883116
-0.0028138526 -0.045021642 0.0112554105 0.025324674 -0.01547619 -0.06331168 0.0070346314 0.019696968
0.0 -0.012662337 0.0056277052 -0.0014069263 0.021103894 0.0028138526 -0.004220779 -0.0112554105
0.0070346314 -0.01547619 -0.022510821 0.022510821 0.012662337 0.0014069263 -0.012662337 0.021103894
0.008441558 0.0 0.0056277052 0.0070346314 0.0028138526 0.012662337 -0.0028138526 0.0070346314
0.0014069263 -0.012662337 -0.012662337 0.0056277052 0.0 -0.019696968 -0.014069263 0.008441558
0.004220779 -0.033766232 -0.01547619 0.0112554105 0.0 -0.021103894 -0.023917748 0.009848484
-0.004220779 -0.0028138526 -0.028138526 0.0056277052 0.0 0.0056277052 -0.03095238 -0.0070346314
-0.0014069263 0.016883116 0.022510821 0.01547619 -0.004220779 0.016883116 0.01547619 0.019696968
-0.0070346314 0.0056277052 0.0056277052 0.016883116 -0.0014069263 -0.0070346314 0.009848484 0.004220779
-0.008441558 -0.021103894 0.021103894 0.0112554105 0.0014069263 -0.03095238 0.012662337 -0.0070346314
-0.004220779 -0.03517316 0.0070346314 -0.012662337 0.0 -0.032359306 -0.0028138526 -0.008441558
-0.004220779 0.0014069263 -0.004220779 -0.0112554105 0.004220779 0.0056277052 -0.014069263 -0.019696968
-0.012662337 0.04642857 -0.045021642 -0.09426406 -0.0014069263 0.043614715 -0.03517316 -0.11396103
-0.0267316 0.047835495 0.0028138526 -0.09707791 -0.009848484 0.019696968 0.023917748 -0.05768398
-0.012662337 0.0112554105 0.03517316 0.0070346314 -0.0267316 -0.040800862 0.039393935 0.06190476
0.0056277052 -0.045021642 0.018290043 0.081601724 0.03517316 -0.040800862 0.0056277052 0.07597402
0.008441558 -0.03798701 -0.0112554105 0.06190476 0.047835495 -0.036580086 -0.047835495 0.04642857
0.0070346314 0.019696968 0.03095238 0.036580086 0.01547619 0.032359306 0.0070346314 0.0070346314
0.021103894 0.016883116 -0.01547619 -0.0028138526 0.03095238 0.0267316 -0.009848484 -0.004220779
0.022510821 0.014069263 0.008441558 0.009848484 0.0056277052 -0.01547619 -0.012662337 -0.016883116
-0.0056277052 -0.0014069263 -0.0112554105 -0.0112554105 -0.008441558 -0.0028138526 0.0014069263 0.008441558
-0.032359306 -0.0112554105 -0.009848484 0.01547619 -0.019696968 -0.0028138526 -0.022510821 0.009848484
-0.008441558 -0.022510821 -0.012662337 0.008441558 -0.016883116 -0.05064935 -0.004220779 0.06190476
-0.009848484 0.008441558 0.05064935 0.06471861 -0.016883116 0.049242422 0.049242422 -0.0267316
0.05064935 0.09707791 0.045021642 -0.009848484 0.06190476 0.04220779 -0.009848484 -0.08582251
0.022510821 -0.022510821 -0.04642857 -0.052056275 0.0056277052 -0.049242422 -0.04642857 0.004220779
-0.019696968 -0.04220779 0.016883116 0.033766232 -0.0267316 -0.067532465 -0.0028138526 0.0112554105
-0.0112554105 -0.009848484 -0.018290043 0.0056277052 -0.0056277052 -0.0070346314 -0.021103894 -0.004220779
-0.019696968 -0.018290043 -0.016883116 -0.0028138526 -0.01547619 -0.004220779 -0.008441558 0.004220779
00000000: 7a8d 8073 8888 7f7c 8c9b 6790 8890 639a
00000010: 8e86 6e94 836a 7c8c 7e60 8892 7553 858e
00000020: 8077 847f 8f82 7d78 8575 7090 8981 778f
00000030: 8680 8485 8289 7e85 8177 7784 8072 7686
00000040: 8368 7588 8071 6f87 7d7e 6c84 8084 6a7b
00000050: 7f8c 908b 7d8c 8b8e 7b84 848c 7f7b 8783
00000060: 7a71 8f88 816a 897b 7d67 8577 8069 7e7a
00000070: 7d81 7d78 8384 7672 77a1 603d 7f9f 672f
00000080: 6da2 823b 798e 9157 7788 9985 6d63 9cac
00000090: 8460 8dba 9963 84b6 8665 78ac a266 5ea1
000000a0: 858e 969a 8b97 8585 8f8c 757e 9693 797d
000000b0: 908a 8687 8475 7774 7c7f 7878 7a7e 8186
000000c0: 6978 798b 727e 7087 7a70 7786 745c 7dac
000000d0: 7986 a4ae 74a3 a36d a4c5 a079 ac9e 7943
000000e0: 9070 5f5b 845d 5f83 7262 8c98 6d50 7e88
000000f0: 7879 7384 7c7b 717d 7273 747e 757d 7a83

DS-CNN/conv_ds_1/dw_conv/weights_quant/FakeQuantWithMinMaxVars u1 [1, 3, 3, 276] scale=0.024404995 zero_point=128
1.0006047 -1.2202498 0.70774484 -0.09761998 -1.3666797 -0.29285994 0.73214984 0.4636949
-1.2690598 -0.39047992 0.5857199 -0.17083496 -0.04880999 -0.75655484 0.19523996 0.4636949
-0.4636949 1.6107297 -1.1714398 -0.36607492 -0.024404995 -0.073214985 1.1958448 0.073214985
-0.09761998 -1.1226298 -0.41488492 0.24404995 -1.1226298 0.024404995 -0.75655484 -0.19523996
-0.41488492 -0.6345299 0.5857199 0.14642997 -0.19523996 0.6589349 -0.43928993 0.04880999
0.9761998 -0.24404995 1.0982248 0.5125049 -0.34166992 -1.4398947 -0.5613149 0.75655484
-0.78095984 0.073214985 -0.41488492 -0.6589349 -0.68333983 -1.3178698 0.0 -0.68333983
0.5857199 -0.31726494 -1.1958448 -0.78095984 1.0250098 -0.19523996 -0.29285994 -0.34166992
-0.14642997 -0.5857199 1.6351347 0.6101249 -0.70774484 0.5125049 0.04880999 0.14642997
-0.17083496 0.5857199 -0.21964496 -0.75655484 -0.29285994 -0.6345299 0.4880999 -0.21964496
-1.0006047 -0.19523996 -0.122024976 0.80536485 0.31726494 0.29285994 0.6589349 -0.29285994
-1.9279946 0.29285994 0.09761998 0.70774484 0.073214985 0.34166992 -0.24404995 0.09761998
-0.5613149 0.31726494 0.19523996 0.9761998 0.34166992 -0.6589349 -0.36607492 -1.2446548
-0.6101249 -0.5369099 -0.85417485 -1.3178698 -0.024404995 0.26845494 -0.29285994 -1.1958448
-0.24404995 1.5131097 -1.7083497 -0.34166992 0.17083496 -1.3422748 -0.9029848 -0.19523996
0.39047992 -0.36607492 0.09761998 0.24404995 -0.17083496 -0.26845494 0.024404995 0.024404995
0.024404995 -1.1226298 -1.3422748 1.4887047 -0.073214985 -1.1226298 0.68333983 -0.39047992
-0.41488492 0.073214985 -0.09761998 -0.5857199 0.41488492 0.6589349 0.122024976 -0.14642997
-0.87857985 -0.17083496 -0.5613149 -1.1714398 -0.122024976 -1.0006047 0.26845494 -0.5613149
-1.3422748 0.6101249 -0.39047992 -0.29285994 -1.1226298 -0.36607492 0.5613149 -0.31726494
1.0006047 -0.6589349 -0.14642997 0.70774484 0.4636949 -0.31726494 0.24404995 0.78095984
-0.09761998 0.073214985 0.31726494 -0.19523996 1.1714398 -0.04880999 0.21964496 0.122024976
-0.29285994 -0.5857199 -0.21964496 -0.6101249 -0.09761998 0.0 1.0494148 -2.0012095
-0.41488492 2.4160945 -0.5369099 0.4880999 -0.78095984 0.6345299 -0.36607492 -1.5375147
0.6589349 0.78095984 0.43928993 -0.04880999 -0.17083496 0.122024976 1.0494148 0.14642997
-1.1470348 -0.87857985 0.5369099 -0.9273898 -1.4887047 0.5857199 -0.29285994 1.5131097
-0.68333983 0.21964496 -0.73214984 -0.6589349 -0.26845494 0.5125049 1.4642997 0.024404995
-0.41488492 1.0250098 1.5863247 -0.122024976 0.09761998 0.4636949 -0.29285994 -0.17083496
-0.4880999 0.09761998 0.39047992 -1.1714398 -0.87857985 -0.5369099 0.14642997 0.17083496
-1.5863247 -0.5613149 0.4636949 -0.5369099 2.5869296 1.4154897 -0.024404995 0.24404995
1.0250098 -0.68333983 0.29285994 -0.31726494 -0.36607492 0.34166992 0.6101249 1.1714398
0.31726494 1.8059696 0.17083496 0.5613149 0.19523996 0.82976985 0.70774484 -1.5375147
00000000: a94e 9d7c 4874 9e93 4c70 9879 7e61 8893
00000010: 6dc2 5071 7f7d b183 7c52 6f8a 5281 6178
00000020: 6f66 9886 789b 6e82 a876 ad95 7245 699f
00000030: 6083 6f65 644a 8064 9873 4f60 aa78 7472
00000040: 7a68 c399 6395 8286 7998 7761 7466 9477
00000050: 5778 7ba1 8d8c 9b74 318c 849d 838e 7684
00000060: 698d 88a8 8e65 714d 676a 5d4a 7f8b 744f
00000070: 76be 3a72 8749 5b78 9071 848a 7975 8181
00000080: 8152 49bd 7d52 9c70 6f83 7c68 919b 857a
00000090: 5c79 6950 7b57 8b69 4999 7074 5271 9773
000000a0: a965 7a9d 9373 8aa0 7c83 8d78 b07e 8985
000000b0: 7468 7767 7c80 ab2e 6fe3 6a94 609a 7141
000000c0: 9ba0 927e 7985 ab86 515c 965a 4398 74be
000000d0: 6489 6265 7595 bc81 6faa c17b 8493 7479
000000e0: 6c84 9050 5c6a 8687 3f69 936a eaba 7f8a
000000f0: aa64 8c73 718e 99b0 8dca 8797 88a2 9d41

DS-CNN/conv_ds_1/pw_conv/weights_quant/FakeQuantWithMinMaxVars u1 [276, 1, 1, 276] scale=0.0032710838 zero_point=128
-0.039253004 -0.0032710838 0.0065421676 -0.0032710838 -0.01635542 0.15046985 0.0 -0.055608425
-0.081777096 -0.09486143 -0.06869276 0.06542168 -0.07850601 -0.10467468 0.0 -0.013084335
0.009813251 -0.013084335 0.14719877 -0.03271084 0.081777096 -0.06542168 -0.06869276 -0.0065421676
0.055608425 0.0032710838 -0.12430119 0.02616867 -0.055608425 0.0032710838 -0.07523493 -0.035981923
-0.035981923 0.15046985 -0.019626502 -0.03271084 -0.081777096 -0.05233734 0.0 -0.029439755
0.07196385 0.013084335 -0.05233734 -0.0032710838 -0.09813251 -0.1014036 -0.06869276 0.1014036
-0.04252409 0.0 0.0 -0.0065421676 -0.08504818 0.035981923 -0.06869276 0.013084335
0.039253004 0.009813251 -0.02616867 -0.11775902 -0.045795172 0.1602831 0.03271084 -0.06869276
-0.09486143 -0.062150594 0.009813251 -0.049066257 0.013084335 0.06542168 0.009813251 0.0
0.17009635 -0.045795172 -0.09813251 0.05887951 0.022897586 0.062150594 0.019626502 -0.019626502
0.022897586 -0.009813251 0.12430119 0.009813251 -0.06869276 0.013084335 -0.062150594 -0.09486143
0.035981923 0.0065421676 0.03271084 0.06542168 0.01635542 -0.06869276 -0.045795172 0.12430119
-0.08504818 0.009813251 0.07850601 0.088319264 -0.22570479 -0.029439755 -0.088319264 0.11448793
0.019626502 -0.01635542 0.07850601 -0.13738552 -0.088319264 0.045795172 -0.0065421676 0.013084335
-0.09813251 0.019626502 -0.1210301 0.13411443 -0.091590345 -0.06869276 0.11121685 -0.02616867
0.02616867 -0.04252409 0.11121685 0.029439755 -0.091590345 0.06869276 -0.062150594 0.04252409
0.013084335 -0.1014036 0.07850601 -0.13411443 0.13738552 -0.05233734 -0.06869276 0.049066257
0.03271084 -0.03271084 0.03271084 0.009813251 0.08504818 -0.06542168 -0.05887951 -0.0032710838
0.0 -0.02616867 -0.11448793 -0.081777096 0.091590345 -0.24533129 0.019626502 0.12430119
-0.062150594 -0.049066257 0.055608425 -0.06542168 -0.01635542 0.06542168 -0.039253004 0.0065421676
0.049066257 0.07196385 -0.07196385 0.0 0.07850601 0.055608425 0.02616867 0.0
-0.08504818 -0.091590345 -0.02616867 0.03271084 0.009813251 -0.091590345 -0.062150594 0.022897586
-0.11448793 -0.09813251 -0.10467468 -0.06542168 -0.07523493 0.022897586 -0.009813251 0.088319264
0.049066257 0.022897586 -0.0032710838 -0.055608425 0.045795172 0.09486143 -0.019626502 -0.03271084
0.009813251 -0.055608425 -0.01635542 -0.0032710838 -0.07196385 -0.09486143 0.0 0.05233734
0.01635542 0.05887951 -0.09813251 -0.08504818 -0.029439755 -0.12430119 0.03271084 0.11121685
0.07523493 0.0032710838 -0.029439755 0.0032710838 -0.0032710838 -0.029439755 0.0032710838 0.081777096
-0.03271084 0.06542168 -0.07196385 0.0032710838 -0.1439277 0.009813251 -0.07850601 0.062150594
-0.13411443 0.062150594 0.029439755 0.05887951 0.035981923 0.06869276 -0.1210301 0.09486143
0.029439755 -0.13084336 0.01635542 0.06542168 0.029439755 0.1014036 0.13084336 -0.045795172
0.05887951 0.01635542 -0.019626502 -0.07523493 -0.013084335 -0.055608425 0.0 -0.1439277
0.12757227 0.07196385 -0.013084335 0.02616867 -0.1014036 -0.049066257 0.03271084 -0.07850601
00000000: 747f 827f 7bae 806f 6763 6b94 6860 807c
00000010: 837c ad76 996c 6b7e 9181 5a88 6f81 6975
00000020: 75ae 7a76 6770 8077 9684 707f 6261 6b9f
00000030: 7380 807e 668b 6b84 8c83 785c 72b1 8a6b
00000040: 636d 8371 8494 8380 b472 6292 8793 867a
00000050: 877d a683 6b84 6d63 8b82 8a94 856b 72a6
00000060: 6683 989b 3b77 65a3 867b 9856 658e 7e84
00000070: 6286 5ba9 646b a278 8873 a289 6495 6d8d
00000080: 8461 9857 aa70 6b8f 8a76 8a83 9a6c 6e7f
00000090: 8078 5d67 9c35 86a6 6d71 916c 7b94 7482
000000a0: 8f96 6a80 9891 8880 6664 788a 8364 6d87
000000b0: 5d62 606c 6987 7d9b 8f87 7f6f 8e9d 7a76
000000c0: 836f 7b7f 6a63 8090 8592 6266 775a 8aa2
000000d0: 9781 7781 7f77 8199 7694 6a81 5483 6893
000000e0: 5793 8992 8b95 5b9d 8958 8594 899f a872
000000f0: 9285 7a69 7c6f 8054 a796 7c88 6171 8a68

DS-CNN/conv_ds_2/dw_conv/weights_quant/FakeQuantWithMinMaxVars u1 [1, 3, 3, 276] scale=0.019589836 zero_point=128
-0.23507804 -0.019589836 -0.3330272 -0.45056623 -0.3330272 0.05876951 1.077441 0.4897459
-0.37220687 -0.5681052 0.17630853 0.03917967 0.9207223 0.94031215 -0.6464646 -0.58769506
0.4309764 -1.0382613 -0.3917967 0.7640036 -0.7835934 -0.05876951 -0.68564427 -0.3917967
-1.0382613 -0.4897459 -0.2154882 0.90113246 0.84236294 0.3917967 0.50933576 0.5485154
1.4692377 -0.11753902 -1.782675 0.7835934 0.13712884 0.5485154 -0.31343737 -0.80318326
0.5485154 0.58769506 -0.9794918 -0.05876951 0.11753902 -1.077441 0.62687474 0.62687474
0.74441373 -0.19589835 -0.5681052 0.23507804 0.19589835 -0.3917967 -0.15671869 -0.03917967
0.07835934 -0.45056623 -0.15671869 0.62687474 1.19498 -0.3330272 0.47015607 -0.5681052
0.4309764 0.05876951 0.8227731 1.547597 -0.9990816 -0.68564427 0.6072849 0.2154882
1.312519 -0.6072849 -0.4897459 0.3330272 0.13712884 -0.68564427 -0.17630853 -0.19589835
0.4897459 -0.6072849 0.7640036 0.11753902 -0.11753902 0.0 0.3917967 0.7835934
-0.05876951 -0.2154882 -0.019589836 0.3330272 -0.3917967 0.29384753 0.7640036 -1.077441
-1.3712885 -0.72482395 -0.7835934 0.5681052 -0.6660544 -2.1744719 -0.74441373 1.0382613
-1.2537495 -0.25466788 -0.4897459 0.72482395 0.2154882 -0.23507804 -0.7835934 0.72482395
-0.80318326 0.6464646 -0.74441373 0.41138655 0.5681052 0.6464646 1.2929292 -1.19498
0.45056623 0.11753902 -0.52892554 -0.9207223 -1.1753901 -0.4897459 -1.3712885 0.0
0.31343737 0.9794918 -0.80318326 0.03917967 -0.07835934 -0.7640036 -0.5485154 -1.0186715
-0.50933576 0.50933576 -0.4897459 -0.03917967 0.23507804 1.6651361 0.13712884 -0.6464646
-0.9207223 1.5867767 -0.58769506 1.3321089 -0.74441373 0.5485154 0.47015607 -1.4496479
0.4897459 -0.72482395 -0.37220687 0.45056623 -0.5681052 1.0578511 0.58769506 0.35261706
-1.2929292 1.6259564 -0.7640036 -0.5681052 0.07835934 0.3917967 0.37220687 1.0970308
-1.3321089 0.37220687 -0.52892554 1.19498 0.94031215 0.29384753 -0.47015607 -0.41138655
-0.15671869 -0.09794918 -0.4309764 -0.6072849 -1.7043157 -0.84236294 -0.41138655 -0.3330272
-0.35261706 -0.11753902 -0.17630853 -0.45056623 -0.5681052 -0.23507804 1.5084174 -1.2537495
0.09794918 0.80318326 1.1362104 -0.25466788 -0.2742577 -0.4897459 0.7835934 -0.019589836
-0.37220687 -0.37220687 -0.2154882 0.52892554 1.2733393 0.09794918 -0.8815426 0.07835934
0.90113246 -0.5485154 0.2742577 -0.6464646 -0.05876951 0.4309764 0.6660544 0.80318326
0.19589835 0.7835934 -0.41138655 1.3321089 0.29384753 1.3516986 -0.29384753 -1.1753901
-0.2154882 0.31343737 -0.37220687 0.8815426 1.2145698 -0.8815426 1.2341597 -0.29384753
1.0578511 0.9207223 -0.31343737 0.50933576 -0.41138655 -0.25466788 -0.35261706 0.74441373
-0.4309764 0.90113246 0.5485154 0.45056623 -0.03917967 0.80318326 0.52892554 0.80318326
-0.2154882 -0.68564427 1.1166207 0.29384753 1.3908783 -0.4897459 -0.19589835 -0.52892554
00000000: 747f 6f69 6f83 b799 6d63 8982 afb0 5f62
00000010: 964b 6ca7 587d 5d6c 4b67 75ae ab94 9a9c
00000020: cb7a 25a8 879c 7057 9c9e 4e7d 8649 a0a0
00000030: a676 638c 8a6c 787e 8469 78a0 bd6f 9863
00000040: 9683 aacf 4d5d 9f8b c361 6791 875d 7776
00000050: 9961 a786 7a80 94a8 7d75 7f91 6c8f a749
00000060: 3a5b 589d 5e11 5ab5 4073 67a5 8b74 58a5
00000070: 57a1 5a95 9da1 c243 9786 6551 4467 3a80
00000080: 90b2 5782 7c59 644c 669a 677e 8cd5 875f
00000090: 51d1 62c4 5a9c 9836 995b 6d97 63b6 9e92
000000a0: 3ed3 5963 8494 93b8 3c93 65bd b08f 686b
000000b0: 787b 6a61 2955 6b6f 6e7a 7769 6374 cd40
000000c0: 85a9 ba73 7267 a87f 6d6d 759b c185 5384
000000d0: ae64 8e5f 7d96 a2a9 8aa8 6bc4 8fc5 7144
000000e0: 7590 6dad be53 bf71 b6af 709a 6b73 6ea6
000000f0: 6aae 9c97 7ea9 9ba9 755d b98f c767 7665

DS-CNN/conv_ds_2/pw_conv/weights_quant/FakeQuantWithMinMaxVars u1 [276, 1, 1, 276] scale=0.0026128704 zero_point=128
-0.07577324 -0.018290093 0.0078386115 0.094063334 0.07577324 -0.09145047 -0.060096018 -0.005225741
-0.018290093 -0.0078386115 -0.10190195 0.033967316 0.036580186 0.028741574 0.11757917 -0.049644537
0.010451482 -0.033967316 0.09145047 -0.0026128704 -0.010451482 0.094063334 0.0 0.060096018
-0.031354446 0.0026128704 -0.0026128704 -0.0026128704 -0.07316037 -0.005225741 0.0 0.07577324
0.09145047 -0.10712769 -0.120192036 0.013064352 0.028741574 -0.023515834 -0.0026128704 0.023515834
-0.07577324 -0.07838611 0.09145047 0.013064352 0.026128704 -0.033967316 0.039193057 -0.033967316
0.09145047 0.06532176 0.060096018 0.06793463 0.057483148 0.088837594 0.088837594 0.09667621
0.036580186 0.10190195 -0.14370787 -0.023515834 0.054870278 -0.17506231 0.16983658 -0.028741574
-0.0705475 -0.17244945 -0.08099898 -0.06532176 0.020902963 0.13325639 0.026128704 -0.041805927
0.041805927 -0.18028806 -0.09145047 0.19335242 -0.099289075 0.020902963 -0.060096018 0.088837594
0.036580186 0.06793463 0.0078386115 0.06270889 0.11235343 -0.06270889 0.052257407 -0.028741574
0.088837594 0.0705475 0.0078386115 0.114966296 -0.023515834 -0.15415935 0.14632075 -0.08622473
-0.17506231 0.0026128704 0.094063334 -0.099289075 0.039193057 0.005225741 0.031354446 -0.039193057
-0.031354446 0.023515834 0.026128704 0.13064352 0.005225741 -0.120192036 -0.13064352 -0.10190195
0.044418797 -0.07838611 0.060096018 0.0 -0.020902963 -0.039193057 -0.049644537 0.026128704
0.060096018 0.06532176 -0.010451482 -0.06532176 0.015677223 -0.039193057 0.09667621 -0.0705475
0.0 0.060096018 0.033967316 0.088837594 0.054870278 0.09667621 -0.033967316 -0.08099898
-0.16199796 0.018290093 -0.13325639 -0.010451482 0.16461083 0.060096018 0.07577324 -0.0078386115
-0.09145047 -0.0705475 -0.06793463 -0.06270889 -0.13325639 -0.020902963 -0.16199796 0.114966296
0.005225741 0.047031667 0.120192036 0.06270889 0.07316037 0.044418797 -0.13848214 0.047031667
0.07838611 -0.0078386115 -0.13586926 -0.25083557 0.06270889 0.16983658 -0.114966296 -0.049644537
0.054870278 0.17767519 -0.020902963 -0.039193057 0.088837594 0.036580186 -0.06793463 0.21686825
-0.07577324 0.010451482 -0.013064352 -0.22731973 -0.026128704 -0.057483148 0.052257407 0.17767519
-0.1593851 0.044418797 -0.06532176 -0.16983658 0.06270889 0.036580186 0.07838611 -0.039193057
-0.044418797 0.22470686 0.039193057 0.11757917 -0.13064352 -0.08099898 0.060096018 0.047031667
-0.026128704 0.10190195 -0.14370787 0.09667621 0.07838611 -0.10190195 0.0078386115 -0.109740555
0.14370787 -0.08622473 -0.104514815 0.020902963 -0.010451482 0.06532176 0.12280491 0.010451482
0.07838611 0.120192036 0.054870278 0.104514815 -0.010451482 0.07577324 0.1593851 -0.023515834
-0.06793463 0.12803066 -0.104514815 -0.047031667 -0.057483148 -0.028741574 0.0078386115 0.044418797
-0.031354446 -0.07316037 0.0026128704 -0.033967316 0.054870278 -0.09667621 -0.020902963 0.13064352
-0.088837594 -0.09145047 -0.08361185 0.16199796 -0.013064352 0.041805927 -0.104514815 -0.026128704
0.041805927 0.010451482 0.10712769 -0.052257407 0.005225741 -0.18028806 -0.023515834 0.12541778
00000000: 6379 83a4 9d5d 697e 797d 598d 8e8b ad6d
00000010: 8473 a37f 7ca4 8097 7481 7f7f 647e 809d
00000020: a357 5285 8b77 7f89 6362 a385 8a73 8f73
00000030: a399 979a 96a2 a2a5 8ea7 4977 953d c175
00000040: 653e 6167 88b3 8a70 903b 5dca 5a88 69a2
00000050: 8e9a 8398 ab68 9475 a29b 83ac 7745 b85f
00000060: 3d81 a45a 8f82 8c71 7489 8ab2 8252 4e59
00000070: 9162 9780 7871 6d8a 9799 7c67 8671 a565
00000080: 8097 8da2 95a5 7361 4287 4d7c bf97 9d7d
00000090: 5d65 6668 4d78 42ac 8292 ae98 9c91 4b92
000000a0: 9e7d 4c20 98c1 546d 95c4 7871 a28e 66d3
000000b0: 6384 7b29 766a 94c4 4391 673f 988e 9e71
000000c0: 6fd6 8fad 4e61 9792 76a7 49a5 9e59 8356
000000d0: b75f 5888 7c99 af84 9eae 95a8 7c9d bd77
000000e0: 66b1 586e 6a75 8391 7464 8173 955b 78b2
000000f0: 5e5d 60be 7b90 5876 9084 a96c 823b 77b0

DS-CNN/conv_ds_3/dw_conv/weights_quant/FakeQuantWithMinMaxVars u1 [1, 3, 3, 276] scale=0.019615278 zero_point=128
0.49038196 -0.25499862 0.1765375 0.25499862 0.0 -0.50999725 -0.37269026 1.3338389
0.19615278 0.31384444 -0.33345973 0.41192085 -0.2746139 -0.039230555 0.21576805 0.2746139
0.039230555 0.1765375 -0.39230555 0.019615278 -0.29422915 0.31384444 0.47076666 -0.058845833
0.33345973 -0.117691666 -0.8630722 -0.039230555 -0.66691947 -0.90230274 -0.23538333 -0.37269026
1.3730694 -0.45115137 -0.8826875 -0.5884583 -0.5884583 0.6276889 0.6865347 0.019615278
0.058845833 -0.13730694 -0.49038196 1.3534541 0.70615 -0.09807639 -1.2161472 0.8630722
-0.15692222 1.3142236 0.6865347 -0.4315361 0.6473042 -0.6865347 -0.8042264 0.49038196
-0.8238417 0.5296125 0.019615278 0.8238417 0.49038196 -0.058845833 0.39230555 -1.6084528
-1.1573014 -0.117691666 0.117691666 -0.8630722 0.56884307 0.9807639 -0.4315361 0.49038196
0.9807639 -0.117691666 -0.37269026 0.41192085 0.0 -0.7649958 1.4515306 -0.50999725
-1.1376861 -0.47076666 -0.37269026 -0.21576805 -0.50999725 -0.50999725 0.8630722 -0.6080736
0.019615278 -0.66691947 0.6865347 0.25499862 1.2946084 -0.5884583 0.8434569 -0.8630722
-0.56884307 0.8238417 -0.25499862 -0.47076666 -0.5492278 -0.9415333 -0.1765375 0.45115137
-0.41192085 0.90230274 0.39230555 -0.5492278 -0.7649958 0.19615278 0.9807639 0.45115137
-0.039230555 0.07846111 0.7257653 0.039230555 0.7257653 -0.6276889 -0.019615278 1.1573014
0.8630722 -0.47076666 -0.6080736 0.353075 -0.31384444 -0.2746139 -0.019615278 0.7649958
0.9807639 -0.7649958 1.1180708 0.15692222 -0.07846111 -0.5884583 0.31384444 0.0
-0.45115137 -0.33345973 0.2746139 -0.09807639 -0.039230555 -0.21576805 -0.8630722 -0.7846111
0.6276889 -0.47076666 0.1765375 -0.039230555 -0.5492278 -0.117691666 -0.21576805 0.9415333
-0.39230555 0.9415333 -1.059225 -0.39230555 0.70615 -0.058845833 -1.059225 -0.09807639
-1.1965319 0.47076666 0.8434569 -0.23538333 -0.117691666 -0.37269026 1.4711459 0.37269026
0.31384444 -0.21576805 0.6865347 1.8634514 0.39230555 -0.9415333 -0.058845833 -1.3534541
-0.1765375 -0.019615278 0.15692222 -0.66691947 -0.31384444 1.059225 -0.6276889 0.25499862
-0.31384444 0.56884307 -0.4315361 1.2553778 0.29422915 -0.25499862 0.4315361 -0.41192085
-0.15692222 0.56884307 0.70615 0.13730694 -0.33345973 1.0199945 0.56884307 -0.6276889
0.31384444 -0.39230555 -0.6865347 0.49038196 0.7649958 -0.5884583 1.5103763 -0.5296125
0.70615 -0.23538333 -0.4315361 -0.5884583 0.37269026 -0.90230274 -0.47076666 1.1376861
0.33345973 -1.4515306 0.66691947 0.5492278 -0.19615278 -0.39230555 0.25499862 -1.1573014
0.0 -0.9415333 -0.4315361 -0.8238417 -0.4315361 -0.45115137 -0.31384444 0.353075
0.0 -1.0003792 0.33345973 0.1765375 0.9415333 -0.70615 -0.2746139 1.3926847
1.3534541 -0.2746139 1.0396097 -0.058845833 2.0988348 -1.1376861 0.7649958 1.1573014
-0.058845833 0.07846111 -1.5496069 -0.058845833 -0.039230555 -0.6865347 0.117691666 -0.56884307
00000000: 9973 898d 8066 6dc4 8a90 6f95 727e 8b8e
00000010: 8289 6c81 7190 987d 917a 547e 5e52 746d
00000020: c669 5362 62a0 a381 8379 67c5 a47b 42ac
00000030: 78c3 a36a a15d 5799 569b 81aa 997d 942e
00000040: 457a 8654 9db2 6a99 b27a 6d95 8059 ca66
00000050: 4668 6d75 6666 ac61 815e a38d c262 ab54
00000060: 63aa 7368 6450 7797 6bae 9464 598a b297
00000070: 7e84 a582 a560 7fbb ac68 6192 7072 7fa7
00000080: b259 b988 7c62 9080 696f 8e7b 7e75 5458
00000090: a068 897e 647a 75b0 6cb0 4a6c a47d 4a7b
000000a0: 4398 ab74 7a6d cb93 9075 a3df 9450 7d3b
000000b0: 777f 885e 70b6 608d 709d 6ac0 8f73 966b
000000c0: 789d a487 6fb4 9d60 906c 5d99 a762 cd65
000000d0: a474 6a62 9352 68ba 9136 a29c 766c 8d45
000000e0: 8050 6a56 6a69 7092 804d 9189 b05c 72c7
000000f0: c572 b57d eb46 a7bb 7d84 317d 7e5d 8663

DS-CNN/conv_ds_3/pw_conv/weights_quant/FakeQuantWithMinMaxVars u1 [276, 1, 1, 276] scale=0.0032372167 zero_point=128
0.061507117 -0.11977702 0.051795468 -0.09387928 0.1359631 -0.058269903 0.04855825 0.04855825
0.0776932 -0.06798155 0.0032372167 0.00971165 0.18775856 -0.123014234 0.0971165 0.012948867
-0.00971165 0.04855825 -0.03237217 -0.016186085 0.0388466 -0.051795468 0.0064744335 0.00971165
0.123014234 -0.061507117 -0.016186085 -0.0971165 0.0 -0.03237217 0.0194233 -0.0064744335
0.058269903 0.00971165 0.0388466 0.045321032 -0.08093042 0.025897734 0.035609383 0.00971165
0.0194233 -0.04208382 0.10035372 0.04208382 0.08416764 0.045321032 0.03237217 0.14891197
0.045321032 -0.17804693 0.123014234 -0.061507117 0.0032372167 0.058269903 0.08416764 0.035609383
-0.012948867 0.04208382 0.045321032 -0.090642065 0.061507117 -0.06798155 -0.025897734 -0.090642065
-0.0194233 0.025897734 0.10682815 -0.14891197 0.016186085 -0.06798155 -0.1359631 0.0776932
0.0776932 0.0194233 -0.045321032 0.0388466 0.13920031 0.15862362 0.090642065 -0.14567475
0.06474434 0.04208382 0.0776932 0.029134952 -0.0064744335 0.074455984 0.058269903 -0.11006537
-0.10682815 0.19747022 0.11977702 0.0388466 -0.0032372167 0.06474434 0.035609383 -0.04855825
-0.0032372167 -0.045321032 -0.11006537 -0.116539806 -0.116539806 -0.087404855 -0.0971165 -0.04855825
-0.06474434 0.0194233 -0.12625146 -0.090642065 -0.00971165 -0.035609383 0.045321032 0.09387928
0.00971165 0.074455984 -0.0776932 0.08093042 0.055032685 0.0032372167 0.087404855 -0.0388466
-0.10035372 0.022660516 0.0194233 -0.035609383 -0.123014234 -0.03237217 -0.00971165 -0.0064744335
0.016186085 0.09387928 0.09387928 -0.04855825 -0.016186085 -0.10682815 -0.025897734 -0.04208382
0.09387928 0.0 -0.071218766 0.00971165 -0.035609383 0.035609383 0.03237217 0.0064744335
0.071218766 0.029134952 0.022660516 0.0 -0.025897734 -0.025897734 0.087404855 0.025897734
-0.0776932 0.012948867 -0.0388466 0.016186085 0.11006537 -0.0971165 0.0194233 0.11330259
-0.06798155 0.025897734 -0.025897734 -0.058269903 -0.0032372167 -0.11006537 -0.035609383 0.045321032
-0.025897734 0.022660516 -0.025897734 -0.022660516 -0.08093042 0.045321032 0.10682815 0.090642065
-0.04855825 0.016186085 0.087404855 -0.051795468 0.090642065 0.0032372167 0.0064744335 -0.090642065
0.06474434 0.06798155 0.08093042 0.012948867 0.14891197 0.14243753 0.061507117 -0.029134952
-0.0032372167 0.00971165 -0.04208382 0.051795468 -0.12948868 -0.035609383 -0.058269903 -0.0388466
-0.03237217 0.029134952 0.13920031 0.10682815 0.24279125 -0.04208382 0.025897734 -0.012948867
0.0064744335 -0.0064744335 -0.08093042 0.0971165 0.04855825 -0.0032372167 -0.0032372167 0.08093042
0.08416764 0.090642065 0.03237217 -0.11006537 -0.14891197 -0.10035372 -0.03237217 -0.0776932
0.012948867 -0.045321032 0.061507117 -0.1359631 -0.11006537 0.10035372 0.058269903 0.061507117
0.045321032 -0.058269903 0.087404855 0.0388466 -0.087404855 0.103590935 0.00971165 0.08093042
0.14891197 -0.0388466 0.0776932 0.0388466 0.18452135 0.00971165 -0.022660516 0.15214919
0.058269903 0.12948868 0.10035372 -0.14243753 0.11330259 -0.0064744335 0.1553864 -0.16509806
00000000: 935b 9063 aa6e 8f8f 986b 8183 ba5a 9e84
00000010: 7d8f 767b 8c70 8283 a66d 7b62 8076 867e
00000020: 9283 8c8e 6788 8b83 8673 9f8d 9a8e 8aae
00000030: 8e49 a66d 8192 9a8b 7c8d 8e64 936b 7864
00000040: 7a88 a152 856b 5698 9886 728c abb1 9c53
00000050: 948d 9889 7e97 925e 5fbd a58c 7f94 8b71
00000060: 7f72 5e5c 5c65 6271 6c86 5964 7d75 8e9d
00000070: 8397 6899 9181 9b74 6187 8675 5a76 7d7e
00000080: 859d 9d71 7b5f 7873 9d80 6a83 758b 8a82
00000090: 9689 8780 7878 9b88 6884 7485 a262 86a3
000000a0: 6b88 786e 7f5e 758e 7887 7879 678e a19c
000000b0: 7185 9b70 9c81 8264 9495 9984 aeac 9377
000000c0: 7f83 7390 5875 6e74 7689 aba1 cb73 887c
000000d0: 827e 679e 8f7f 7f99 9a9c 8a5e 5261 7668
000000e0: 8472 9356 5e9f 9293 8e6e 9b8c 65a0 8399
000000f0: ae74 988c b983 79af 92a8 9f54 a37e b04d

DS-CNN/conv_ds_4/dw_conv/weights_quant/FakeQuantWithMinMaxVars u1 [1, 3, 3, 276] scale=0.014310354 zero_point=128
-0.2575864 1.2306905 -0.61534524 1.4882768 0.22896567 -0.35775885 -0.7870695 -0.34344852
-0.1574139 0.2575864 -0.57241416 0.9874145 -0.4150003 0.32913816 0.88724196 0.9015523
0.6296556 0.114482835 -0.57241416 0.93017304 0.32913816 -0.27189672 0.4722417 -0.35775885
-0.7155177 -0.5867245 0.3148278 0.6582763 -0.40068993 -0.6725867 0.9444834 0.7155177
0.042931065 1.0589663 0.5867245 -0.42931062 -0.42931062 0.22896567 -0.9015523 0.5151728
-0.07155177 0.70120734 0.5581038 -0.1860346 -0.57241416 0.70120734 0.57241416 -0.21465531
0.028620709 1.3451734 0.3720692 0.21465531 0.7870695 -0.1574139 0.80137986 -1.0446559
-0.5581038 0.77275914 0.22896567 0.114482835 0.07155177 1.0446559 0.28620708 -0.4722417
0.45793134 0.3148278 0.8300006 0.5581038 0.40068993 0.38637957 0.8300006 -0.6582763
-0.38637957 0.32913816 -0.24327603 -0.57241416 -0.042931065 -0.028620709 -0.14310354 0.48655206
0.6010349 -0.10017248 0.114482835 -0.2575864 0.52948314 -0.44362098 0.6296556 1.5884494
-0.95879376 -0.014310354 0.48655206 0.014310354 -0.4150003 0.5867245 0.95879376 0.4150003
-0.057241417 -0.1860346 -0.28620708 -1.1018972 -1.2593112 -0.22896567 0.08586213 -0.014310354
-0.1860346 -0.6725867 1.2163801 0.9444834 -0.6296556 0.57241416 1.173449 -0.57241416
-0.5581038 -0.35775885 -0.61534524 -0.028620709 0.45793134 0.34344852 0.2575864 0.9015523
-0.4150003 0.35775885 1.6743115 -0.6296556 -0.7584488 0.114482835 0.5008624 -0.14310354
-0.77275914 -0.10017248 1.0017248 0.9158627 0.88724196 0.61534524 -0.7155177 -0.44362098
1.7172425 0.93017304 0.8443109 -0.14310354 -0.85862124 -0.7441384 0.54379344 1.2163801
-0.14310354 -0.8443109 0.1860346 -0.5581038 0.85862124 0.3720692 0.5151728 0.70120734
0.1574139 0.57241416 0.1287932 0.88724196 -0.72982806 0.3720692 -0.40068993 -0.68689704
0.014310354 0.6582763 0.07155177 -0.08586213 -0.38637957 -0.057241417 -0.42931062 0.44362098
0.6010349 0.6296556 0.6010349 1.0589663 0.1574139 -0.93017304 0.70120734 1.0589663
-0.30051744 -0.07155177 0.42931062 0.1860346 -0.042931065 0.38637957 -0.42931062 -0.24327603
0.7441384 0.3720692 0.64396596 1.0303456 -0.40068993 1.1448283 0.7584488 -0.6296556
0.6725867 -0.7155177 -0.014310354 -0.40068993 -1.0732765 -1.2163801 -0.1860346 0.5151728
0.2575864 0.54379344 -0.61534524 -0.057241417 -0.24327603 1.2020698 -0.21465531 -0.3148278
0.9158627 -0.27189672 0.45793134 -0.4150003 0.22896567 -0.9158627 -0.95879376 0.7584488
0.8156902 0.40068993 -0.54379344 -0.64396596 -0.8300006 0.64396596 0.3720692 0.9015523
0.4722417 1.0017248 0.85862124 0.10017248 -0.61534524 0.4722417 1.4024147 0.77275914
-0.5008624 -0.7584488 1.1591387 -0.34344852 1.6886218 0.48655206 1.3165526 0.45793134
0.9731041 -0.9731041 0.10017248 0.85862124 -0.6296556 -0.77275914 1.5598286 0.42931062
-0.4150003 -0.6296556 -0.6296556 0.40068993 -0.40068993 -0.80137986 0.88724196 1.1877594
00000000: 6ed6 55e8 9067 4968 7592 58c5 6397 bebf
00000010: ac88 58c1 976d a167 4e57 96ae 6451 c2b2
00000020: 83ca a962 6290 41a4 7bb1 a773 58b1 a871
00000030: 82de 9a8f b775 b837 59b6 9088 85c9 945f
00000040: a096 baa7 9c9b ba52 6597 6f58 7d7e 76a2
00000050: aa79 886e a561 acef 3d7f a281 63a9 c39d
00000060: 7c73 6c33 2870 867f 7351 d5c2 54a8 d258
00000070: 5967 557e a098 92bf 6399 f554 4b88 a376
00000080: 4a79 c6c0 beab 4e61 f8c1 bb76 444c a6d5
00000090: 7645 8d59 bc9a a4b1 8ba8 89be 4d9a 6450
000000a0: 81ae 857a 657c 629f aaac aaca 8b3f b1ca
000000b0: 6b7b 9e8d 7d9b 626f b49a adc8 64d0 b554
000000c0: af4e 7f64 352b 73a4 92a6 557c 6fd4 716a
000000d0: c06d a063 9040 3db5 b99c 5a53 46ad 9abf
000000e0: a1c6 bc87 55a1 e2b6 5d4b d168 f6a2 dca0
000000f0: c43c 87bc 544a ed9e 6354 549c 6448 bed3

DS-CNN/conv_ds_4/pw_conv/weights_quant/FakeQuantWithMinMaxVars u1 [276, 1, 1, 276] scale=0.0028234334 zero_point=128
-0.0508218 -0.07340927 0.1185842 -0.18069974 -0.10729047 0.067762405 0.022587467 0.0056468667
0.07905614 0.084703 0.0508218 0.056468666 -0.04799837 -0.09599674 0.033881202 0.0423515
-0.056468666 0.0592921 0.022587467 0.053645235 0.06493897 -0.07058583 -0.03952807 -0.036704633
0.067762405 0.014117166 -0.033881202 -0.062115535 -0.056468666 -0.0112937335 0.0028234334 -0.084703
-0.07340927 -0.07905614 -0.0508218 -0.022587467 0.10729047 0.0254109 0.062115535 0.067762405
-0.0508218 0.07340927 -0.1016436 -0.0056468667 -0.0762327 0.0423515 -0.016940601 -0.0762327
0.028234333 0.0762327 -0.0028234334 0.07340927 -0.12423107 0.028234333 0.028234333 -0.07058583
0.036704633 -0.04799837 -0.033881202 -0.0254109 -0.07340927 -0.06493897 -0.04799837 0.12987794
0.0931733 0.008470301 -0.022587467 -0.16658257 -0.0423515 0.016940601 -0.031057768 0.08752643
-0.03952807 -0.03952807 -0.07340927 -0.12987794 -0.0254109 -0.098820165 0.07058583 -0.07340927
0.09034987 -0.07340927 0.0592921 -0.031057768 -0.08187957 0.045174934 -0.033881202 -0.036704633
0.056468666 0.056468666 -0.06493897 -0.0028234334 -0.036704633 -0.14681853 0.016940601 -0.10729047
0.03952807 0.014117166 -0.031057768 -0.022587467 -0.031057768 -0.07058583 -0.15811227 -0.053645235
0.10729047 0.03952807 0.062115535 0.028234333 0.0028234334 0.019764034 -0.008470301 0.08187957
-0.09034987 -0.031057768 0.0508218 0.0508218 -0.033881202 -0.033881202 0.08752643 0.04799837
0.031057768 -0.07340927 -0.022587467 0.022587467 -0.06493897 0.084703 -0.06493897 0.07340927
0.0254109 -0.036704633 0.014117166 -0.019764034 -0.019764034 -0.0056468667 0.0056468667 0.07340927
0.07058583 -0.06493897 -0.022587467 -0.062115535 0.056468666 -0.11293733 0.098820165 -0.053645235
-0.022587467 -0.056468666 0.033881202 0.0112937335 -0.1270545 0.0592921 -0.016940601 -0.062115535
-0.110113904 0.022587467 0.121407636 0.0028234334 -0.022587467 0.0508218 0.062115535 0.019764034
-0.115760766 -0.16375914 0.110113904 0.0254109 0.022587467 -0.056468666 -0.14117166 -0.10729047
0.0423515 0.053645235 0.13270137 0.016940601 0.0423515 0.031057768 0.028234333 0.0762327
0.016940601 0.0 -0.014117166 0.084703 -0.0508218 -0.0592921 0.031057768 -0.115760766
0.0423515 -0.056468666 0.0 0.12987794 -0.062115535 0.022587467 -0.0056468667 0.0592921
-0.008470301 -0.08752643 0.053645235 -0.06493897 -0.016940601 0.1016436 -0.056468666 -0.036704633
0.07058583 -0.008470301 -0.12423107 -0.0508218 -0.07905614 0.04799837 0.028234333 0.0254109
-0.031057768 -0.084703 0.0508218 -0.09599674 -0.0423515 0.056468666 -0.0254109 -0.1439951
-0.12987794 0.07905614 0.0056468667 0.056468666 -0.028234333 0.028234333 -0.03952807 -0.0423515
-0.008470301 0.04799837 -0.0423515 -0.0762327 0.08187957 -0.115760766 -0.09034987 -0.008470301
0.0254109 0.0056468667 -0.15811227 0.084703 0.0112937335 0.10729047 -0.0028234334 0.033881202
-0.07058583 0.008470301 -0.06493897 -0.014117166 0.084703 0.028234333 0.06493897 -0.056468666
0.062115535 -0.06493897 0.0056468667 0.07905614 -0.0254109 0.0028234334 -0.06493897 0.067762405
00000000: 6e66 aa40 5a98 8882 9c9e 9294 6f5e 8c8f
00000010: 6c95 8893 9767 7273 9885 746a 6c7c 8162
00000020: 6664 6e78 a689 9698 6e9a 5c7e 658f 7a65
00000030: 8a9b 7f9a 548a 8a67 8d6f 7477 6669 6fae
00000040: a183 7845 7186 759f 7272 6652 775d 9966
00000050: a066 9575 6390 7473 9494 697f 734c 865a
00000060: 8e85 7578 7567 486d a68e 968a 8187 7d9d
00000070: 6075 9292 7474 9f91 8b66 7888 699e 699a
00000080: 8973 8579 797e 829a 9969 786a 9458 a36d
00000090: 786c 8c84 5395 7a6a 5988 ab81 7892 9687
000000a0: 5746 a789 886c 4e5a 8f93 af86 8f8b 8a9b
000000b0: 8680 7b9e 6e6b 8b57 8f6c 80ae 6a88 7e95
000000c0: 7d61 9369 7aa4 6c73 997d 546e 6491 8a89
000000d0: 7562 925e 7194 774d 529c 8294 768a 7271
000000e0: 7d91 7165 9d57 607d 8982 489e 84a6 7f8c
000000f0: 6783 697b 9e8a 976c 9669 829c 7781 6998

DS-CNN/conv_ds_5/dw_conv/weights_quant/FakeQuantWithMinMaxVars u1 [1, 3, 3, 276] scale=0.018741108 zero_point=128
1.2369132 2.0802631 -0.2248933 -0.29985774 -0.056223325 0.0 -0.13118777 -0.11244665
0.95579654 0.9370554 0.6371977 -0.29985774 -0.31859884 -0.28111663 0.8808321 1.2369132
-0.4872688 0.50600994 -0.33733994 0.8433499 -0.8058677 -0.26237553 1.030761 1.4430654
-0.71216214 0.50600994 -0.2436344 -0.18741108 -0.18741108 -0.2248933 -0.54349214 0.78712654
-0.074964434 0.4310455 0.4872688 -0.39356327 0.6746799 -0.18741108 -0.2436344 -0.11244665
0.0 -0.6184566 1.3493598 -0.018741108 0.4497866 -0.35608107 0.95579654 0.6746799
1.0869843 0.13118777 1.3306187 -0.28111663 -0.4497866 -0.6746799 0.28111663 0.33733994
0.78712654 -0.8246088 0.6746799 -0.018741108 0.56223327 0.74964434 -0.26237553 -0.33733994
0.4497866 0.7309032 0.35608107 -0.50600994 0.9745376 0.9745376 0.26237553 -0.13118777
-0.14992887 -0.2248933 0.91831434 0.54349214 0.74964434 0.4310455 0.18741108 -0.16866997
-0.8808321 0.56223327 -0.18741108 -0.74964434 0.8246088 0.52475107 -0.52475107 0.54349214
-0.16866997 -0.037482217 -0.2061522 1.0120199 -0.31859884 1.2743953 0.8058677 0.8433499
1.1806898 -0.037482217 0.862091 1.0495021 1.1057254 1.0682431 0.4872688 -0.5997155
-0.6184566 0.862091 -0.4872688 0.4872688 -0.8058677 0.4872688 1.1432077 0.6184566
-0.35608107 1.3118776 -0.37482217 -0.26237553 -0.5997155 -0.09370554 1.0120199 0.018741108
-0.31859884 0.4310455 0.33733994 0.28111663 0.4872688 0.6371977 0.0 -0.33733994
-0.14992887 1.1619487 -0.29985774 1.1432077 1.199431 1.1432077 0.39356327 1.0495021
-0.33733994 0.14992887 1.7054409 0.8808321 -0.2248933 -0.4872688 -0.33733994 -0.2436344
1.1806898 0.58097434 1.1244665 0.4872688 0.4497866 1.0495021 0.71216214 0.074964434
1.1806898 0.4685277 -1.3681009 0.54349214 0.54349214 -0.4123044 -0.35608107 0.6559388
0.8433499 -0.18741108 0.54349214 -0.2436344 1.1619487 -1.1619487 1.0120199 1.1619487
1.2181721 -0.26237553 0.6184566 -0.11244665 -0.71216214 -0.56223327 1.1432077 -0.33733994
-0.2061522 -0.35608107 -0.26237553 0.74964434 0.8246088 -0.14992887 0.56223327 -0.99327874
1.4992887 -0.31859884 0.13118777 -0.13118777 1.8553697 0.6184566 1.1806898 -0.35608107
-0.4123044 -0.8995732 0.9370554 0.9745376 1.5180298 0.693421 -0.2061522 -0.056223325
0.4123044 -0.26237553 0.2061522 -0.018741108 1.3306187 -0.2436344 0.4497866 -0.4123044
0.14992887 0.8058677 0.862091 0.74964434 -0.33733994 -0.2061522 -0.26237553 -0.2061522
0.4497866 0.9370554 0.9745376 0.8058677 -0.056223325 0.74964434 -0.09370554 -1.4618064
-0.31859884 -0.50600994 0.693421 -0.58097434 0.52475107 1.1432077 0.8433499 0.99327874
0.9745376 1.3681009 -0.2436344 0.58097434 -0.52475107 0.78712654 -0.37482217 -0.2061522
-0.18741108 -0.33733994 0.862091 -0.54349214 0.862091 0.8058677 -0.16866997 1.0682431
1.3306187 -0.33733994 0.8246088 0.95579654 -0.018741108 0.4685277 -0.4872688 0.74964434
00000000: c2ef 7470 7d80 797a b3b2 a270 6f71 afc2
00000010: 669b 6ead 5572 b7cd 5a9b 7376 7674 63aa
00000020: 7c97 9a6b a476 737a 805f c87f 986d b3a4
00000030: ba87 c771 685c 8f92 aa54 a47f 9ea8 726e
00000040: 98a7 9365 b4b4 8e79 7874 b19d a897 8a77
00000050: 519e 7658 ac9c 649d 777e 75b6 6fc4 abad
00000060: bf7e aeb8 bbb9 9a60 5fae 669a 559a bda1
00000070: 6dc6 6c72 607b b681 6f97 928f 9aa2 806e
00000080: 78be 70bd c0bd 95b8 6e88 dbaf 7466 6e73
00000090: bf9f bc9a 98b8 a684 bf99 379d 9d6a 6da3
000000a0: ad76 9d73 be42 b6be c172 a17a 5a62 bd6e
000000b0: 756d 72a8 ac78 9e4b d06f 8779 e3a1 bf6d
000000c0: 6a50 b2b4 d1a5 757d 9672 8b7f c773 986a
000000d0: 88ab aea8 6e75 7275 98b2 b4ab 7da8 7b32
000000e0: 6f65 a561 9cbd adb5 b4c9 739f 64aa 6c75
000000f0: 766e ae63 aeab 77b9 c76e acb3 7f99 66a8

DS-CNN/conv_ds_5/pw_conv/weights_quant/FakeQuantWithMinMaxVars u1 [276, 1, 1, 276] scale=0.0028017452 zero_point=128
0.23814835 0.13728552 -0.08125061 -0.07004363 0.022413962 0.1176733 -0.061638393 -0.028017452
-0.061638393 -0.0056034904 -0.044827923 -0.09245759 -0.07844886 -0.03642269 -0.056034904 -0.022413962
-0.10366457 -0.07284538 -0.025215708 0.114871554 0.04762967 0.07844886 -0.028017452 -0.014008726
0.12607853 0.016810471 -0.014008726 -0.0056034904 0.011206981 0.028017452 -0.030819196 0.008405236
0.053233158 -0.008405236 -0.04762967 0.053233158 0.07004363 0.07004363 0.03642269 0.0028017452
-0.033620942 -0.03922443 -0.0868541 -0.08965585 0.067241885 -0.12888028 0.053233158 -0.07844886
0.09245759 0.014008726 -0.10926806 -0.08965585 0.0056034904 0.044827923 0.09245759 0.1176733
-0.07564712 -0.028017452 0.019612215 0.014008726 0.07564712 0.07844886 -0.022413962 -0.06444014
0.14569075 -0.098061085 0.03922443 0.10086283 -0.07844886 0.04762967 0.098061085 -0.061638393
0.008405236 -0.0056034904 -0.0028017452 -0.016810471 0.07844886 0.022413962 -0.10086283 0.022413962
0.106466316 0.09525934 -0.028017452 0.022413962 -0.106466316 0.03642269 0.0868541 0.07564712
-0.025215708 -0.084052354 -0.050431415 0.044827923 0.09525934 0.15689772 0.09525934 -0.022413962
-0.019612215 0.022413962 0.12607853 -0.03642269 -0.067241885 0.098061085 -0.106466316 0.0028017452
0.0 0.008405236 -0.17090645 0.11206981 -0.1176733 -0.0028017452 -0.011206981 -0.07284538
-0.12047505 -0.019612215 -0.022413962 -0.025215708 0.008405236 -0.0868541 -0.09525934 0.044827923
-0.084052354 -0.03922443 -0.04762967 0.04762967 -0.03922443 -0.10086283 -0.056034904 -0.03922443
0.030819196 -0.13728552 0.050431415 0.03922443 0.04762967 0.028017452 0.008405236 -0.028017452
0.033620942 0.04762967 -0.0868541 -0.050431415 -0.098061085 0.08125061 -0.016810471 0.06444014
-0.0056034904 -0.07004363 -0.042026177 0.044827923 -0.028017452 -0.019612215 0.025215708 0.050431415
-0.053233158 0.008405236 0.03642269 -0.10366457 -0.08965585 0.05883665 -0.0868541 -0.123276785
0.028017452 -0.016810471 0.13448377 -0.03922443 -0.19612217 0.056034904 -0.056034904 0.07004363
-0.13448377 -0.033620942 0.09525934 -0.07004363 -0.04762967 0.07844886 0.067241885 -0.008405236
0.11206981 -0.10366457 0.056034904 -0.056034904 0.09525934 -0.061638393 0.06444014 -0.084052354
0.028017452 -0.033620942 0.03922443 -0.019612215 -0.12607853 0.13448377 0.022413962 -0.098061085
-0.12888028 -0.06444014 0.03922443 -0.07004363 -0.033620942 0.067241885 0.033620942 -0.014008726
-0.03642269 0.008405236 0.14008726 0.13728552 0.123276785 -0.13728552 -0.042026177 -0.03922443
0.028017452 0.11206981 0.10086283 0.0056034904 0.030819196 0.03922443 -0.028017452 -0.07844886
0.019612215 -0.014008726 0.011206981 0.056034904 -0.028017452 0.030819196 -0.050431415 -0.033620942
-0.07284538 0.0 0.084052354 -0.03922443 -0.022413962 -0.014008726 0.09245759 0.10926806
0.084052354 0.019612215 0.053233158 -0.0056034904 -0.0056034904 0.033620942 0.06444014 -0.030819196
-0.033620942 -0.022413962 -0.07284538 0.07564712 -0.03642269 -0.07004363 0.011206981 -0.0056034904
-0.04762967 0.03642269 -0.016810471 -0.03642269 -0.07844886 0.022413962 0.19332042 -0.05883665
00000000: d5b1 6367 88aa 6a76 6a7e 705f 6473 6c78
00000010: 5b66 77a9 919c 767b ad86 7b7e 848a 7583
00000020: 937d 6f93 9999 8d81 7472 6160 9852 9364
00000030: a185 5960 8290 a1aa 6576 8785 9b9c 7869
00000040: b45d 8ea4 6491 a36a 837e 7f7a 9c88 5c88
00000050: a6a2 7688 5a8d 9f9b 7762 6e90 a2b8 a278
00000060: 7988 ad73 68a3 5a81 8083 43a8 567f 7c66
00000070: 5579 7877 8361 5e90 6272 6f91 725c 6c72
00000080: 8b4f 928e 918a 8376 8c91 616e 5d9d 7a97
00000090: 7e67 7190 7679 8992 6d83 8d5b 6095 6154
000000a0: 8a7a b072 3a94 6c99 5074 a267 6f9c 987d
000000b0: a85b 946c a26a 9762 8a74 8e79 53b0 885d
000000c0: 5269 8e67 7498 8c7b 7383 b2b1 ac4f 7172
000000d0: 8aa8 a482 8b8e 7664 877b 8494 768b 6e74
000000e0: 6680 9e72 787b a1a7 9e87 937e 7e8c 9775
000000f0: 7478 669b 7367 847e 6f8d 7a73 6488 c56b

DS-CNN/fc1/weights_quant/FakeQuantWithMinMaxVars/transpose u1 [12, 276] scale=0.005856945 zero_point=128
0.44512784 -0.43341395 -0.3514167 -0.5856945 0.45684174 -0.61497927 -0.39241531 -0.11128196
-0.5212681 -0.36898756 -0.38070142 0.52712506 0.30456114 -0.30456114 0.322132 -0.24599169
-0.0644264 -0.43341395 -0.32798892 -0.5856945 -0.45098478 0.39241531 -0.38070142 -0.5154112
-0.4158431 -0.3748445 -0.29284725 -0.5154112 -0.4041292 -0.44512784 -0.6266931 -0.24013475
0.27527642 -0.29284725 -0.61497927 -0.6208362 0.3397028 -0.48612645 -0.26356253 -0.6266931
-0.5446959 -0.5212681 -0.33384588 -0.427557 -0.31627503 -0.36898756 -0.21670698 -0.71454734
0.4802695 -0.7379751 -0.40998617 -0.19327919 -0.3631306 0.3748445 -0.538839 -0.3514167
0.40998617 -0.4041292 -0.66769177 -0.63840705 0.23427781 -0.30456114 -0.11128196 -0.61497927
-0.22256392 -0.66769177 -0.5095542 -0.28113335 -0.644264 0.46269867 -0.46269867 -0.42170006
-0.3748445 -0.28113335 -0.3397028 -0.6091223 0.25184864 -0.14056668 -0.27527642 -0.38655838
-0.5154112 -0.21085003 -0.46269867 -0.6091223 -0.42170006 0.40998617 -0.5036973 -0.4802695
0.32798892 0.26356253 0.47441256 -0.49198338 -0.39827228 -0.74383205 -0.33384588 0.45098478
0.28113335 -0.35727367 -0.5564098 0.5095542 0.39827228 0.38070142 -0.1288528 -0.45684174
-0.2869903 -0.43927088 -0.5154112 -0.55055285 -0.47441256 -0.427557 -0.2577056 -0.3514167
-0.5154112 -0.57983756 0.017570835 -0.5036973 -0.38655838 -0.2987042 -0.4158431 0.35727367
0.44512784 -0.6208362 0.49784034 0.49198338 -0.5212681 -0.49198338 -0.46269867 -0.3748445
0.45098478 -0.7262612 -0.71454734 -0.70869035 0.01171389 -0.43341395 -0.28113335 -0.3631306
-0.6501209 -0.30456114 -0.5446959 0.3748445 -0.46855563 -0.63840705 0.322132 -0.38655838
-0.40998617 -0.66769177 -0.427557 -0.46855563 -0.35727367 -0.4158431 -0.644264 -0.14642362
-0.40998617 -0.57983756 -0.34555978 -0.61497927 -0.5446959 -0.29284725 -0.5036973 -0.6091223
-0.49784034 0.538839 -0.40998617 -0.08199723 0.49198338 -0.66769177 -0.6208362 0.040998615
0.1815653 0.35727367 -0.3514167 0.45098478 -0.60326535 -0.38655838 -0.60326535 0.44512784
-0.5564098 0.42170006 -0.24013475 0.09956807 -0.42170006 0.43341395 -0.644264 -0.538839
-0.29284725 -0.27527642 -0.5739806 -0.6735487 0.31627503 -0.5446959 0.52712506 -0.2869903
-0.4158431 -0.48612645 -0.47441256 -0.3514167 -0.30456114 -0.49784034 -0.49198338 0.46269867
-0.3514167 -0.7262612 -0.32798892 -0.3397028 -0.09956807 0.01171389 -0.3631306 0.2577056
0.2869903 -0.71454734 -0.43341395 -0.6618348 0.2869903 -0.5681237 -0.46855563 0.5154112
-0.27527642 -0.6091223 0.43341395 -0.44512784 -0.6735487 0.3748445 -0.30456114 0.28113335
-0.5856945 -0.6501209 -0.5681237 -0.57983756 0.31627503 -0.19327919 -0.7321181 -0.5681237
-0.4158431 0.5154112 -0.532982 -0.45684174 -0.3748445 -0.5095542 -0.4802695 0.3514167
0.36898756 0.39241531 -0.2577056 -0.5681237 -0.63255006 -0.5915515 0.48612645 -0.538839
-0.6091223 -0.34555978 -0.26356253 -0.48612645 -0.5564098 0.43927088 0.48612645 -0.2869903
00000000: cc36 441c ce17 3d6d 2741 3fda b44c b756
00000010: 7536 481c 33c3 3f28 3940 4e28 3b34 1557
00000020: af4e 1716 ba2d 5315 2327 4737 4a41 5b06
00000030: d202 3a5f 42c0 2444 c63b 0e13 a84c 6d17
00000040: 5a0e 2950 12cf 3138 4050 4618 ab68 513e
00000050: 285c 3118 38c6 2a2e b8ad d12c 3c01 47cd
00000060: b043 21d7 c4c1 6a32 4f35 2822 2f37 5444
00000070: 281d 832a 3e4d 39bd cc16 d5d4 272c 3140
00000080: cd04 0607 8236 5042 114c 23c0 3013 b73e
00000090: 3a0e 3730 4339 1267 3a1d 4517 234e 2a18
000000a0: 2bdc 3a72 d40e 1687 9fbd 44cd 193e 19cc
000000b0: 21c8 5791 38ca 1224 4e51 1e0d b623 da4f
000000c0: 392d 2f44 4c2b 2ccf 4404 4846 6f82 42ac
000000d0: b106 360f b11f 30d8 5118 ca34 0dc0 4cb0
000000e0: 1c11 1f1d b65f 031f 39d8 2532 4029 2ebc
000000f0: bfc3 541f 141b d324 1845 532d 21cb d34f
