nn_menu/starters/keyword_spotting/model/KWS_ds_cnn_m_quant.tflite (tflite, 146176 bytes, 10 tensors)

DS-CNN/conv_1/weights_quant/FakeQuantWithMinMaxVars u1 [172, 10, 4, 1] scale=0.0010986613 zero_point=128
-0.01647992 -0.0021973227 0.023071889 -0.0054933066 -0.019775905 0.009887952 -0.0010986613 -0.012085275
-0.015381259 0.0340585 -0.020874565 -0.012085275 0.026367873 0.01647992 -0.07251165 0.0043946453
0.043946452 0.0065919682 -0.062623695 0.06591968 0.0076906295 0.0043946453 0.008789291 0.053834405
-0.010986613 -0.03295984 0.05822905 0.01647992 0.0 -0.08130094 0.04174913 -0.05932771
-0.0065919682 0.0065919682 0.0010986613 -0.084596924 0.0 0.05822905 0.014282597 -0.018677242
-0.0131839365 0.020874565 0.053834405 0.047242437 0.0054933066 -0.0021973227 0.027466534 0.018677242
-0.0010986613 -0.012085275 0.021973226 0.08130094 -0.014282597 -0.03186118 0.017578581 0.1164581
-0.01647992 -0.008789291 0.046143778 0.07470897 -0.008789291 0.0043946453 0.020874565 -0.0010986613
-0.0043946453 0.0043946453 -0.02417055 -0.060426373 0.0131839365 0.0076906295 -0.027466534 -0.037354484
0.027466534 0.009887952 -0.03955181 -0.07251165 0.028565194 0.0010986613 -0.04174913 -0.09448487
0.009887952 0.0010986613 -0.009887952 -0.0021973227 0.018677242 0.0010986613 -0.010986613 -0.0076906295
0.02417055 -0.0010986613 -0.0010986613 -0.008789291 0.021973226 -0.0010986613 0.0 -0.0021973227
0.010986613 0.0010986613 0.0021973227 0.0021973227 -0.0032959841 -0.0032959841 0.010986613 0.0076906295
-0.018677242 0.0010986613 0.0032959841 0.0032959841 -0.02417055 0.0043946453 0.0010986613 0.0021973227
-0.02526921 -0.0021973227 0.0021973227 0.0065919682 -0.017578581 0.0010986613 -0.0043946453 0.0076906295
-0.009887952 0.008789291 -0.0131839365 0.0021973227 0.0021973227 0.018677242 -0.017578581 0.0032959841
-0.0131839365 -0.0054933066 -0.014282597 0.0 0.0 -0.009887952 -0.014282597 0.009887952
-0.009887952 -0.01647992 -0.0043946453 0.0043946453 0.009887952 0.0043946453 -0.0076906295 0.0
0.0 -0.0065919682 -0.0021973227 0.014282597 0.0 0.0021973227 -0.0010986613 0.009887952
-0.010986613 -0.0065919682 -0.0021973227 0.0131839365 -0.012085275 0.010986613 -0.0010986613 0.0131839365
-0.0043946453 0.0065919682 0.0010986613 0.0010986613 -0.0054933066 0.0043946453 -0.0021973227 0.0021973227
-0.0054933066 0.0032959841 0.0021973227 0.0 -0.0043946453 -0.0010986613 0.0021973227 0.0
-0.0021973227 0.0010986613 0.0043946453 -0.0021973227 -0.0032959841 -0.0043946453 0.0054933066 -0.0021973227
-0.0010986613 0.0010986613 0.0032959841 -0.0065919682 -0.0054933066 0.0032959841 0.0032959841 -0.0054933066
-0.0021973227 0.0076906295 0.0043946453 0.0010986613 -0.0021973227 0.0043946453 0.0065919682 0.0021973227
0.028565194 0.021973226 -0.0010986613 0.015381259 0.014282597 0.01647992 -0.018677242 -0.008789291
-0.009887952 0.0076906295 -0.035157163 -0.062623695 -0.009887952 -0.0043946453 -0.0483411 -0.09338621
-0.0021973227 0.0054933066 -0.02526921 -0.06482102 -0.02526921 -0.0054933066 0.018677242 -0.026367873
-0.017578581 -0.021973226 0.060426373 0.0043946453 -0.019775905 -0.0054933066 0.0483411 0.042847794
0.0076906295 -0.0065919682 0.020874565 0.08349826 0.010986613 -0.0054933066 0.0 0.068117
0.008789291 -0.0010986613 0.0 -0.0043946453 0.0076906295 0.0 -0.0021973227 -0.0043946453
0.0076906295 -0.0043946453 -0.0043946453 -0.0054933066 0.0043946453 0.0 -0.0054933066 -0.0065919682
00000000: 717e 957b 6e89 7f75 729f 6d75 988f 3e84
00000010: a886 47bc 8784 88b1 7662 b58f 8036 a64a
00000020: 7a86 8133 80b5 8d6f 7493 b1ab 857e 9991
00000030: 7f75 94ca 7363 90ea 7178 aac4 7884 937f
00000040: 7c84 6a49 8c87 675e 9989 5c3e 9a81 5a2a
00000050: 8981 777e 9181 7679 967f 7f78 947f 807e
00000060: 8a81 8282 7d7d 8a87 6f81 8383 6a84 8182
00000070: 697e 8286 7081 7c87 7788 7482 8291 7083
00000080: 747b 7380 8077 7389 7771 7c84 8984 7980
00000090: 807a 7e8d 8082 7f89 767a 7e8c 758a 7f8c
000000a0: 7c86 8181 7b84 7e82 7b83 8280 7c7f 8280
000000b0: 7e81 847e 7d7c 857e 7f81 837a 7b83 837b
000000c0: 7e87 8481 7e84 8682 9a94 7f8e 8d8f 6f78
000000d0: 7787 6047 777c 542b 7e85 6945 697b 9168
000000e0: 706c b784 6e7b aca7 877a 93cc 8a7b 80be
000000f0: 887f 807c 8780 7e7c 877c 7c7b 8480 7b7a

DS-CNN/conv_ds_1/dw_conv/weights_quant/FakeQuantWithMinMaxVars u1 [1, 3, 3, 172] scale=0.024714187 zero_point=128
1.6805646 -0.81556815 1.3098519 0.22242768 0.22242768 -1.0132817 0.049428374 -0.790854
-1.1121384 0.8897107 -0.44485536 -0.86499655 0.74142563 -0.17299931 -1.1615667 -0.09885675
-1.7299931 -1.7794214 0.49428374 -0.9885675 0.27185607 -0.44485536 -1.06271 0.7661398
0.0 0.22242768 -0.5684263 -0.6425688 0.42014116 -0.07414256 -0.44485536 1.4087087
-0.24714187 -1.0132817 -0.37071282 -0.27185607 -0.61785465 2.12542 0.07414256 0.0
0.395427 -0.8897107 -0.44485536 -0.3212844 -0.049428374 -0.37071282 0.09885675 -0.8897107
-0.9638533 1.9277066 -1.0379958 0.07414256 -0.37071282 1.3592802 0.44485536 -1.1368526
1.5075654 -0.61785465 0.8897107 -0.049428374 -0.54371214 0.0 0.6425688 -0.024714187
0.17299931 0.6425688 -0.7661398 -0.024714187 0.5931405 0.049428374 -0.9638533 -0.24714187
-0.6425688 0.9885675 -0.74142563 -0.22242768 0.81556815 -1.3098519 0.123570934 -0.1977135
-0.29657024 -0.54371214 -1.5322796 -0.7167114 -0.61785465 0.42014116 0.123570934 -0.34599862
-0.123570934 -0.5684263 -0.8897107 -0.3212844 1.3839945 -1.5322796 0.09885675 0.81556815
-0.8897107 0.395427 -0.7661398 0.81556815 1.2109952 1.2604235 -0.37071282 -1.7547072
-1.3098519 -0.17299931 -0.74142563 -0.42014116 0.66728306 -0.24714187 -0.790854 -0.049428374
1.2357093 0.09885675 0.395427 -1.8288498 -0.61785465 0.3212844 0.22242768 0.7661398
-0.17299931 1.4334228 -0.24714187 -0.5684263 -0.9885675 0.7661398 0.49428374 -0.37071282
0.54371214 -0.27185607 -0.123570934 0.24714187 -0.395427 -0.7661398 -0.8402823 -0.27185607
-0.22242768 -0.09885675 0.07414256 0.69199723 -0.123570934 -1.5322796 0.54371214 -0.8402823
1.1615667 -0.54371214 0.27185607 0.395427 -0.61785465 -1.2851377 0.9638533 -0.5684263
1.2109952 -0.123570934 0.27185607 0.34599862 2.2242768 0.9885675 -0.44485536 0.0
0.1977135 -0.24714187 0.34599862 1.0379958 1.4334228 0.49428374 -0.81556815 -1.6064222
-0.42014116 -0.37071282 0.049428374 -0.24714187 0.14828512 -0.3212844 -0.123570934 0.1977135
-0.17299931 0.49428374 -0.29657024 -0.9391391 -1.0132817 0.0 0.17299931 -0.29657024
-0.8402823 -0.22242768 -0.34599862 -0.1977135 -1.1368526 -0.46956956 0.3212844 -0.44485536
0.49428374 -0.049428374 -1.06271 -1.9029924 -0.9885675 -0.46956956 0.29657024 -0.123570934
0.9638533 0.54371214 -0.34599862 -0.07414256 -0.5684263 -0.24714187 -0.1977135 0.07414256
-0.27185607 -1.3592802 0.3212844 0.9144249 1.186281 1.2109952 -0.7167114 -0.790854
0.17299931 0.86499655 -0.46956956 -0.69199723 -0.61785465 -0.49428374 -1.2357093 -0.34599862
-0.395427 -0.54371214 -0.86499655 1.2109952 0.27185607 -0.46956956 0.395427 -0.37071282
0.24714187 0.8897107 0.9885675 0.790854 -0.44485536 0.1977135 -0.37071282 -1.06271
0.54371214 -1.0379958 0.37071282 -0.7167114 -1.2604235 0.74142563 -0.6425688 0.37071282
0.81556815 -0.22242768 0.24714187 -0.27185607 0.049428374 -0.7661398 0.07414256 -0.29657024
00000000: c45f b589 8957 8260 53a4 6e5d 9e79 517c
00000010: 3a38 9458 8b6e 559f 8089 6966 917d 6eb9
00000020: 7657 7175 67d6 8380 905c 6e73 7e71 845c
00000030: 59ce 5683 71b7 9252 bd67 a47e 6a80 9a7f
00000040: 879a 617f 9882 5976 66a8 6277 a14b 8578
00000050: 746a 4263 6791 8572 7b69 5c73 b842 84a1
00000060: 5c90 61a1 b1b3 7139 4b79 626f 9b76 607e
00000070: b284 9036 678d 899f 79ba 7669 589f 9471
00000080: 9675 7b8a 7061 5e75 777c 839c 7b42 965e
00000090: af6a 8b90 674c a769 b17b 8b8e daa8 6e80
000000a0: 8876 8eaa ba94 5f3f 6f71 8276 8673 7b88
000000b0: 7994 745a 5780 8774 5e77 7278 526d 8d6e
000000c0: 947e 5533 586d 8c7b a796 727d 6976 7883
000000d0: 7549 8da5 b0b1 6360 87a3 6d64 676c 4e72
000000e0: 706a 5db1 8b6d 9071 8aa4 a8a0 6e88 7155
000000f0: 9656 8f63 4d9e 668f a177 8a75 8261 8374

DS-CNN/conv_ds_1/pw_conv/weights_quant/FakeQuantWithMinMaxVars u1 [172, 1, 1, 172] scale=0.0039061145 zero_point=128
0.089840636 0.054685604 -0.17968127 0.031248916 -0.050779488 -0.023436688 -0.015624458 0.007812229
-0.082028404 0.11327732 0.14062013 -0.023436688 0.17968127 -0.0039061145 0.16015069 -0.15624458
-0.12890178 0.09765286 -0.089840636 0.09374675 -0.011718344 -0.07031006 0.12890178 0.019530572
0.050779488 0.046873376 0.062497832 -0.101558976 0.019530572 0.11327732 -0.007812229 -0.07421617
0.046873376 -0.10546509 -0.08593452 0.011718344 -0.050779488 0.054685604 -0.019530572 -0.07812229
-0.031248916 0.015624458 0.07031006 -0.027342802 -0.10546509 -0.023436688 0.09374675 -0.101558976
0.031248916 0.09765286 0.04296726 0.09765286 -0.062497832 0.13671401 -0.04296726 -0.062497832
-0.007812229 0.124995664 -0.058591716 -0.054685604 -0.04296726 0.046873376 -0.08593452 -0.062497832
-0.04296726 -0.12890178 -0.046873376 -0.08593452 -0.007812229 0.027342802 -0.054685604 0.019530572
0.07031006 -0.082028404 -0.07812229 -0.1913996 -0.124995664 0.015624458 -0.19921184 0.07421617
-0.050779488 -0.06640395 0.10546509 -0.03515503 -0.07421617 -0.082028404 -0.019530572 -0.14062013
0.06640395 -0.015624458 -0.019530572 -0.23046075 -0.039061144 0.20702407 -0.0039061145 -0.10937121
-0.10546509 -0.027342802 0.10937121 0.015624458 -0.10937121 -0.062497832 0.046873376 -0.08593452
0.015624458 -0.03515503 0.011718344 -0.1913996 0.050779488 0.14452624 -0.07812229 -0.062497832
-0.15233846 0.06640395 -0.15624458 0.054685604 -0.007812229 0.054685604 0.027342802 -0.027342802
0.062497832 -0.058591716 0.101558976 0.039061144 0.1328079 -0.09374675 -0.18358739 0.07812229
-0.082028404 -0.12108955 0.0039061145 -0.09765286 -0.054685604 -0.1328079 -0.03515503 -0.10546509
0.019530572 -0.10546509 -0.054685604 -0.11327732 0.0039061145 -0.17968127 -0.124995664 0.06640395
-0.007812229 0.015624458 0.15233846 -0.039061144 0.12108955 0.054685604 -0.13671401 -0.10546509
0.007812229 -0.21093018 0.039061144 -0.14843234 -0.11327732 -0.17186904 -0.16015069 -0.1874935
-0.050779488 0.058591716 -0.082028404 0.14452624 -0.07031006 -0.11718343 0.11718343 0.031248916
0.023436688 -0.16796292 0.027342802 0.08593452 0.0 -0.07812229 -0.011718344 -0.046873376
-0.08593452 0.09765286 -0.027342802 0.0039061145 -0.058591716 -0.10937121 0.015624458 -0.14843234
0.101558976 -0.046873376 0.050779488 0.054685604 0.0 -0.031248916 0.007812229 -0.20702407
-0.11327732 0.089840636 0.10546509 -0.11718343 -0.15233846 0.019530572 -0.027342802 -0.10937121
0.10546509 0.04296726 0.0039061145 0.062497832 0.101558976 -0.06640395 -0.039061144 -0.011718344
-0.089840636 -0.015624458 0.0 -0.015624458 0.08593452 -0.12890178 0.07812229 -0.015624458
-0.011718344 0.07812229 -0.019530572 0.07421617 -0.15624458 0.050779488 -0.08593452 0.089840636
-0.027342802 -0.082028404 0.03515503 -0.082028404 -0.011718344 0.0039061145 -0.031248916 -0.09765286
0.023436688 -0.07421617 0.11327732 0.062497832 0.039061144 -0.17577516 -0.13671401 0.13671401
-0.11718343 -0.08593452 0.101558976 -0.023436688 -0.039061144 0.058591716 -0.007812229 -0.19530572
0.015624458 -0.22655465 0.062497832 0.007812229 0.082028404 -0.12108955 -0.054685604 -0.015624458
00000000: 978e 5288 737a 7c82 6b9d a47a ae7f a958
00000010: 5f99 6998 7d6e a185 8d8c 9066 859d 7e6d
00000020: 8c65 6a83 738e 7b6c 7884 9279 657a 9866
00000030: 8899 8b99 70a3 7570 7ea0 7172 758c 6a70
00000040: 755f 746a 7e87 7285 926b 6c4f 6084 4d93
00000050: 736f 9b77 6d6b 7b5c 917c 7b45 76b5 7f64
00000060: 6579 9c84 6470 8c6a 8477 834f 8da5 6c70
00000070: 5991 588e 7e8e 8779 9071 9a8a a268 5194
00000080: 6b61 8167 725e 7765 8565 7263 8152 6091
00000090: 7e84 a776 9f8e 5d65 824a 8a5a 6354 5750
000000a0: 738f 6ba5 6e62 9e88 8655 8796 806c 7d74
000000b0: 6a99 7981 7164 845a 9a74 8d8e 8078 824b
000000c0: 6397 9b62 5985 7964 9b8b 8190 9a6f 767d
000000d0: 697c 807c 965f 947c 7d94 7b93 588d 6a97
000000e0: 796b 896b 7d81 7867 866d 9d90 8a53 5da3
000000f0: 626a 9a7a 768f 7e4e 8446 9082 9561 727c

DS-CNN/conv_ds_2/dw_conv/weights_quant/FakeQuantWithMinMaxVars u1 [1, 3, 3, 172] scale=0.016333267 zero_point=128
0.93099624 1.3393279 0.32666534 -0.31033206 0.489998 -0.22866574 0.50633126 -0.8819964
-0.57166433 0.1469994 0.57166433 -0.34299862 -0.22866574 -0.081666335 0.0489998 0.91466296
-0.35933188 -1.0126625 0.11433287 0.35933188 -0.5553311 -0.8329966 -0.22866574 -0.06533307
-0.9473295 -0.5389978 -0.7839968 -0.6206641 -0.11433287 0.31033206 0.5879976 -1.1269954
-0.70233047 -0.35933188 0.70233047 0.0979996 0.8329966 -0.93099624 0.3919984 -0.4409982
0.8983297 -0.032666534 -0.3919984 0.1469994 -0.6043309 1.4863273 -0.06533307 0.34299862
-0.244999 0.0489998 -0.5553311 0.75133026 -1.1759952 0.9473295 0.27766556 -0.34299862
1.4699941 0.47366476 0.17966594 0.8983297 -0.5879976 1.0453291 -0.3919984 0.9963293
-0.42466494 -1.3066614 0.68599725 -0.5553311 -0.91466296 0.31033206 -0.50633126 0.52266455
-0.66966397 -0.17966594 -0.6533307 0.3919984 -0.016333267 -1.2086618 -0.2939988 0.244999
-1.0289959 0.8493299 -1.0289959 0.1959992 0.57166433 0.032666534 -0.8493299 0.8329966
0.50633126 -0.8166634 0.9473295 -0.26133227 1.4699941 -0.8493299 -1.4699941 0.2939988
0.35933188 -0.50633126 1.2903281 -1.159662 0.6043309 -1.0943289 0.73499703 0.6206641
1.2086618 0.17966594 0.4083317 0.9963293 -0.57166433 0.06533307 0.4409982 -0.32666534
1.1433287 0.71866375 -0.9963293 0.6043309 -0.73499703 0.11433287 -0.4409982 -0.68599725
-0.8493299 -0.8819964 0.26133227 1.0126625 -0.6043309 -0.2939988 0.42466494 -0.8493299
0.8983297 1.5026605 1.4699941 0.9473295 -0.8329966 1.64966 0.9473295 0.5389978
-1.1759952 -0.081666335 0.26133227 -0.6043309 0.8493299 1.6333268 0.8983297 -0.76766354
0.6206641 -0.68599725 0.31033206 -0.032666534 0.5389978 -0.52266455 -0.06533307 -1.0289959
-0.27766556 -0.5879976 -0.4083317 0.52266455 0.6206641 -1.0453291 0.0489998 -0.06533307
-0.45733148 -0.8819964 1.64966 -0.8983297 0.47366476 0.3919984 0.6533307 -0.7839968
-0.489998 0.75133026 -0.31033206 0.66966397 -0.244999 -1.1433287 0.2939988 0.081666335
0.3919984 1.2576616 0.47366476 -0.37566513 0.0 -0.27766556 -0.26133227 -0.06533307
-0.16333267 0.0489998 0.11433287 -0.17966594 0.06533307 1.0126625 0.0489998 -0.8656632
0.42466494 0.32666534 0.26133227 0.032666534 -0.0979996 -0.0489998 -0.31033206 0.0489998
-0.11433287 -0.31033206 -0.8166634 -0.91466296 0.4083317 -0.13066614 0.11433287 0.27766556
-0.13066614 -0.8493299 -0.34299862 -0.9473295 0.8166634 -0.76766354 1.0779957 0.3919984
0.032666534 0.244999 1.0453291 0.6043309 -0.16333267 -0.4083317 -0.71866375 0.13066614
-0.6043309 1.1106622 0.3919984 -0.244999 0.96366274 -0.35933188 0.6369974 -0.9963293
-0.73499703 -0.6369974 -1.1923285 -0.0489998 0.0 -0.68599725 0.31033206 -0.8166634
0.75133026 -0.93099624 0.52266455 0.11433287 -0.1469994 0.71866375 0.6533307 0.1469994
-0.5879976 -0.57166433 -0.57166433 -0.34299862 -1.0126625 0.45733148 -0.16333267 -1.4373275
00000000: b9d2 946d 9e72 9f4a 5d89 a36b 727b 83b8
00000010: 6a42 8796 5e4d 727c 465f 505a 7993 a43b
00000020: 556a ab86 b347 9865 b77e 6889 5bdb 7c95
00000030: 7183 5eae 38ba 916b da9d 8bb7 5cc0 68bd
00000040: 6630 aa5e 4893 61a0 5775 5898 7f36 6e8f
00000050: 41b4 418c a382 4cb3 9f4e ba70 da4c 2692
00000060: 9661 cf39 a53d ada6 ca8b 99bd 5d84 9b6c
00000070: c6ac 43a5 5387 6556 4c4a 90be 5b6e 9a4c
00000080: b7dc daba 4de5 baa1 387b 905b b4e4 b751
00000090: a656 937e a160 7c41 6f5c 67a0 a640 837c
000000a0: 644a e549 9d98 a850 62ae 6da9 713a 9285
000000b0: 98cd 9d69 806f 707c 7683 8775 84be 834b
000000c0: 9a94 9082 7a7d 6d83 796d 4e48 9978 8791
000000d0: 784c 6b46 b251 c298 828f c0a5 7667 5488
000000e0: 5bc4 9871 bb6a a743 5359 377d 8056 934e
000000f0: ae47 a087 77ac a889 5c5d 5d6b 429c 7628

DS-CNN/conv_ds_2/pw_conv/weights_quant/FakeQuantWithMinMaxVars u1 [172, 1, 1, 172] scale=0.0033829177 zero_point=128
0.04397793 -0.104870446 0.04397793 -0.07442419 -0.13531671 0.104870446 -0.037212096 -0.050743766
-0.15899713 0.03044626 0.064275436 0.020297507 -0.027063342 0.0 0.08457294 -0.06765836
-0.08795586 0.037212096 -0.06089252 -0.12516795 0.08119003 -0.11163629 -0.10148753 -0.04736085
-0.013531671 0.010148753 -0.04397793 -0.08119003 -0.15223129 -0.1150192 -0.040595014 -0.06089252
0.0 -0.09810461 -0.023680424 0.08119003 0.11163629 -0.023680424 -0.07442419 -0.10825337
0.0575096 0.14546546 -0.08795586 0.10825337 0.0 -0.10148753 -0.050743766 -0.04397793
0.0 -0.04397793 0.0033829177 -0.01691459 0.04397793 0.03044626 0.08119003 0.0
-0.0947217 -0.1150192 -0.07442419 0.023680424 -0.01691459 -0.037212096 -0.0033829177 0.023680424
-0.0033829177 -0.023680424 0.064275436 0.0947217 0.0575096 -0.15561421 -0.037212096 0.020297507
0.18606047 0.06765836 0.03382918 -0.21312381 -0.13531671 0.09810461 -0.037212096 -0.06765836
-0.15561421 0.06765836 -0.091338776 0.0 -0.14884838 0.12178504 -0.12178504 -0.14884838
-0.10148753 0.06089252 -0.07104127 0.08795586 -0.04397793 0.08795586 -0.023680424 -0.07104127
0.07104127 0.10148753 -0.08119003 0.11840212 -0.077807106 -0.10148753 0.15223129 -0.19620922
-0.15223129 -0.04397793 -0.04397793 -0.0033829177 0.12516795 -0.03382918 -0.14884838 -0.010148753
-0.2300384 0.03044626 0.01691459 -0.06089252 -0.020297507 0.013531671 0.03382918 -0.077807106
-0.027063342 -0.11163629 0.013531671 -0.08795586 0.03382918 0.13531671 -0.04397793 -0.15899713
0.037212096 -0.023680424 -0.06089252 -0.027063342 0.09810461 0.11840212 0.050743766 -0.07442419
0.091338776 -0.09810461 0.07442419 0.064275436 0.0033829177 0.027063342 0.03382918 -0.08795586
0.0033829177 -0.03382918 -0.040595014 -0.12516795 -0.07104127 0.013531671 -0.10825337 0.0
0.04736085 0.08457294 0.11840212 0.064275436 0.15561421 0.013531671 0.04736085 0.010148753
0.1319338 0.054126684 -0.08119003 -0.091338776 0.040595014 -0.03382918 0.0575096 -0.01691459
-0.03382918 0.08457294 0.020297507 0.013531671 0.064275436 -0.14884838 -0.03382918 -0.054126684
0.08795586 -0.013531671 0.013531671 -0.10825337 0.03382918 -0.19620922 0.010148753 0.1319338
-0.0575096 0.06089252 -0.08457294 0.04397793 0.08795586 -0.03044626 -0.19959214 0.04736085
0.07442419 -0.20297506 -0.0575096 0.08795586 -0.03044626 -0.040595014 0.06089252 -0.0067658355
-0.054126684 0.104870446 -0.050743766 -0.11840212 -0.09810461 0.10825337 0.010148753 0.0033829177
0.07442419 -0.037212096 -0.17591172 -0.04736085 -0.14546546 0.09810461 -0.01691459 -0.050743766
-0.09810461 -0.037212096 -0.1319338 -0.10148753 -0.16914588 -0.10148753 0.050743766 0.15223129
0.14208254 0.013531671 -0.07442419 -0.17591172 0.0947217 0.07442419 -0.010148753 -0.08119003
0.07442419 0.08795586 -0.20635799 -0.0947217 0.04397793 -0.16914588 -0.020297507 0.12855087
0.054126684 -0.0067658355 -0.0947217 -0.1150192 0.050743766 -0.08795586 -0.15223129 0.027063342
0.14884838 -0.10148753 -0.21650673 0.10148753 0.14546546 0.03044626 -0.04736085 -0.246953
00000000: 8d61 8d6a 589f 7571 5189 9386 7880 996c
00000010: 668b 6e5b 985f 6272 7c83 7368 535e 746e
00000020: 8063 7998 a179 6a60 91ab 66a0 8062 7173
00000030: 8073 817b 8d89 9880 645e 6a87 7b75 7f87
00000040: 7f79 939c 9152 7586 b794 8a41 589d 756c
00000050: 5294 6580 54a4 5c54 6292 6b9a 739a 796b
00000060: 959e 68a3 6962 ad46 5373 737f a576 547d
00000070: 3c89 856e 7a84 8a69 785f 8466 8aa8 7351
00000080: 8b79 6e78 9da3 8f6a 9b63 9693 8188 8a66
00000090: 8176 745b 6b84 6080 8e99 a393 ae84 8e83
000000a0: a790 6865 8c76 917b 7699 8684 9354 7670
000000b0: 9a7c 8460 8a46 83a7 6f92 678d 9a77 458e
000000c0: 9644 6f9a 7774 927e 709f 715d 63a0 8381
000000d0: 9675 4c72 559d 7b71 6375 5962 4e62 8fad
000000e0: aa84 6a4c 9c96 7d68 969a 4364 8d4e 7aa6
000000f0: 907e 645e 8f66 5388 ac62 409e ab89 7237

DS-CNN/conv_ds_3/dw_conv/weights_quant/FakeQuantWithMinMaxVars u1 [1, 3, 3, 172] scale=0.013248975 zero_point=128
0.3179754 0.543208 -0.6491998 0.35772234 -0.30472642 0.13248976 -0.3179754 0.41071823
0.59620386 -0.4769631 0.14573874 -0.02649795 -0.18548566 -0.90093035 -0.06624488 0.039746925
0.9539262 -0.25173053 -0.19873463 0.17223668 1.2719016 0.529959 -0.76844054 0.37097132
-0.37097132 -0.013248975 -0.02649795 -0.1589877 1.1659099 0.039746925 0.58295494 1.086416
-0.09274283 1.1394119 0.6359508 -1.0996649 0.7551916 -0.6359508 0.60945284 0.30472642
-0.17223668 0.22523259 0.17223668 -0.49021208 -0.50346106 -0.67569774 -1.086416 1.2321547
-0.41071823 0.88768137 -0.8479344 0.4769631 0.2119836 1.656122 -0.6227018 0.07949385
0.02649795 0.09274283 -0.50346106 0.23848155 -0.72869366 0.33122438 0.49021208 0.50346106
-0.6491998 0.4769631 0.66244876 0.6227018 -0.19873463 -0.35772234 -0.23848155 -0.14573874
0.8479344 1.112914 -0.9274283 1.0069221 0.38422027 0.2782285 0.22523259 -0.4372162
0.013248975 0.529959 1.3778934 1.0334201 -0.34447336 1.0334201 0.60945284 0.72869366
1.046669 0.1059918 -0.83468544 0.2649795 0.82143646 -0.58295494 -1.0334201 0.8744324
0.13248976 0.6359508 0.2649795 0.3179754 -0.14573874 -0.07949385 -0.6359508 0.17223668
0.6227018 -0.7551916 0.0 1.1394119 -0.529959 -0.99367315 -0.8479344 0.7021957
-0.50346106 -0.90093035 0.67569774 -0.88768137 0.0529959 -0.41071823 -0.6491998 0.56970596
-0.19873463 1.0996649 -0.60945284 0.88768137 0.06624488 -0.8479344 0.119240776 0.22523259
0.8081875 -0.9141793 -0.7021957 0.7154447 0.0529959 -0.41071823 0.1059918 -0.6889467
0.7816895 0.34447336 -0.19873463 -0.58295494 -0.6889467 0.543208 0.556457 0.7154447
0.4239672 0.9141793 0.8081875 -0.4372162 0.66244876 0.30472642 -0.25173053 1.1924077
0.0 0.013248975 -0.02649795 -0.4769631 -0.30472642 -0.02649795 0.22523259 0.23848155
0.039746925 -0.09274283 -0.8081875 0.74194264 0.2782285 0.1059918 0.6227018 0.45046517
-0.56970596 0.66244876 -0.529959 0.07949385 0.9539262 -0.29147747 0.556457 0.3179754
0.0 0.3179754 0.59620386 -0.0529959 -0.35772234 0.56970596 -0.06624488 -0.56970596
-0.4372162 -0.556457 -0.33122438 0.74194264 1.0334201 -0.19873463 0.543208 0.1059918
0.9539262 -0.39746925 0.7154447 -0.013248975 -0.6889467 -0.2119836 0.9406772 -0.3179754
1.0069221 0.49021208 0.35772234 0.29147747 -0.60945284 0.39746925 0.6889467 -0.39746925
0.556457 0.35772234 -0.4769631 -0.23848155 -0.34447336 0.18548566 0.38422027 0.6889467
-0.1589877 -0.60945284 0.29147747 -0.4372162 -0.6227018 0.17223668 -0.556457 -0.25173053
0.119240776 -0.2649795 0.556457 -0.90093035 -0.50346106 0.51671004 0.119240776 -0.06624488
0.4769631 0.7021957 -0.18548566 0.46371415 -0.35772234 -0.23848155 0.9141793 1.086416
0.14573874 0.14573874 -0.7154447 0.46371415 0.1059918 0.4239672 -0.119240776 0.60945284
0.7949385 -0.4769631 -0.013248975 0.07949385 0.07949385 -0.119240776 -0.74194264 -0.556457
00000000: 98a9 4f9b 698a 689f ad5c 8b7e 723c 7b83
00000010: c86d 718d e0a8 469c 647f 7e74 d883 acd2
00000020: 79d6 b02d b950 ae97 7391 8d5b 5a4d 2edd
00000030: 61c3 40a4 90fd 5186 8287 5a92 4999 a5a6
00000040: 4fa4 b2af 7165 6e75 c0d4 3acc 9d95 915f
00000050: 81a8 e8ce 66ce aeb7 cf88 4194 be54 32c2
00000060: 8ab0 9498 757a 508d af47 80d6 5835 40b5
00000070: 5a3c b33d 8461 4fab 71d3 52c3 8540 8991
00000080: bd3b 4bb6 8461 884c bb9a 7154 4ca9 aab6
00000090: a0c5 bd5f b297 6dda 8081 7e5c 697e 9192
000000a0: 8379 43b8 9588 afa2 55b2 5886 c86a aa98
000000b0: 8098 ad7c 65ab 7b55 5f56 67b8 ce71 a988
000000c0: c862 b67f 4c70 c768 cca5 9b96 529e b462
000000d0: aa9b 5c6e 668e 9db4 7452 965f 518d 566d
000000e0: 896c aa3c 5aa7 897b a4b5 72a3 656e c5d2
000000f0: 8b8b 4aa3 88a0 77ae bc5c 7f86 8677 4856

DS-CNN/conv_ds_3/pw_conv/weights_quant/FakeQuantWithMinMaxVars u1 [172, 1, 1, 172] scale=0.0031814866 zero_point=128
0.12725946 0.07317419 -0.0063629732 -0.025451893 0.07635568 -0.069992706 -0.082718655 0.085900135
0.069992706 0.16543731 0.085900135 0.031814866 -0.15907434 -0.02863338 -0.10180757 -0.07317419
0.10180757 0.0954446 0.054085273 0.06681122 -0.02863338 -0.11771501 0.01908892 0.0127259465
0.0127259465 -0.03817784 -0.085900135 0.18134473 -0.05726676 0.0477223 0.11453352 -0.07317419
0.0 -0.04454081 -0.10180757 -0.07635568 -0.11771501 0.02863338 0.0063629732 -0.050903786
-0.025451893 -0.08908162 0.034996353 -0.111352034 0.06362973 0.11453352 -0.15589285 0.11453352
-0.050903786 0.17816325 -0.22270407 -0.08908162 -0.03817784 -0.01908892 0.0063629732 -0.082718655
-0.07635568 0.10498906 -0.034996353 -0.17498176 -0.15589285 0.060448244 -0.20043366 0.10180757
0.0 -0.041359328 0.0 -0.0477223 0.041359328 -0.0477223 -0.085900135 -0.05726676
-0.1908892 -0.069992706 0.06681122 -0.054085273 -0.022270406 -0.0954446 0.07317419 -0.0477223
0.11771501 -0.1908892 -0.015907433 0.10498906 0.13362244 -0.15271136 -0.05726676 -0.041359328
-0.04454081 -0.06681122 0.082718655 0.069992706 0.015907433 -0.06681122 0.0127259465 -0.07953717
-0.085900135 -0.111352034 -0.085900135 -0.15271136 -0.031814866 -0.034996353 -0.124077976 -0.06362973
0.0063629732 0.031814866 0.060448244 -0.015907433 -0.041359328 -0.0031814866 -0.025451893 -0.069992706
0.03817784 -0.0063629732 -0.034996353 -0.0031814866 -0.10180757 -0.01908892 0.03817784 -0.03817784
0.050903786 0.060448244 -0.054085273 0.098626085 -0.13044095 -0.069992706 0.022270406 -0.01908892
0.015907433 -0.17180027 -0.082718655 -0.08908162 -0.041359328 -0.098626085 0.111352034 0.034996353
0.022270406 0.07635568 0.031814866 -0.025451893 0.015907433 0.05726676 -0.082718655 -0.15271136
-0.041359328 0.0954446 0.050903786 -0.054085273 -0.19407068 0.08908162 -0.069992706 -0.15271136
-0.124077976 -0.015907433 -0.111352034 -0.031814866 -0.022270406 0.0477223 0.060448244 0.111352034
0.1908892 -0.0031814866 -0.12725946 -0.06681122 -0.1431669 0.0127259465 -0.22270407 0.07317419
-0.1431669 0.025451893 -0.14952987 0.050903786 -0.01908892 -0.09226311 0.111352034 0.0477223
0.12089649 0.09226311 -0.0063629732 0.06362973 0.11771501 0.0127259465 -0.06681122 -0.17180027
-0.20361514 0.2640634 0.098626085 -0.13044095 -0.07317419 -0.041359328 -0.10498906 0.07635568
-0.13044095 0.06681122 0.01908892 0.06362973 -0.14634839 -0.082718655 -0.0477223 0.0
0.034996353 -0.0954446 -0.10180757 -0.082718655 -0.111352034 -0.08908162 -0.022270406 0.00954446
-0.0954446 -0.07317419 0.09226311 -0.04454081 -0.15907434 -0.0127259465 -0.06362973 0.0
0.041359328 0.17816325 0.07317419 -0.04454081 -0.12089649 0.082718655 -0.12089649 0.025451893
-0.10498906 -0.07635568 -0.13998541 -0.08908162 0.034996353 0.082718655 0.054085273 -0.060448244
0.06681122 0.041359328 -0.19407068 -0.27360785 0.01908892 -0.124077976 -0.17180027 -0.07953717
-0.022270406 0.01908892 0.07635568 -0.015907433 -0.1686188 -0.031814866 0.16225582 -0.09226311
-0.04454081 -0.15589285 -0.20997812 -0.1686188 -0.022270406 -0.050903786 -0.02863338 -0.00954446
00000000: a897 7e78 986a 669b 96b4 9b8a 4e77 6069
00000010: a09e 9195 775b 8684 8474 65b9 6e8f a469
00000020: 8072 6068 5b89 8270 7864 8b5d 94a4 4fa4
00000030: 70b8 3a64 747a 8266 68a1 7549 4f93 41a0
00000040: 8073 8071 8d71 656e 446a 956f 7962 9771
00000050: a544 7ba1 aa50 6e73 726b 9a96 856b 8467
00000060: 655d 6550 7675 596c 828a 937b 737f 786a
00000070: 8c7e 757f 607a 8c74 9093 6f9f 576a 877a
00000080: 854a 6664 7361 a38b 8798 8a78 8592 6650
00000090: 739e 906f 439c 6a50 597b 5d76 798f 93a3
000000a0: bc7f 586b 5384 3a97 5388 5190 7a63 a38f
000000b0: a69d 7e94 a584 6b4a 40d3 9f57 6973 5f98
000000c0: 5795 8694 5266 7180 8b62 6066 5d64 7983
000000d0: 6269 9d72 4e7c 6c80 8db8 9772 5a9a 5a88
000000e0: 5f68 5464 8b9a 916d 958d 432a 8659 4a67
000000f0: 7986 987b 4b76 b363 724f 3e4b 7970 777d

DS-CNN/conv_ds_4/dw_conv/weights_quant/FakeQuantWithMinMaxVars u1 [1, 3, 3, 172] scale=0.011863825 zero_point=128
-0.43896154 0.36777857 -0.10677443 0.27286798 -1.221974 -0.7711486 -0.29659563 -0.54573596
-0.81860393 -0.3440509 0.2372765 0.8423316 -0.2372765 -0.40337005 0.07118295 -0.27286798
-0.2847318 -0.5338721 0.07118295 -0.35591474 -0.5694636 0.3796424 -0.26100415 -0.39150622
-0.6169189 0.58132744 0.74742097 -0.48641682 -0.48641682 -0.6881018 0.0949106 -0.58132744
0.62878275 -0.49828064 0.6643742 -0.86605924 0.6050551 0.41523388 1.4948419 0.88978684
0.49828064 0.4270977 0.6643742 -0.27286798 0.5101445 -0.65251034 0.8067401 -0.29659563
0.6406465 0.43896154 -0.6406465 0.8067401 0.88978684 -0.5575998 0.62878275 -0.5220083
0.2847318 1.2694292 -0.27286798 -0.32032326 -0.46268916 -0.29659563 1.020289 -0.17795737
0.22541267 -0.9135145 0.40337005 -0.62878275 0.5694636 0.36777857 0.69996566 1.1033357
0.6881018 0.27286798 -0.45082533 0.3440509 -0.1898212 0.20168503 0.6881018 -0.16609354
0.62878275 0.8067401 0.22541267 1.020289 0.45082533 -0.1423659 0.5694636 0.86605924
-0.65251034 -0.24914032 -0.43896154 0.7711486 -0.24914032 -0.46268916 0.6643742 0.24914032
-0.15422973 0.7711486 -0.32032326 1.1863825 -0.58132744 0.3440509 0.69996566 1.0796081
-0.41523388 0.78301245 -0.30845946 -0.30845946 -0.2847318 0.8541954 -0.20168503 0.5694636
-0.73555714 0.90165067 -0.7711486 -0.29659563 -1.1033357 0.5694636 -0.41523388 -0.65251034
0.32032326 0.86605924 0.7236933 0.5101445 -0.90165067 -0.7948763 -0.29659563 0.45082533
0.0474553 -0.48641682 -0.2847318 -0.474553 -0.6881018 -0.48641682 -0.2372765 -0.5575998
-0.32032326 0.3796424 0.20168503 -0.3796424 -0.43896154 0.474553 0.49828064 -0.36777857
-0.16609354 -0.474553 0.5575998 0.88978684 -0.40337005 0.474553 0.7948763 0.65251034
1.0914719 0.3440509 -0.26100415 -0.3796424 -0.35591474 -0.58132744 0.8779231 -0.15422973
0.48641682 -0.6169189 0.0949106 -0.4270977 -0.41523388 -0.69996566 0.8541954 -0.1898212
0.0 -0.16609354 0.73555714 0.62878275 -0.62878275 0.5338721 -0.10677443 -1.0440166
-0.22541267 -0.40337005 0.2847318 -0.29659563 -0.2372765 -0.6881018 0.39150622 0.4270977
-0.17795737 -0.3440509 -0.474553 -0.7236933 -0.20168503 -0.5101445 0.011863825 -0.39150622
-0.32032326 0.2847318 0.11863825 -0.26100415 -0.3321871 0.5575998 0.5101445 -0.62878275
0.7236933 -0.45082533 -0.45082533 -0.6050551 0.46268916 -0.5101445 0.4270977 -0.74742097
0.6881018 0.49828064 0.69996566 0.7236933 0.48641682 0.7592848 0.9135145 -0.3796424
0.6406465 -0.46268916 0.6050551 -0.07118295 0.2372765 0.74742097 -0.6169189 0.5575998
0.6169189 -0.48641682 0.65251034 -0.24914032 0.35591474 0.39150622 -0.13050207 -0.035591476
-0.30845946 -0.5694636 -0.98469746 -0.54573596 -0.08304677 -0.46268916 0.41523388 0.02372765
0.3796424 0.6050551 0.65251034 0.69996566 -0.20168503 0.11863825 0.07118295 0.3440509
-0.45082533 -0.07118295 0.0 -0.0474553 0.5101445 0.36777857 -0.6406465 0.81860393
00000000: 5b9f 7797 193f 6752 3b63 94c7 6c5e 8669
00000010: 6853 8662 50a0 6a5f 4cb1 bf57 5746 884f
00000020: b556 b837 b3a3 fecb aaa4 b869 ab49 c467
00000030: b6a5 4ac4 cb51 b554 98eb 6965 5967 d671
00000040: 9333 a24b b09f bbdd ba97 5a9d 7091 ba72
00000050: b5c4 93d6 a674 b0c9 496b 5bc1 6b59 b895
00000060: 73c1 65e4 4f9d bbdb 5dc2 6666 68c8 6fb0
00000070: 42cc 3f67 23b0 5d49 9bc9 bdab 343d 67a6
00000080: 8457 6858 4657 6c51 65a0 9160 5ba8 aa61
00000090: 7258 afcb 5ea8 c3b7 dc9d 6a60 624f ca73
000000a0: a94c 885c 5d45 c870 8072 beb5 4bad 7728
000000b0: 6d5e 9867 6c46 a1a4 7163 5843 6f55 815f
000000c0: 6598 8a6a 64af ab4b bd5a 5a4d a755 a441
000000d0: baaa bbbd a9c0 cd60 b659 b37a 94bf 4caf
000000e0: b457 b76b 9ea1 757d 6650 2d52 7959 a382
000000f0: a0b3 b7bb 6f8a 869d 5a7a 807c ab9f 4ac5

DS-CNN/conv_ds_4/pw_conv/weights_quant/FakeQuantWithMinMaxVars u1 [172, 1, 1, 172] scale=0.0037235024 zero_point=128
-0.10798157 -0.04840553 -0.07447005 -0.17128111 0.07447005 -0.04840553 -0.1452166 0.055852536
0.18617512 0.04468203 0.100534566 0.16383411 -0.02978802 0.12659909 0.05957604 0.04468203
0.04840553 0.037235025 0.16011061 -0.07819355 0.04840553 -0.02978802 0.08936406 -0.0037235024
-0.011170507 -0.1340461 0.052129034 0.07074655 0.040958527 0.16755761 -0.2718157 -0.055852536
0.19362213 0.018617513 -0.08564056 -0.1563871 0.037235025 0.17500462 -0.18245162 0.04468203
-0.040958527 0.040958527 0.0037235024 0.18617512 -0.11915208 -0.10798157 -0.033511523 -0.08936406
0.1452166 0.0 -0.06702305 0.033511523 -0.17872812 -0.10425807 -0.20106913 -0.08564056
0.17872812 0.09308756 -0.07819355 0.052129034 -0.037235025 -0.17128111 -0.16011061 -0.07447005
-0.05957604 -0.037235025 -0.037235025 -0.1377696 0.08564056 -0.06702305 0.07074655 0.13032259
-0.055852536 0.040958527 0.13032259 -0.21968664 -0.06702305 -0.05957604 -0.07074655 -0.1377696
0.052129034 0.23085715 0.16383411 -0.16383411 -0.04840553 -0.063299544 -0.04468203 0.10798157
0.052129034 0.18245162 -0.02978802 -0.100534566 0.11915208 -0.02978802 -0.2755392 0.11915208
-0.037235025 0.08564056 0.07447005 -0.011170507 -0.02978802 0.11170507 -0.05957604 0.35000923
-0.040958527 0.040958527 0.04840553 0.02978802 0.018617513 0.018617513 0.063299544 0.18245162
-0.01489401 -0.0037235024 -0.081917055 -0.13032259 -0.08564056 -0.052129034 -0.12287558 0.25319818
-0.04840553 0.11915208 -0.018617513 0.16011061 0.06702305 0.04468203 -0.1452166 0.037235025
0.037235025 -0.063299544 -0.11915208 -0.16383411 0.052129034 -0.09308756 0.07819355 -0.1452166
0.10798157 0.17872812 -0.115428574 -0.10798157 0.115428574 0.20479263 0.23085715 -0.1489401
0.10798157 0.02978802 -0.0037235024 0.063299544 0.06702305 -0.081917055 -0.13032259 0.17872812
0.11170507 0.0037235024 -0.07447005 -0.0037235024 -0.100534566 0.08564056 -0.12659909 -0.037235025
-0.007447005 -0.11170507 -0.018617513 -0.19362213 -0.037235025 -0.06702305 0.0037235024 -0.052129034
0.16755761 -0.17128111 -0.018617513 -0.06702305 -0.25319818 -0.13032259 -0.1377696 -0.033511523
0.040958527 0.055852536 -0.026064517 -0.20106913 -0.17872812 0.033511523 0.115428574 -0.07447005
0.06702305 -0.018617513 0.18617512 0.08936406 -0.052129034 0.4654378 0.01489401 -0.040958527
0.07819355 -0.04468203 0.1414931 0.06702305 -0.20851614 -0.037235025 -0.037235025 0.037235025
0.022341015 -0.2718157 0.21223964 0.10425807 -0.16755761 -0.1563871 0.1377696 0.19362213
0.026064517 -0.07447005 0.05957604 -0.21223964 0.026064517 -0.10798157 -0.18617512 -0.081917055
-0.06702305 0.17128111 -0.026064517 0.007447005 -0.10798157 0.21223964 0.0037235024 -0.05957604
-0.026064517 -0.022341015 0.11170507 -0.25692168 -0.08564056 -0.08936406 0.037235025 0.07447005
-0.100534566 0.13032259 -0.018617513 0.08936406 0.07074655 0.1377696 0.19362213 -0.026064517
0.026064517 0.24202766 -0.063299544 -0.16383411 -0.040958527 -0.10798157 -0.07819355 -0.040958527
0.01489401 0.07447005 0.07819355 0.20851614 0.10425807 -0.007447005 -0.037235025 0.07074655
00000000: 6373 6c52 9473 598f b28c 9bac 78a2 908c
00000010: 8d8a ab6b 8d78 987f 7d5c 8e93 8bad 3771
00000020: b485 6956 8aaf 4f8c 758b 81b2 6063 7768
00000030: a780 6e89 5064 4a69 b099 6b8e 7652 556c
00000040: 7076 765b 976e 93a3 718b a345 6e70 6d5b
00000050: 8ebe ac54 736f 749d 8eb1 7865 a078 36a0
00000060: 7697 947d 789e 70de 758b 8d88 8585 91b1
00000070: 7c7f 6a5d 6972 5fc4 73a0 7bab 928c 598a
00000080: 8a6f 6054 8e67 9559 9db0 6163 9fb7 be58
00000090: 9d88 7f91 926a 5db0 9e81 6c7f 6597 5e76
000000a0: 7e62 7b4c 766e 8172 ad52 7b6e 3c5d 5b77
000000b0: 8b8f 794a 5089 9f6c 927b b298 72fd 8475
000000c0: 9574 a692 4876 768a 8637 b99c 5356 a5b4
000000d0: 876c 9047 8763 4e6a 6eae 7982 63b9 8170
000000e0: 797a 9e3b 6968 8a94 65a3 7b98 93a5 b479
000000f0: 87c1 6f54 7563 6b75 8494 95b8 9c7e 7693

DS-CNN/fc1/weights_quant/FakeQuantWithMinMaxVars/transpose u1 [12, 172] scale=0.006068588 zero_point=128
-0.46728125 -0.26094928 -0.4005268 0.41266397 -0.5036928 -0.5461729 0.4430069 -0.17598905
-0.4430069 -0.35804668 -0.2002634 0.05461729 -0.53403574 0.2427435 0.4430069 -0.6614761
-0.38232103 -0.27915505 -0.47941843 0.46121266 -0.15778328 -0.3519781 -0.13350894 -0.3944582
-0.13350894 -0.45514408 -0.6978876 -0.57044727 -0.115303166 -0.52189857 0.28522363 -0.27308646
-0.4430069 0.2002634 -0.35804668 -0.2427435 -0.4976242 -0.4430069 0.41873255 0.38838962
-0.52796715 -0.5036928 -0.72823054 -0.29129222 -0.588653 -0.42480114 -0.15778328 -0.26094928
-0.29129222 -0.6554075 -0.2427435 -0.097097404 -0.13957752 -0.4915556 -0.5643787 -0.26701787
-0.45514408 -0.4005268 -0.29129222 -0.485487 -0.485487 -0.4490755 -0.18205763 -0.45514408
0.37018386 -0.4976242 -0.33377233 0.46121266 -0.46121266 -0.38232103 -0.09102882 -0.05461729
-0.6493389 -0.26094928 -0.14564611 -0.38232103 -0.53403574 -0.46121266 -0.41266397 -0.5036928
-0.67361325 0.4005268 -0.22453775 -0.5643787 -0.52796715 -0.012137176 -0.20633198 -0.28522363
-0.7464363 -0.47334984 -0.27915505 -0.4005268 -0.43693832 -0.4915556 -0.45514408 -0.32770374
0.43086973 -0.47334984 -0.43086973 -0.16385187 -0.37018386 -0.23060633 -0.6007902 -0.67968184
0.4005268 0.42480114 -0.3944582 -0.06675447 -0.3459095 -0.3459095 -0.66754466 0.33377233
-0.3519781 0.33984092 0.060685877 0.29129222 -0.6068588 -0.33984092 -0.07889164 -0.5643787
-0.4430069 -0.58258444 0.41266397 -0.5097614 0.32163516 -0.51583 -0.7039562 -0.23667492
-0.3459095 -0.33377233 -0.6614761 0.4490755 -0.58258444 -0.67968184 -0.72216195 0.4430069
-0.22453775 0.097097404 -0.47941843 0.13957752 -0.20633198 -0.6493389 -0.38232103 -0.46121266
-0.57651585 -0.26701787 -0.060685877 -0.47334984 -0.77071065 -0.72823054 0.060685877 -0.63113314
-0.7100248 0.40659538 0.22453775 -0.29129222 0.33377233 -0.29129222 -0.53403574 -0.060685877
-0.32770374 -0.40659538 -0.024274351 -0.41266397 -0.5097614 -0.46121266 -0.5947216 -0.5583101
-0.3034294 -0.6372017 -0.4430069 -0.31556657 -0.2548807 0.31556657 0.2548807 -0.18205763
-0.21240057 0.2427435 0.13350894 0.006068588 0.37625244 -0.1517147 0.17598905 -0.30949798
0.33984092 -0.012137176 -0.26094928 0.036411528 0.22453775 -0.2002634 0.12744035 -0.20633198
-0.23060633 0.042480115 0.042480115 -0.115303166 0.024274351 -0.21240057 -0.036411528 0.23667492
-0.19419481 0.048548702 0.30949798 0.13350894 0.09102882 0.19419481 -0.07889164 0.12137175
-0.2548807 -0.30949798 -0.12744035 0.21240057 -0.21846916 0.17598905 0.012137176 0.060685877
-0.3944582 0.018205764 0.3034294 0.07889164 0.13957752 -0.060685877 0.012137176 0.16385187
-0.13350894 -0.21240057 -0.15778328 0.12744035 0.006068588 -0.09102882 0.115303166 0.060685877
0.3519781 -0.16385187 -0.2548807 -0.15778328 0.09102882 0.16385187 -0.048548702 -0.16992046
0.10923458 0.22453775 -0.036411528 0.32770374 -0.20633198 -0.15778328 -0.1517147 -0.09102882
0.030342938 0.17598905 -0.10316599 0.13957752 -0.16992046 0.21846916 -0.33377233 -0.15778328
00000000: 3355 3ec4 2d26 c963 3745 5f89 28a8 c913
00000010: 4152 31cc 6646 6a3f 6a35 0d22 6d2a af53
00000020: 37a1 4558 2e37 c5c0 292d 0850 1f3a 6655
00000030: 5014 5870 692f 2354 353e 5030 3036 6235
00000040: bd2e 49cc 3441 7177 1555 6841 2834 3c2d
00000050: 11c2 5b23 297e 5e51 0532 523e 382f 354a
00000060: c732 3965 435a 1d10 c2c6 3f75 4747 12b7
00000070: 46b8 8ab0 1c48 7323 3720 c42c b52b 0c59
00000080: 4749 13ca 2010 09c9 5b90 3197 5e15 4134
00000090: 2154 7632 0108 8a18 0bc3 a550 b750 2876
000000a0: 4a3d 7c3c 2c34 1e24 4e17 374c 56b4 aa62
000000b0: 5da8 9681 be67 9d4d b87e 5586 a55f 955e
000000c0: 5a87 876d 845d 7aa7 6088 b396 8fa0 7394
000000d0: 564d 6ba3 5c9d 828a 3f83 b28d 9776 829b
000000e0: 6a5d 6695 8171 938a ba65 5666 8f9b 7864
000000f0: 92a5 7ab6 5e66 6771 859d 6f97 64a4 4966
